<?xml version="1.0"?>
<net name="Model0" version="11">
	<layers>
		<layer id="0" name="x" type="Parameter" version="opset1">
			<data shape="1,3,640,640" element_type="f32" />
			<output>
				<port id="0" precision="FP32" names="images">
					<dim>1</dim>
					<dim>3</dim>
					<dim>640</dim>
					<dim>640</dim>
				</port>
			</output>
		</layer>
		<layer id="1" name="x/fq_output_0/input_low_compressed" type="Const" version="opset1">
			<data element_type="f16" shape="" offset="0" size="2" />
			<output>
				<port id="0" precision="FP16" />
			</output>
		</layer>
		<layer id="2" name="x/fq_output_0/input_low" type="Convert" version="opset1">
			<data destination_type="f32" />
			<rt_info>
				<attribute name="decompression" version="0" />
			</rt_info>
			<input>
				<port id="0" precision="FP16" />
			</input>
			<output>
				<port id="1" precision="FP32" />
			</output>
		</layer>
		<layer id="3" name="x/fq_output_0/input_high_compressed" type="Const" version="opset1">
			<data element_type="f16" shape="" offset="2" size="2" />
			<output>
				<port id="0" precision="FP16" />
			</output>
		</layer>
		<layer id="4" name="x/fq_output_0/input_high" type="Convert" version="opset1">
			<data destination_type="f32" />
			<rt_info>
				<attribute name="decompression" version="0" />
			</rt_info>
			<input>
				<port id="0" precision="FP16" />
			</input>
			<output>
				<port id="1" precision="FP32" />
			</output>
		</layer>
		<layer id="5" name="x/fq_output_0/output_low_compressed" type="Const" version="opset1">
			<data element_type="f16" shape="" offset="0" size="2" />
			<output>
				<port id="0" precision="FP16" />
			</output>
		</layer>
		<layer id="6" name="x/fq_output_0/output_low" type="Convert" version="opset1">
			<data destination_type="f32" />
			<rt_info>
				<attribute name="decompression" version="0" />
			</rt_info>
			<input>
				<port id="0" precision="FP16" />
			</input>
			<output>
				<port id="1" precision="FP32" />
			</output>
		</layer>
		<layer id="7" name="x/fq_output_0/output_high_compressed" type="Const" version="opset1">
			<data element_type="f16" shape="" offset="2" size="2" />
			<output>
				<port id="0" precision="FP16" />
			</output>
		</layer>
		<layer id="8" name="x/fq_output_0/output_high" type="Convert" version="opset1">
			<data destination_type="f32" />
			<rt_info>
				<attribute name="decompression" version="0" />
			</rt_info>
			<input>
				<port id="0" precision="FP16" />
			</input>
			<output>
				<port id="1" precision="FP32" />
			</output>
		</layer>
		<layer id="9" name="x/fq_output_0" type="FakeQuantize" version="opset1">
			<data levels="256" auto_broadcast="numpy" />
			<input>
				<port id="0" precision="FP32">
					<dim>1</dim>
					<dim>3</dim>
					<dim>640</dim>
					<dim>640</dim>
				</port>
				<port id="1" precision="FP32" />
				<port id="2" precision="FP32" />
				<port id="3" precision="FP32" />
				<port id="4" precision="FP32" />
			</input>
			<output>
				<port id="5" precision="FP32">
					<dim>1</dim>
					<dim>3</dim>
					<dim>640</dim>
					<dim>640</dim>
				</port>
			</output>
		</layer>
		<layer id="10" name="Constant_933707" type="Const" version="opset1">
			<data element_type="i8" shape="64, 3, 3, 3" offset="4" size="1728" />
			<output>
				<port id="0" precision="I8">
					<dim>64</dim>
					<dim>3</dim>
					<dim>3</dim>
					<dim>3</dim>
				</port>
			</output>
		</layer>
		<layer id="11" name="Convert_933708" type="Convert" version="opset1">
			<data destination_type="f32" />
			<input>
				<port id="0" precision="I8">
					<dim>64</dim>
					<dim>3</dim>
					<dim>3</dim>
					<dim>3</dim>
				</port>
			</input>
			<output>
				<port id="1" precision="FP32">
					<dim>64</dim>
					<dim>3</dim>
					<dim>3</dim>
					<dim>3</dim>
				</port>
			</output>
		</layer>
		<layer id="12" name="Constant_933709_compressed" type="Const" version="opset1">
			<data element_type="f16" shape="64, 1, 1, 1" offset="1732" size="128" />
			<output>
				<port id="0" precision="FP16">
					<dim>64</dim>
					<dim>1</dim>
					<dim>1</dim>
					<dim>1</dim>
				</port>
			</output>
		</layer>
		<layer id="13" name="Constant_933709" type="Convert" version="opset1">
			<data destination_type="f32" />
			<rt_info>
				<attribute name="decompression" version="0" />
			</rt_info>
			<input>
				<port id="0" precision="FP16">
					<dim>64</dim>
					<dim>1</dim>
					<dim>1</dim>
					<dim>1</dim>
				</port>
			</input>
			<output>
				<port id="1" precision="FP32">
					<dim>64</dim>
					<dim>1</dim>
					<dim>1</dim>
					<dim>1</dim>
				</port>
			</output>
		</layer>
		<layer id="14" name="__module.model.0.conv/aten::_convolution/Convolution/fq_weights_1" type="Multiply" version="opset1">
			<data auto_broadcast="numpy" />
			<input>
				<port id="0" precision="FP32">
					<dim>64</dim>
					<dim>3</dim>
					<dim>3</dim>
					<dim>3</dim>
				</port>
				<port id="1" precision="FP32">
					<dim>64</dim>
					<dim>1</dim>
					<dim>1</dim>
					<dim>1</dim>
				</port>
			</input>
			<output>
				<port id="2" precision="FP32">
					<dim>64</dim>
					<dim>3</dim>
					<dim>3</dim>
					<dim>3</dim>
				</port>
			</output>
		</layer>
		<layer id="15" name="__module.model.0.conv/aten::_convolution/Convolution" type="Convolution" version="opset1">
			<data strides="2, 2" dilations="1, 1" pads_begin="1, 1" pads_end="1, 1" auto_pad="explicit" />
			<input>
				<port id="0" precision="FP32">
					<dim>1</dim>
					<dim>3</dim>
					<dim>640</dim>
					<dim>640</dim>
				</port>
				<port id="1" precision="FP32">
					<dim>64</dim>
					<dim>3</dim>
					<dim>3</dim>
					<dim>3</dim>
				</port>
			</input>
			<output>
				<port id="2" precision="FP32">
					<dim>1</dim>
					<dim>64</dim>
					<dim>320</dim>
					<dim>320</dim>
				</port>
			</output>
		</layer>
		<layer id="16" name="__module.model.0.conv/aten::_convolution/Reshape_compressed" type="Const" version="opset1">
			<data element_type="f16" shape="1, 64, 1, 1" offset="1860" size="128" />
			<output>
				<port id="0" precision="FP16">
					<dim>1</dim>
					<dim>64</dim>
					<dim>1</dim>
					<dim>1</dim>
				</port>
			</output>
		</layer>
		<layer id="17" name="__module.model.0.conv/aten::_convolution/Reshape" type="Convert" version="opset1">
			<data destination_type="f32" />
			<rt_info>
				<attribute name="decompression" version="0" />
			</rt_info>
			<input>
				<port id="0" precision="FP16">
					<dim>1</dim>
					<dim>64</dim>
					<dim>1</dim>
					<dim>1</dim>
				</port>
			</input>
			<output>
				<port id="1" precision="FP32">
					<dim>1</dim>
					<dim>64</dim>
					<dim>1</dim>
					<dim>1</dim>
				</port>
			</output>
		</layer>
		<layer id="18" name="__module.model.0.conv/aten::_convolution/Add" type="Add" version="opset1">
			<data auto_broadcast="numpy" />
			<input>
				<port id="0" precision="FP32">
					<dim>1</dim>
					<dim>64</dim>
					<dim>320</dim>
					<dim>320</dim>
				</port>
				<port id="1" precision="FP32">
					<dim>1</dim>
					<dim>64</dim>
					<dim>1</dim>
					<dim>1</dim>
				</port>
			</input>
			<output>
				<port id="2" precision="FP32" names="103_1">
					<dim>1</dim>
					<dim>64</dim>
					<dim>320</dim>
					<dim>320</dim>
				</port>
			</output>
		</layer>
		<layer id="19" name="__module.model.22.cv3.2.1.act/aten::silu_/Swish" type="Swish" version="opset4">
			<input>
				<port id="0" precision="FP32">
					<dim>1</dim>
					<dim>64</dim>
					<dim>320</dim>
					<dim>320</dim>
				</port>
			</input>
			<output>
				<port id="1" precision="FP32" names="103,input.1">
					<dim>1</dim>
					<dim>64</dim>
					<dim>320</dim>
					<dim>320</dim>
				</port>
			</output>
		</layer>
		<layer id="20" name="__module.model.22.cv3.2.1.act/aten::silu_/Swish/fq_output_0/input_low_compressed" type="Const" version="opset1">
			<data element_type="f16" shape="" offset="1988" size="2" />
			<output>
				<port id="0" precision="FP16" />
			</output>
		</layer>
		<layer id="21" name="__module.model.22.cv3.2.1.act/aten::silu_/Swish/fq_output_0/input_low" type="Convert" version="opset1">
			<data destination_type="f32" />
			<rt_info>
				<attribute name="decompression" version="0" />
			</rt_info>
			<input>
				<port id="0" precision="FP16" />
			</input>
			<output>
				<port id="1" precision="FP32" />
			</output>
		</layer>
		<layer id="22" name="__module.model.22.cv3.2.1.act/aten::silu_/Swish/fq_output_0/input_high_compressed" type="Const" version="opset1">
			<data element_type="f16" shape="" offset="1990" size="2" />
			<output>
				<port id="0" precision="FP16" />
			</output>
		</layer>
		<layer id="23" name="__module.model.22.cv3.2.1.act/aten::silu_/Swish/fq_output_0/input_high" type="Convert" version="opset1">
			<data destination_type="f32" />
			<rt_info>
				<attribute name="decompression" version="0" />
			</rt_info>
			<input>
				<port id="0" precision="FP16" />
			</input>
			<output>
				<port id="1" precision="FP32" />
			</output>
		</layer>
		<layer id="24" name="__module.model.22.cv3.2.1.act/aten::silu_/Swish/fq_output_0/output_low_compressed" type="Const" version="opset1">
			<data element_type="f16" shape="" offset="1988" size="2" />
			<output>
				<port id="0" precision="FP16" />
			</output>
		</layer>
		<layer id="25" name="__module.model.22.cv3.2.1.act/aten::silu_/Swish/fq_output_0/output_low" type="Convert" version="opset1">
			<data destination_type="f32" />
			<rt_info>
				<attribute name="decompression" version="0" />
			</rt_info>
			<input>
				<port id="0" precision="FP16" />
			</input>
			<output>
				<port id="1" precision="FP32" />
			</output>
		</layer>
		<layer id="26" name="__module.model.22.cv3.2.1.act/aten::silu_/Swish/fq_output_0/output_high_compressed" type="Const" version="opset1">
			<data element_type="f16" shape="" offset="1990" size="2" />
			<output>
				<port id="0" precision="FP16" />
			</output>
		</layer>
		<layer id="27" name="__module.model.22.cv3.2.1.act/aten::silu_/Swish/fq_output_0/output_high" type="Convert" version="opset1">
			<data destination_type="f32" />
			<rt_info>
				<attribute name="decompression" version="0" />
			</rt_info>
			<input>
				<port id="0" precision="FP16" />
			</input>
			<output>
				<port id="1" precision="FP32" />
			</output>
		</layer>
		<layer id="28" name="__module.model.22.cv3.2.1.act/aten::silu_/Swish/fq_output_0" type="FakeQuantize" version="opset1">
			<data levels="256" auto_broadcast="numpy" />
			<input>
				<port id="0" precision="FP32">
					<dim>1</dim>
					<dim>64</dim>
					<dim>320</dim>
					<dim>320</dim>
				</port>
				<port id="1" precision="FP32" />
				<port id="2" precision="FP32" />
				<port id="3" precision="FP32" />
				<port id="4" precision="FP32" />
			</input>
			<output>
				<port id="5" precision="FP32">
					<dim>1</dim>
					<dim>64</dim>
					<dim>320</dim>
					<dim>320</dim>
				</port>
			</output>
		</layer>
		<layer id="29" name="Constant_933712" type="Const" version="opset1">
			<data element_type="i8" shape="128, 64, 3, 3" offset="1992" size="73728" />
			<output>
				<port id="0" precision="I8">
					<dim>128</dim>
					<dim>64</dim>
					<dim>3</dim>
					<dim>3</dim>
				</port>
			</output>
		</layer>
		<layer id="30" name="Convert_933713" type="Convert" version="opset1">
			<data destination_type="f32" />
			<input>
				<port id="0" precision="I8">
					<dim>128</dim>
					<dim>64</dim>
					<dim>3</dim>
					<dim>3</dim>
				</port>
			</input>
			<output>
				<port id="1" precision="FP32">
					<dim>128</dim>
					<dim>64</dim>
					<dim>3</dim>
					<dim>3</dim>
				</port>
			</output>
		</layer>
		<layer id="31" name="Constant_933714_compressed" type="Const" version="opset1">
			<data element_type="f16" shape="128, 1, 1, 1" offset="75720" size="256" />
			<output>
				<port id="0" precision="FP16">
					<dim>128</dim>
					<dim>1</dim>
					<dim>1</dim>
					<dim>1</dim>
				</port>
			</output>
		</layer>
		<layer id="32" name="Constant_933714" type="Convert" version="opset1">
			<data destination_type="f32" />
			<rt_info>
				<attribute name="decompression" version="0" />
			</rt_info>
			<input>
				<port id="0" precision="FP16">
					<dim>128</dim>
					<dim>1</dim>
					<dim>1</dim>
					<dim>1</dim>
				</port>
			</input>
			<output>
				<port id="1" precision="FP32">
					<dim>128</dim>
					<dim>1</dim>
					<dim>1</dim>
					<dim>1</dim>
				</port>
			</output>
		</layer>
		<layer id="33" name="__module.model.1.conv/aten::_convolution/Convolution/fq_weights_1" type="Multiply" version="opset1">
			<data auto_broadcast="numpy" />
			<input>
				<port id="0" precision="FP32">
					<dim>128</dim>
					<dim>64</dim>
					<dim>3</dim>
					<dim>3</dim>
				</port>
				<port id="1" precision="FP32">
					<dim>128</dim>
					<dim>1</dim>
					<dim>1</dim>
					<dim>1</dim>
				</port>
			</input>
			<output>
				<port id="2" precision="FP32">
					<dim>128</dim>
					<dim>64</dim>
					<dim>3</dim>
					<dim>3</dim>
				</port>
			</output>
		</layer>
		<layer id="34" name="__module.model.1.conv/aten::_convolution/Convolution" type="Convolution" version="opset1">
			<data strides="2, 2" dilations="1, 1" pads_begin="1, 1" pads_end="1, 1" auto_pad="explicit" />
			<input>
				<port id="0" precision="FP32">
					<dim>1</dim>
					<dim>64</dim>
					<dim>320</dim>
					<dim>320</dim>
				</port>
				<port id="1" precision="FP32">
					<dim>128</dim>
					<dim>64</dim>
					<dim>3</dim>
					<dim>3</dim>
				</port>
			</input>
			<output>
				<port id="2" precision="FP32">
					<dim>1</dim>
					<dim>128</dim>
					<dim>160</dim>
					<dim>160</dim>
				</port>
			</output>
		</layer>
		<layer id="35" name="__module.model.1.conv/aten::_convolution/Reshape_compressed" type="Const" version="opset1">
			<data element_type="f16" shape="1, 128, 1, 1" offset="75976" size="256" />
			<output>
				<port id="0" precision="FP16">
					<dim>1</dim>
					<dim>128</dim>
					<dim>1</dim>
					<dim>1</dim>
				</port>
			</output>
		</layer>
		<layer id="36" name="__module.model.1.conv/aten::_convolution/Reshape" type="Convert" version="opset1">
			<data destination_type="f32" />
			<rt_info>
				<attribute name="decompression" version="0" />
			</rt_info>
			<input>
				<port id="0" precision="FP16">
					<dim>1</dim>
					<dim>128</dim>
					<dim>1</dim>
					<dim>1</dim>
				</port>
			</input>
			<output>
				<port id="1" precision="FP32">
					<dim>1</dim>
					<dim>128</dim>
					<dim>1</dim>
					<dim>1</dim>
				</port>
			</output>
		</layer>
		<layer id="37" name="__module.model.1.conv/aten::_convolution/Add" type="Add" version="opset1">
			<data auto_broadcast="numpy" />
			<input>
				<port id="0" precision="FP32">
					<dim>1</dim>
					<dim>128</dim>
					<dim>160</dim>
					<dim>160</dim>
				</port>
				<port id="1" precision="FP32">
					<dim>1</dim>
					<dim>128</dim>
					<dim>1</dim>
					<dim>1</dim>
				</port>
			</input>
			<output>
				<port id="2" precision="FP32" names="117_1">
					<dim>1</dim>
					<dim>128</dim>
					<dim>160</dim>
					<dim>160</dim>
				</port>
			</output>
		</layer>
		<layer id="38" name="__module.model.22.cv3.2.1.act/aten::silu_/Swish_1" type="Swish" version="opset4">
			<input>
				<port id="0" precision="FP32">
					<dim>1</dim>
					<dim>128</dim>
					<dim>160</dim>
					<dim>160</dim>
				</port>
			</input>
			<output>
				<port id="1" precision="FP32" names="117,input.5">
					<dim>1</dim>
					<dim>128</dim>
					<dim>160</dim>
					<dim>160</dim>
				</port>
			</output>
		</layer>
		<layer id="39" name="__module.model.22.cv3.2.1.act/aten::silu_/Swish_1/fq_output_0/input_low_compressed" type="Const" version="opset1">
			<data element_type="f16" shape="" offset="1988" size="2" />
			<output>
				<port id="0" precision="FP16" />
			</output>
		</layer>
		<layer id="40" name="__module.model.22.cv3.2.1.act/aten::silu_/Swish_1/fq_output_0/input_low" type="Convert" version="opset1">
			<data destination_type="f32" />
			<rt_info>
				<attribute name="decompression" version="0" />
			</rt_info>
			<input>
				<port id="0" precision="FP16" />
			</input>
			<output>
				<port id="1" precision="FP32" />
			</output>
		</layer>
		<layer id="41" name="__module.model.22.cv3.2.1.act/aten::silu_/Swish_1/fq_output_0/input_high_compressed" type="Const" version="opset1">
			<data element_type="f16" shape="" offset="1990" size="2" />
			<output>
				<port id="0" precision="FP16" />
			</output>
		</layer>
		<layer id="42" name="__module.model.22.cv3.2.1.act/aten::silu_/Swish_1/fq_output_0/input_high" type="Convert" version="opset1">
			<data destination_type="f32" />
			<rt_info>
				<attribute name="decompression" version="0" />
			</rt_info>
			<input>
				<port id="0" precision="FP16" />
			</input>
			<output>
				<port id="1" precision="FP32" />
			</output>
		</layer>
		<layer id="43" name="__module.model.22.cv3.2.1.act/aten::silu_/Swish_1/fq_output_0/output_low_compressed" type="Const" version="opset1">
			<data element_type="f16" shape="" offset="1988" size="2" />
			<output>
				<port id="0" precision="FP16" />
			</output>
		</layer>
		<layer id="44" name="__module.model.22.cv3.2.1.act/aten::silu_/Swish_1/fq_output_0/output_low" type="Convert" version="opset1">
			<data destination_type="f32" />
			<rt_info>
				<attribute name="decompression" version="0" />
			</rt_info>
			<input>
				<port id="0" precision="FP16" />
			</input>
			<output>
				<port id="1" precision="FP32" />
			</output>
		</layer>
		<layer id="45" name="__module.model.22.cv3.2.1.act/aten::silu_/Swish_1/fq_output_0/output_high_compressed" type="Const" version="opset1">
			<data element_type="f16" shape="" offset="1990" size="2" />
			<output>
				<port id="0" precision="FP16" />
			</output>
		</layer>
		<layer id="46" name="__module.model.22.cv3.2.1.act/aten::silu_/Swish_1/fq_output_0/output_high" type="Convert" version="opset1">
			<data destination_type="f32" />
			<rt_info>
				<attribute name="decompression" version="0" />
			</rt_info>
			<input>
				<port id="0" precision="FP16" />
			</input>
			<output>
				<port id="1" precision="FP32" />
			</output>
		</layer>
		<layer id="47" name="__module.model.22.cv3.2.1.act/aten::silu_/Swish_1/fq_output_0" type="FakeQuantize" version="opset1">
			<data levels="256" auto_broadcast="numpy" />
			<input>
				<port id="0" precision="FP32">
					<dim>1</dim>
					<dim>128</dim>
					<dim>160</dim>
					<dim>160</dim>
				</port>
				<port id="1" precision="FP32" />
				<port id="2" precision="FP32" />
				<port id="3" precision="FP32" />
				<port id="4" precision="FP32" />
			</input>
			<output>
				<port id="5" precision="FP32">
					<dim>1</dim>
					<dim>128</dim>
					<dim>160</dim>
					<dim>160</dim>
				</port>
			</output>
		</layer>
		<layer id="48" name="Constant_933717" type="Const" version="opset1">
			<data element_type="i8" shape="128, 128, 1, 1" offset="76232" size="16384" />
			<output>
				<port id="0" precision="I8">
					<dim>128</dim>
					<dim>128</dim>
					<dim>1</dim>
					<dim>1</dim>
				</port>
			</output>
		</layer>
		<layer id="49" name="Convert_933718" type="Convert" version="opset1">
			<data destination_type="f32" />
			<input>
				<port id="0" precision="I8">
					<dim>128</dim>
					<dim>128</dim>
					<dim>1</dim>
					<dim>1</dim>
				</port>
			</input>
			<output>
				<port id="1" precision="FP32">
					<dim>128</dim>
					<dim>128</dim>
					<dim>1</dim>
					<dim>1</dim>
				</port>
			</output>
		</layer>
		<layer id="50" name="Constant_933719_compressed" type="Const" version="opset1">
			<data element_type="f16" shape="128, 1, 1, 1" offset="92616" size="256" />
			<output>
				<port id="0" precision="FP16">
					<dim>128</dim>
					<dim>1</dim>
					<dim>1</dim>
					<dim>1</dim>
				</port>
			</output>
		</layer>
		<layer id="51" name="Constant_933719" type="Convert" version="opset1">
			<data destination_type="f32" />
			<rt_info>
				<attribute name="decompression" version="0" />
			</rt_info>
			<input>
				<port id="0" precision="FP16">
					<dim>128</dim>
					<dim>1</dim>
					<dim>1</dim>
					<dim>1</dim>
				</port>
			</input>
			<output>
				<port id="1" precision="FP32">
					<dim>128</dim>
					<dim>1</dim>
					<dim>1</dim>
					<dim>1</dim>
				</port>
			</output>
		</layer>
		<layer id="52" name="__module.model.2.cv1.conv/aten::_convolution/Convolution/fq_weights_1" type="Multiply" version="opset1">
			<data auto_broadcast="numpy" />
			<input>
				<port id="0" precision="FP32">
					<dim>128</dim>
					<dim>128</dim>
					<dim>1</dim>
					<dim>1</dim>
				</port>
				<port id="1" precision="FP32">
					<dim>128</dim>
					<dim>1</dim>
					<dim>1</dim>
					<dim>1</dim>
				</port>
			</input>
			<output>
				<port id="2" precision="FP32">
					<dim>128</dim>
					<dim>128</dim>
					<dim>1</dim>
					<dim>1</dim>
				</port>
			</output>
		</layer>
		<layer id="53" name="__module.model.2.cv1.conv/aten::_convolution/Convolution" type="Convolution" version="opset1">
			<data strides="1, 1" dilations="1, 1" pads_begin="0, 0" pads_end="0, 0" auto_pad="explicit" />
			<input>
				<port id="0" precision="FP32">
					<dim>1</dim>
					<dim>128</dim>
					<dim>160</dim>
					<dim>160</dim>
				</port>
				<port id="1" precision="FP32">
					<dim>128</dim>
					<dim>128</dim>
					<dim>1</dim>
					<dim>1</dim>
				</port>
			</input>
			<output>
				<port id="2" precision="FP32">
					<dim>1</dim>
					<dim>128</dim>
					<dim>160</dim>
					<dim>160</dim>
				</port>
			</output>
		</layer>
		<layer id="54" name="__module.model.2.cv1.conv/aten::_convolution/Reshape_compressed" type="Const" version="opset1">
			<data element_type="f16" shape="1, 128, 1, 1" offset="92872" size="256" />
			<output>
				<port id="0" precision="FP16">
					<dim>1</dim>
					<dim>128</dim>
					<dim>1</dim>
					<dim>1</dim>
				</port>
			</output>
		</layer>
		<layer id="55" name="__module.model.2.cv1.conv/aten::_convolution/Reshape" type="Convert" version="opset1">
			<data destination_type="f32" />
			<rt_info>
				<attribute name="decompression" version="0" />
			</rt_info>
			<input>
				<port id="0" precision="FP16">
					<dim>1</dim>
					<dim>128</dim>
					<dim>1</dim>
					<dim>1</dim>
				</port>
			</input>
			<output>
				<port id="1" precision="FP32">
					<dim>1</dim>
					<dim>128</dim>
					<dim>1</dim>
					<dim>1</dim>
				</port>
			</output>
		</layer>
		<layer id="56" name="__module.model.2.cv1.conv/aten::_convolution/Add" type="Add" version="opset1">
			<data auto_broadcast="numpy" />
			<input>
				<port id="0" precision="FP32">
					<dim>1</dim>
					<dim>128</dim>
					<dim>160</dim>
					<dim>160</dim>
				</port>
				<port id="1" precision="FP32">
					<dim>1</dim>
					<dim>128</dim>
					<dim>1</dim>
					<dim>1</dim>
				</port>
			</input>
			<output>
				<port id="2" precision="FP32" names="135_1">
					<dim>1</dim>
					<dim>128</dim>
					<dim>160</dim>
					<dim>160</dim>
				</port>
			</output>
		</layer>
		<layer id="57" name="__module.model.22.cv3.2.1.act/aten::silu_/Swish_2" type="Swish" version="opset4">
			<input>
				<port id="0" precision="FP32">
					<dim>1</dim>
					<dim>128</dim>
					<dim>160</dim>
					<dim>160</dim>
				</port>
			</input>
			<output>
				<port id="1" precision="FP32" names="135,input.9">
					<dim>1</dim>
					<dim>128</dim>
					<dim>160</dim>
					<dim>160</dim>
				</port>
			</output>
		</layer>
		<layer id="58" name="__module.model.22.cv3.2.1.act/aten::silu_/Swish_2/fq_output_0/input_low_compressed" type="Const" version="opset1">
			<data element_type="f16" shape="" offset="93128" size="2" />
			<output>
				<port id="0" precision="FP16" />
			</output>
		</layer>
		<layer id="59" name="__module.model.22.cv3.2.1.act/aten::silu_/Swish_2/fq_output_0/input_low" type="Convert" version="opset1">
			<data destination_type="f32" />
			<rt_info>
				<attribute name="decompression" version="0" />
			</rt_info>
			<input>
				<port id="0" precision="FP16" />
			</input>
			<output>
				<port id="1" precision="FP32" />
			</output>
		</layer>
		<layer id="60" name="__module.model.22.cv3.2.1.act/aten::silu_/Swish_2/fq_output_0/input_high_compressed" type="Const" version="opset1">
			<data element_type="f16" shape="" offset="93130" size="2" />
			<output>
				<port id="0" precision="FP16" />
			</output>
		</layer>
		<layer id="61" name="__module.model.22.cv3.2.1.act/aten::silu_/Swish_2/fq_output_0/input_high" type="Convert" version="opset1">
			<data destination_type="f32" />
			<rt_info>
				<attribute name="decompression" version="0" />
			</rt_info>
			<input>
				<port id="0" precision="FP16" />
			</input>
			<output>
				<port id="1" precision="FP32" />
			</output>
		</layer>
		<layer id="62" name="__module.model.22.cv3.2.1.act/aten::silu_/Swish_2/fq_output_0/output_low_compressed" type="Const" version="opset1">
			<data element_type="f16" shape="" offset="93128" size="2" />
			<output>
				<port id="0" precision="FP16" />
			</output>
		</layer>
		<layer id="63" name="__module.model.22.cv3.2.1.act/aten::silu_/Swish_2/fq_output_0/output_low" type="Convert" version="opset1">
			<data destination_type="f32" />
			<rt_info>
				<attribute name="decompression" version="0" />
			</rt_info>
			<input>
				<port id="0" precision="FP16" />
			</input>
			<output>
				<port id="1" precision="FP32" />
			</output>
		</layer>
		<layer id="64" name="__module.model.22.cv3.2.1.act/aten::silu_/Swish_2/fq_output_0/output_high_compressed" type="Const" version="opset1">
			<data element_type="f16" shape="" offset="93130" size="2" />
			<output>
				<port id="0" precision="FP16" />
			</output>
		</layer>
		<layer id="65" name="__module.model.22.cv3.2.1.act/aten::silu_/Swish_2/fq_output_0/output_high" type="Convert" version="opset1">
			<data destination_type="f32" />
			<rt_info>
				<attribute name="decompression" version="0" />
			</rt_info>
			<input>
				<port id="0" precision="FP16" />
			</input>
			<output>
				<port id="1" precision="FP32" />
			</output>
		</layer>
		<layer id="66" name="__module.model.22.cv3.2.1.act/aten::silu_/Swish_2/fq_output_0" type="FakeQuantize" version="opset1">
			<data levels="256" auto_broadcast="numpy" />
			<input>
				<port id="0" precision="FP32">
					<dim>1</dim>
					<dim>128</dim>
					<dim>160</dim>
					<dim>160</dim>
				</port>
				<port id="1" precision="FP32" />
				<port id="2" precision="FP32" />
				<port id="3" precision="FP32" />
				<port id="4" precision="FP32" />
			</input>
			<output>
				<port id="5" precision="FP32">
					<dim>1</dim>
					<dim>128</dim>
					<dim>160</dim>
					<dim>160</dim>
				</port>
			</output>
		</layer>
		<layer id="67" name="123" type="Const" version="opset1">
			<data element_type="i32" shape="" offset="93132" size="4" />
			<output>
				<port id="0" precision="I32" names="123" />
			</output>
		</layer>
		<layer id="68" name="__module.model.2/prim::ListUnpack/ShapeOf" type="ShapeOf" version="opset3">
			<data output_type="i32" />
			<input>
				<port id="0" precision="FP32">
					<dim>1</dim>
					<dim>128</dim>
					<dim>160</dim>
					<dim>160</dim>
				</port>
			</input>
			<output>
				<port id="1" precision="I32">
					<dim>4</dim>
				</port>
			</output>
		</layer>
		<layer id="69" name="Constant_9866" type="Const" version="opset1">
			<data element_type="i32" shape="1" offset="93136" size="4" />
			<output>
				<port id="0" precision="I32">
					<dim>1</dim>
				</port>
			</output>
		</layer>
		<layer id="70" name="__module.model.2/prim::ListUnpack/Gather" type="Gather" version="opset8">
			<data batch_dims="0" />
			<input>
				<port id="0" precision="I32">
					<dim>4</dim>
				</port>
				<port id="1" precision="I32" />
				<port id="2" precision="I32">
					<dim>1</dim>
				</port>
			</input>
			<output>
				<port id="3" precision="I32" />
			</output>
		</layer>
		<layer id="71" name="119" type="Const" version="opset1">
			<data element_type="i32" shape="" offset="93140" size="4" />
			<output>
				<port id="0" precision="I32" names="119" />
			</output>
		</layer>
		<layer id="72" name="__module.model.2/prim::ListUnpack/Divide" type="Divide" version="opset1">
			<data auto_broadcast="numpy" m_pythondiv="true" />
			<input>
				<port id="0" precision="I32" />
				<port id="1" precision="I32" />
			</input>
			<output>
				<port id="2" precision="I32" />
			</output>
		</layer>
		<layer id="73" name="__module.model.2/prim::ListUnpack/Mod" type="Mod" version="opset1">
			<data auto_broadcast="numpy" />
			<input>
				<port id="0" precision="I32" />
				<port id="1" precision="I32" />
			</input>
			<output>
				<port id="2" precision="I32" />
			</output>
		</layer>
		<layer id="74" name="__module.model.2/prim::ListUnpack/Greater" type="Greater" version="opset1">
			<data auto_broadcast="numpy" />
			<input>
				<port id="0" precision="I32" />
				<port id="1" precision="I32">
					<dim>1</dim>
				</port>
			</input>
			<output>
				<port id="2" precision="BOOL">
					<dim>1</dim>
				</port>
			</output>
		</layer>
		<layer id="75" name="__module.model.2/prim::ListUnpack/Convert" type="Convert" version="opset1">
			<data destination_type="i32" />
			<input>
				<port id="0" precision="BOOL">
					<dim>1</dim>
				</port>
			</input>
			<output>
				<port id="1" precision="I32">
					<dim>1</dim>
				</port>
			</output>
		</layer>
		<layer id="76" name="__module.model.2/prim::ListUnpack/Add" type="Add" version="opset1">
			<data auto_broadcast="numpy" />
			<input>
				<port id="0" precision="I32" />
				<port id="1" precision="I32">
					<dim>1</dim>
				</port>
			</input>
			<output>
				<port id="2" precision="I32">
					<dim>1</dim>
				</port>
			</output>
		</layer>
		<layer id="77" name="Constant_9875" type="Const" version="opset1">
			<data element_type="i32" shape="1" offset="93132" size="4" />
			<rt_info>
				<attribute name="precise" version="0" />
			</rt_info>
			<output>
				<port id="0" precision="I32">
					<dim>1</dim>
				</port>
			</output>
		</layer>
		<layer id="78" name="__module.model.2/prim::ListUnpack/Broadcast" type="Broadcast" version="opset3">
			<data mode="numpy" />
			<input>
				<port id="0" precision="I32">
					<dim>1</dim>
				</port>
				<port id="1" precision="I32">
					<dim>1</dim>
				</port>
			</input>
			<output>
				<port id="2" precision="I32">
					<dim>1</dim>
				</port>
			</output>
		</layer>
		<layer id="79" name="Constant_9867" type="Const" version="opset1">
			<data element_type="i32" shape="1" offset="93144" size="4" />
			<output>
				<port id="0" precision="I32">
					<dim>1</dim>
				</port>
			</output>
		</layer>
		<layer id="80" name="__module.model.2/prim::ListUnpack/Concat" type="Concat" version="opset1">
			<data axis="0" />
			<input>
				<port id="0" precision="I32">
					<dim>1</dim>
				</port>
				<port id="1" precision="I32">
					<dim>1</dim>
				</port>
			</input>
			<output>
				<port id="2" precision="I32">
					<dim>2</dim>
				</port>
			</output>
		</layer>
		<layer id="81" name="__module.model.2/prim::ListUnpack/VariadicSplit" type="VariadicSplit" version="opset1">
			<input>
				<port id="0" precision="FP32">
					<dim>1</dim>
					<dim>128</dim>
					<dim>160</dim>
					<dim>160</dim>
				</port>
				<port id="1" precision="I32" />
				<port id="2" precision="I32">
					<dim>2</dim>
				</port>
			</input>
			<output>
				<port id="3" precision="FP32" names="138">
					<dim>1</dim>
					<dim>64</dim>
					<dim>160</dim>
					<dim>160</dim>
				</port>
				<port id="4" precision="FP32" names="139,input.11">
					<dim>1</dim>
					<dim>64</dim>
					<dim>160</dim>
					<dim>160</dim>
				</port>
			</output>
		</layer>
		<layer id="82" name="Constant_933722" type="Const" version="opset1">
			<data element_type="i8" shape="32, 64, 1, 1" offset="93148" size="2048" />
			<output>
				<port id="0" precision="I8">
					<dim>32</dim>
					<dim>64</dim>
					<dim>1</dim>
					<dim>1</dim>
				</port>
			</output>
		</layer>
		<layer id="83" name="Convert_933723" type="Convert" version="opset1">
			<data destination_type="f32" />
			<input>
				<port id="0" precision="I8">
					<dim>32</dim>
					<dim>64</dim>
					<dim>1</dim>
					<dim>1</dim>
				</port>
			</input>
			<output>
				<port id="1" precision="FP32">
					<dim>32</dim>
					<dim>64</dim>
					<dim>1</dim>
					<dim>1</dim>
				</port>
			</output>
		</layer>
		<layer id="84" name="Constant_933724_compressed" type="Const" version="opset1">
			<data element_type="f16" shape="32, 1, 1, 1" offset="95196" size="64" />
			<output>
				<port id="0" precision="FP16">
					<dim>32</dim>
					<dim>1</dim>
					<dim>1</dim>
					<dim>1</dim>
				</port>
			</output>
		</layer>
		<layer id="85" name="Constant_933724" type="Convert" version="opset1">
			<data destination_type="f32" />
			<rt_info>
				<attribute name="decompression" version="0" />
			</rt_info>
			<input>
				<port id="0" precision="FP16">
					<dim>32</dim>
					<dim>1</dim>
					<dim>1</dim>
					<dim>1</dim>
				</port>
			</input>
			<output>
				<port id="1" precision="FP32">
					<dim>32</dim>
					<dim>1</dim>
					<dim>1</dim>
					<dim>1</dim>
				</port>
			</output>
		</layer>
		<layer id="86" name="__module.model.2.cv2.0.cv1.conv/aten::_convolution/Convolution/fq_weights_1" type="Multiply" version="opset1">
			<data auto_broadcast="numpy" />
			<input>
				<port id="0" precision="FP32">
					<dim>32</dim>
					<dim>64</dim>
					<dim>1</dim>
					<dim>1</dim>
				</port>
				<port id="1" precision="FP32">
					<dim>32</dim>
					<dim>1</dim>
					<dim>1</dim>
					<dim>1</dim>
				</port>
			</input>
			<output>
				<port id="2" precision="FP32">
					<dim>32</dim>
					<dim>64</dim>
					<dim>1</dim>
					<dim>1</dim>
				</port>
			</output>
		</layer>
		<layer id="87" name="__module.model.2.cv2.0.cv1.conv/aten::_convolution/Convolution" type="Convolution" version="opset1">
			<data strides="1, 1" dilations="1, 1" pads_begin="0, 0" pads_end="0, 0" auto_pad="explicit" />
			<input>
				<port id="0" precision="FP32">
					<dim>1</dim>
					<dim>64</dim>
					<dim>160</dim>
					<dim>160</dim>
				</port>
				<port id="1" precision="FP32">
					<dim>32</dim>
					<dim>64</dim>
					<dim>1</dim>
					<dim>1</dim>
				</port>
			</input>
			<output>
				<port id="2" precision="FP32">
					<dim>1</dim>
					<dim>32</dim>
					<dim>160</dim>
					<dim>160</dim>
				</port>
			</output>
		</layer>
		<layer id="88" name="__module.model.2.cv2.0.cv1.conv/aten::_convolution/Reshape_compressed" type="Const" version="opset1">
			<data element_type="f16" shape="1, 32, 1, 1" offset="95260" size="64" />
			<output>
				<port id="0" precision="FP16">
					<dim>1</dim>
					<dim>32</dim>
					<dim>1</dim>
					<dim>1</dim>
				</port>
			</output>
		</layer>
		<layer id="89" name="__module.model.2.cv2.0.cv1.conv/aten::_convolution/Reshape" type="Convert" version="opset1">
			<data destination_type="f32" />
			<rt_info>
				<attribute name="decompression" version="0" />
			</rt_info>
			<input>
				<port id="0" precision="FP16">
					<dim>1</dim>
					<dim>32</dim>
					<dim>1</dim>
					<dim>1</dim>
				</port>
			</input>
			<output>
				<port id="1" precision="FP32">
					<dim>1</dim>
					<dim>32</dim>
					<dim>1</dim>
					<dim>1</dim>
				</port>
			</output>
		</layer>
		<layer id="90" name="__module.model.2.cv2.0.cv1.conv/aten::_convolution/Add" type="Add" version="opset1">
			<data auto_broadcast="numpy" />
			<input>
				<port id="0" precision="FP32">
					<dim>1</dim>
					<dim>32</dim>
					<dim>160</dim>
					<dim>160</dim>
				</port>
				<port id="1" precision="FP32">
					<dim>1</dim>
					<dim>32</dim>
					<dim>1</dim>
					<dim>1</dim>
				</port>
			</input>
			<output>
				<port id="2" precision="FP32" names="153_1">
					<dim>1</dim>
					<dim>32</dim>
					<dim>160</dim>
					<dim>160</dim>
				</port>
			</output>
		</layer>
		<layer id="91" name="__module.model.22.cv3.2.1.act/aten::silu_/Swish_3" type="Swish" version="opset4">
			<input>
				<port id="0" precision="FP32">
					<dim>1</dim>
					<dim>32</dim>
					<dim>160</dim>
					<dim>160</dim>
				</port>
			</input>
			<output>
				<port id="1" precision="FP32" names="153,input.13">
					<dim>1</dim>
					<dim>32</dim>
					<dim>160</dim>
					<dim>160</dim>
				</port>
			</output>
		</layer>
		<layer id="92" name="__module.model.22.cv3.2.1.act/aten::silu_/Swish_3/fq_output_0/input_low_compressed" type="Const" version="opset1">
			<data element_type="f16" shape="" offset="1988" size="2" />
			<output>
				<port id="0" precision="FP16" />
			</output>
		</layer>
		<layer id="93" name="__module.model.22.cv3.2.1.act/aten::silu_/Swish_3/fq_output_0/input_low" type="Convert" version="opset1">
			<data destination_type="f32" />
			<rt_info>
				<attribute name="decompression" version="0" />
			</rt_info>
			<input>
				<port id="0" precision="FP16" />
			</input>
			<output>
				<port id="1" precision="FP32" />
			</output>
		</layer>
		<layer id="94" name="__module.model.22.cv3.2.1.act/aten::silu_/Swish_3/fq_output_0/input_high_compressed" type="Const" version="opset1">
			<data element_type="f16" shape="" offset="95324" size="2" />
			<output>
				<port id="0" precision="FP16" />
			</output>
		</layer>
		<layer id="95" name="__module.model.22.cv3.2.1.act/aten::silu_/Swish_3/fq_output_0/input_high" type="Convert" version="opset1">
			<data destination_type="f32" />
			<rt_info>
				<attribute name="decompression" version="0" />
			</rt_info>
			<input>
				<port id="0" precision="FP16" />
			</input>
			<output>
				<port id="1" precision="FP32" />
			</output>
		</layer>
		<layer id="96" name="__module.model.22.cv3.2.1.act/aten::silu_/Swish_3/fq_output_0/output_low_compressed" type="Const" version="opset1">
			<data element_type="f16" shape="" offset="1988" size="2" />
			<output>
				<port id="0" precision="FP16" />
			</output>
		</layer>
		<layer id="97" name="__module.model.22.cv3.2.1.act/aten::silu_/Swish_3/fq_output_0/output_low" type="Convert" version="opset1">
			<data destination_type="f32" />
			<rt_info>
				<attribute name="decompression" version="0" />
			</rt_info>
			<input>
				<port id="0" precision="FP16" />
			</input>
			<output>
				<port id="1" precision="FP32" />
			</output>
		</layer>
		<layer id="98" name="__module.model.22.cv3.2.1.act/aten::silu_/Swish_3/fq_output_0/output_high_compressed" type="Const" version="opset1">
			<data element_type="f16" shape="" offset="95324" size="2" />
			<output>
				<port id="0" precision="FP16" />
			</output>
		</layer>
		<layer id="99" name="__module.model.22.cv3.2.1.act/aten::silu_/Swish_3/fq_output_0/output_high" type="Convert" version="opset1">
			<data destination_type="f32" />
			<rt_info>
				<attribute name="decompression" version="0" />
			</rt_info>
			<input>
				<port id="0" precision="FP16" />
			</input>
			<output>
				<port id="1" precision="FP32" />
			</output>
		</layer>
		<layer id="100" name="__module.model.22.cv3.2.1.act/aten::silu_/Swish_3/fq_output_0" type="FakeQuantize" version="opset1">
			<data levels="256" auto_broadcast="numpy" />
			<input>
				<port id="0" precision="FP32">
					<dim>1</dim>
					<dim>32</dim>
					<dim>160</dim>
					<dim>160</dim>
				</port>
				<port id="1" precision="FP32" />
				<port id="2" precision="FP32" />
				<port id="3" precision="FP32" />
				<port id="4" precision="FP32" />
			</input>
			<output>
				<port id="5" precision="FP32">
					<dim>1</dim>
					<dim>32</dim>
					<dim>160</dim>
					<dim>160</dim>
				</port>
			</output>
		</layer>
		<layer id="101" name="Constant_933727" type="Const" version="opset1">
			<data element_type="i8" shape="32, 32, 3, 3" offset="95326" size="9216" />
			<output>
				<port id="0" precision="I8">
					<dim>32</dim>
					<dim>32</dim>
					<dim>3</dim>
					<dim>3</dim>
				</port>
			</output>
		</layer>
		<layer id="102" name="Convert_933728" type="Convert" version="opset1">
			<data destination_type="f32" />
			<input>
				<port id="0" precision="I8">
					<dim>32</dim>
					<dim>32</dim>
					<dim>3</dim>
					<dim>3</dim>
				</port>
			</input>
			<output>
				<port id="1" precision="FP32">
					<dim>32</dim>
					<dim>32</dim>
					<dim>3</dim>
					<dim>3</dim>
				</port>
			</output>
		</layer>
		<layer id="103" name="Constant_933729_compressed" type="Const" version="opset1">
			<data element_type="f16" shape="32, 1, 1, 1" offset="104542" size="64" />
			<output>
				<port id="0" precision="FP16">
					<dim>32</dim>
					<dim>1</dim>
					<dim>1</dim>
					<dim>1</dim>
				</port>
			</output>
		</layer>
		<layer id="104" name="Constant_933729" type="Convert" version="opset1">
			<data destination_type="f32" />
			<rt_info>
				<attribute name="decompression" version="0" />
			</rt_info>
			<input>
				<port id="0" precision="FP16">
					<dim>32</dim>
					<dim>1</dim>
					<dim>1</dim>
					<dim>1</dim>
				</port>
			</input>
			<output>
				<port id="1" precision="FP32">
					<dim>32</dim>
					<dim>1</dim>
					<dim>1</dim>
					<dim>1</dim>
				</port>
			</output>
		</layer>
		<layer id="105" name="__module.model.2.cv2.0.m.0.cv1.conv/aten::_convolution/Convolution/fq_weights_1" type="Multiply" version="opset1">
			<data auto_broadcast="numpy" />
			<input>
				<port id="0" precision="FP32">
					<dim>32</dim>
					<dim>32</dim>
					<dim>3</dim>
					<dim>3</dim>
				</port>
				<port id="1" precision="FP32">
					<dim>32</dim>
					<dim>1</dim>
					<dim>1</dim>
					<dim>1</dim>
				</port>
			</input>
			<output>
				<port id="2" precision="FP32">
					<dim>32</dim>
					<dim>32</dim>
					<dim>3</dim>
					<dim>3</dim>
				</port>
			</output>
		</layer>
		<layer id="106" name="__module.model.2.cv2.0.m.0.cv1.conv/aten::_convolution/Convolution" type="Convolution" version="opset1">
			<data strides="1, 1" dilations="1, 1" pads_begin="1, 1" pads_end="1, 1" auto_pad="explicit" />
			<input>
				<port id="0" precision="FP32">
					<dim>1</dim>
					<dim>32</dim>
					<dim>160</dim>
					<dim>160</dim>
				</port>
				<port id="1" precision="FP32">
					<dim>32</dim>
					<dim>32</dim>
					<dim>3</dim>
					<dim>3</dim>
				</port>
			</input>
			<output>
				<port id="2" precision="FP32">
					<dim>1</dim>
					<dim>32</dim>
					<dim>160</dim>
					<dim>160</dim>
				</port>
			</output>
		</layer>
		<layer id="107" name="__module.model.2.cv2.0.m.0.cv1.conv/aten::_convolution/Reshape_compressed" type="Const" version="opset1">
			<data element_type="f16" shape="1, 32, 1, 1" offset="104606" size="64" />
			<output>
				<port id="0" precision="FP16">
					<dim>1</dim>
					<dim>32</dim>
					<dim>1</dim>
					<dim>1</dim>
				</port>
			</output>
		</layer>
		<layer id="108" name="__module.model.2.cv2.0.m.0.cv1.conv/aten::_convolution/Reshape" type="Convert" version="opset1">
			<data destination_type="f32" />
			<rt_info>
				<attribute name="decompression" version="0" />
			</rt_info>
			<input>
				<port id="0" precision="FP16">
					<dim>1</dim>
					<dim>32</dim>
					<dim>1</dim>
					<dim>1</dim>
				</port>
			</input>
			<output>
				<port id="1" precision="FP32">
					<dim>1</dim>
					<dim>32</dim>
					<dim>1</dim>
					<dim>1</dim>
				</port>
			</output>
		</layer>
		<layer id="109" name="__module.model.2.cv2.0.m.0.cv1.conv/aten::_convolution/Add" type="Add" version="opset1">
			<data auto_broadcast="numpy" />
			<input>
				<port id="0" precision="FP32">
					<dim>1</dim>
					<dim>32</dim>
					<dim>160</dim>
					<dim>160</dim>
				</port>
				<port id="1" precision="FP32">
					<dim>1</dim>
					<dim>32</dim>
					<dim>1</dim>
					<dim>1</dim>
				</port>
			</input>
			<output>
				<port id="2" precision="FP32" names="165_1">
					<dim>1</dim>
					<dim>32</dim>
					<dim>160</dim>
					<dim>160</dim>
				</port>
			</output>
		</layer>
		<layer id="110" name="__module.model.21.cv3.0.m.0.cv1.act/aten::silu_/Swish" type="Swish" version="opset4">
			<input>
				<port id="0" precision="FP32">
					<dim>1</dim>
					<dim>32</dim>
					<dim>160</dim>
					<dim>160</dim>
				</port>
			</input>
			<output>
				<port id="1" precision="FP32" names="165,input.17">
					<dim>1</dim>
					<dim>32</dim>
					<dim>160</dim>
					<dim>160</dim>
				</port>
			</output>
		</layer>
		<layer id="111" name="__module.model.21.cv3.0.m.0.cv1.act/aten::silu_/Swish/fq_output_0/input_low_compressed" type="Const" version="opset1">
			<data element_type="f16" shape="" offset="104670" size="2" />
			<output>
				<port id="0" precision="FP16" />
			</output>
		</layer>
		<layer id="112" name="__module.model.21.cv3.0.m.0.cv1.act/aten::silu_/Swish/fq_output_0/input_low" type="Convert" version="opset1">
			<data destination_type="f32" />
			<rt_info>
				<attribute name="decompression" version="0" />
			</rt_info>
			<input>
				<port id="0" precision="FP16" />
			</input>
			<output>
				<port id="1" precision="FP32" />
			</output>
		</layer>
		<layer id="113" name="__module.model.21.cv3.0.m.0.cv1.act/aten::silu_/Swish/fq_output_0/input_high_compressed" type="Const" version="opset1">
			<data element_type="f16" shape="" offset="104672" size="2" />
			<output>
				<port id="0" precision="FP16" />
			</output>
		</layer>
		<layer id="114" name="__module.model.21.cv3.0.m.0.cv1.act/aten::silu_/Swish/fq_output_0/input_high" type="Convert" version="opset1">
			<data destination_type="f32" />
			<rt_info>
				<attribute name="decompression" version="0" />
			</rt_info>
			<input>
				<port id="0" precision="FP16" />
			</input>
			<output>
				<port id="1" precision="FP32" />
			</output>
		</layer>
		<layer id="115" name="__module.model.21.cv3.0.m.0.cv1.act/aten::silu_/Swish/fq_output_0/output_low_compressed" type="Const" version="opset1">
			<data element_type="f16" shape="" offset="104670" size="2" />
			<output>
				<port id="0" precision="FP16" />
			</output>
		</layer>
		<layer id="116" name="__module.model.21.cv3.0.m.0.cv1.act/aten::silu_/Swish/fq_output_0/output_low" type="Convert" version="opset1">
			<data destination_type="f32" />
			<rt_info>
				<attribute name="decompression" version="0" />
			</rt_info>
			<input>
				<port id="0" precision="FP16" />
			</input>
			<output>
				<port id="1" precision="FP32" />
			</output>
		</layer>
		<layer id="117" name="__module.model.21.cv3.0.m.0.cv1.act/aten::silu_/Swish/fq_output_0/output_high_compressed" type="Const" version="opset1">
			<data element_type="f16" shape="" offset="104672" size="2" />
			<output>
				<port id="0" precision="FP16" />
			</output>
		</layer>
		<layer id="118" name="__module.model.21.cv3.0.m.0.cv1.act/aten::silu_/Swish/fq_output_0/output_high" type="Convert" version="opset1">
			<data destination_type="f32" />
			<rt_info>
				<attribute name="decompression" version="0" />
			</rt_info>
			<input>
				<port id="0" precision="FP16" />
			</input>
			<output>
				<port id="1" precision="FP32" />
			</output>
		</layer>
		<layer id="119" name="__module.model.21.cv3.0.m.0.cv1.act/aten::silu_/Swish/fq_output_0" type="FakeQuantize" version="opset1">
			<data levels="256" auto_broadcast="numpy" />
			<input>
				<port id="0" precision="FP32">
					<dim>1</dim>
					<dim>32</dim>
					<dim>160</dim>
					<dim>160</dim>
				</port>
				<port id="1" precision="FP32" />
				<port id="2" precision="FP32" />
				<port id="3" precision="FP32" />
				<port id="4" precision="FP32" />
			</input>
			<output>
				<port id="5" precision="FP32">
					<dim>1</dim>
					<dim>32</dim>
					<dim>160</dim>
					<dim>160</dim>
				</port>
			</output>
		</layer>
		<layer id="120" name="Constant_933732" type="Const" version="opset1">
			<data element_type="i8" shape="32, 32, 3, 3" offset="104674" size="9216" />
			<output>
				<port id="0" precision="I8">
					<dim>32</dim>
					<dim>32</dim>
					<dim>3</dim>
					<dim>3</dim>
				</port>
			</output>
		</layer>
		<layer id="121" name="Convert_933733" type="Convert" version="opset1">
			<data destination_type="f32" />
			<input>
				<port id="0" precision="I8">
					<dim>32</dim>
					<dim>32</dim>
					<dim>3</dim>
					<dim>3</dim>
				</port>
			</input>
			<output>
				<port id="1" precision="FP32">
					<dim>32</dim>
					<dim>32</dim>
					<dim>3</dim>
					<dim>3</dim>
				</port>
			</output>
		</layer>
		<layer id="122" name="Constant_933734_compressed" type="Const" version="opset1">
			<data element_type="f16" shape="32, 1, 1, 1" offset="113890" size="64" />
			<output>
				<port id="0" precision="FP16">
					<dim>32</dim>
					<dim>1</dim>
					<dim>1</dim>
					<dim>1</dim>
				</port>
			</output>
		</layer>
		<layer id="123" name="Constant_933734" type="Convert" version="opset1">
			<data destination_type="f32" />
			<rt_info>
				<attribute name="decompression" version="0" />
			</rt_info>
			<input>
				<port id="0" precision="FP16">
					<dim>32</dim>
					<dim>1</dim>
					<dim>1</dim>
					<dim>1</dim>
				</port>
			</input>
			<output>
				<port id="1" precision="FP32">
					<dim>32</dim>
					<dim>1</dim>
					<dim>1</dim>
					<dim>1</dim>
				</port>
			</output>
		</layer>
		<layer id="124" name="__module.model.2.cv2.0.m.0.cv2.conv/aten::_convolution/Convolution/fq_weights_1" type="Multiply" version="opset1">
			<data auto_broadcast="numpy" />
			<input>
				<port id="0" precision="FP32">
					<dim>32</dim>
					<dim>32</dim>
					<dim>3</dim>
					<dim>3</dim>
				</port>
				<port id="1" precision="FP32">
					<dim>32</dim>
					<dim>1</dim>
					<dim>1</dim>
					<dim>1</dim>
				</port>
			</input>
			<output>
				<port id="2" precision="FP32">
					<dim>32</dim>
					<dim>32</dim>
					<dim>3</dim>
					<dim>3</dim>
				</port>
			</output>
		</layer>
		<layer id="125" name="__module.model.2.cv2.0.m.0.cv2.conv/aten::_convolution/Convolution" type="Convolution" version="opset1">
			<data strides="1, 1" dilations="1, 1" pads_begin="1, 1" pads_end="1, 1" auto_pad="explicit" />
			<input>
				<port id="0" precision="FP32">
					<dim>1</dim>
					<dim>32</dim>
					<dim>160</dim>
					<dim>160</dim>
				</port>
				<port id="1" precision="FP32">
					<dim>32</dim>
					<dim>32</dim>
					<dim>3</dim>
					<dim>3</dim>
				</port>
			</input>
			<output>
				<port id="2" precision="FP32">
					<dim>1</dim>
					<dim>32</dim>
					<dim>160</dim>
					<dim>160</dim>
				</port>
			</output>
		</layer>
		<layer id="126" name="__module.model.2.cv2.0.m.0.cv2.conv/aten::_convolution/Reshape_compressed" type="Const" version="opset1">
			<data element_type="f16" shape="1, 32, 1, 1" offset="113954" size="64" />
			<output>
				<port id="0" precision="FP16">
					<dim>1</dim>
					<dim>32</dim>
					<dim>1</dim>
					<dim>1</dim>
				</port>
			</output>
		</layer>
		<layer id="127" name="__module.model.2.cv2.0.m.0.cv2.conv/aten::_convolution/Reshape" type="Convert" version="opset1">
			<data destination_type="f32" />
			<rt_info>
				<attribute name="decompression" version="0" />
			</rt_info>
			<input>
				<port id="0" precision="FP16">
					<dim>1</dim>
					<dim>32</dim>
					<dim>1</dim>
					<dim>1</dim>
				</port>
			</input>
			<output>
				<port id="1" precision="FP32">
					<dim>1</dim>
					<dim>32</dim>
					<dim>1</dim>
					<dim>1</dim>
				</port>
			</output>
		</layer>
		<layer id="128" name="__module.model.2.cv2.0.m.0.cv2.conv/aten::_convolution/Add" type="Add" version="opset1">
			<data auto_broadcast="numpy" />
			<input>
				<port id="0" precision="FP32">
					<dim>1</dim>
					<dim>32</dim>
					<dim>160</dim>
					<dim>160</dim>
				</port>
				<port id="1" precision="FP32">
					<dim>1</dim>
					<dim>32</dim>
					<dim>1</dim>
					<dim>1</dim>
				</port>
			</input>
			<output>
				<port id="2" precision="FP32" names="174_1">
					<dim>1</dim>
					<dim>32</dim>
					<dim>160</dim>
					<dim>160</dim>
				</port>
			</output>
		</layer>
		<layer id="129" name="__module.model.22.cv3.2.1.act/aten::silu_/Swish_4" type="Swish" version="opset4">
			<input>
				<port id="0" precision="FP32">
					<dim>1</dim>
					<dim>32</dim>
					<dim>160</dim>
					<dim>160</dim>
				</port>
			</input>
			<output>
				<port id="1" precision="FP32" names="174,input.21">
					<dim>1</dim>
					<dim>32</dim>
					<dim>160</dim>
					<dim>160</dim>
				</port>
			</output>
		</layer>
		<layer id="130" name="__module.model.22.cv3.2.1.act/aten::silu_/Swish_4/fq_output_0/input_low_compressed" type="Const" version="opset1">
			<data element_type="f16" shape="" offset="114018" size="2" />
			<output>
				<port id="0" precision="FP16" />
			</output>
		</layer>
		<layer id="131" name="__module.model.22.cv3.2.1.act/aten::silu_/Swish_4/fq_output_0/input_low" type="Convert" version="opset1">
			<data destination_type="f32" />
			<rt_info>
				<attribute name="decompression" version="0" />
			</rt_info>
			<input>
				<port id="0" precision="FP16" />
			</input>
			<output>
				<port id="1" precision="FP32" />
			</output>
		</layer>
		<layer id="132" name="__module.model.22.cv3.2.1.act/aten::silu_/Swish_4/fq_output_0/input_high_compressed" type="Const" version="opset1">
			<data element_type="f16" shape="" offset="114020" size="2" />
			<output>
				<port id="0" precision="FP16" />
			</output>
		</layer>
		<layer id="133" name="__module.model.22.cv3.2.1.act/aten::silu_/Swish_4/fq_output_0/input_high" type="Convert" version="opset1">
			<data destination_type="f32" />
			<rt_info>
				<attribute name="decompression" version="0" />
			</rt_info>
			<input>
				<port id="0" precision="FP16" />
			</input>
			<output>
				<port id="1" precision="FP32" />
			</output>
		</layer>
		<layer id="134" name="__module.model.22.cv3.2.1.act/aten::silu_/Swish_4/fq_output_0/output_low_compressed" type="Const" version="opset1">
			<data element_type="f16" shape="" offset="114018" size="2" />
			<output>
				<port id="0" precision="FP16" />
			</output>
		</layer>
		<layer id="135" name="__module.model.22.cv3.2.1.act/aten::silu_/Swish_4/fq_output_0/output_low" type="Convert" version="opset1">
			<data destination_type="f32" />
			<rt_info>
				<attribute name="decompression" version="0" />
			</rt_info>
			<input>
				<port id="0" precision="FP16" />
			</input>
			<output>
				<port id="1" precision="FP32" />
			</output>
		</layer>
		<layer id="136" name="__module.model.22.cv3.2.1.act/aten::silu_/Swish_4/fq_output_0/output_high_compressed" type="Const" version="opset1">
			<data element_type="f16" shape="" offset="114020" size="2" />
			<output>
				<port id="0" precision="FP16" />
			</output>
		</layer>
		<layer id="137" name="__module.model.22.cv3.2.1.act/aten::silu_/Swish_4/fq_output_0/output_high" type="Convert" version="opset1">
			<data destination_type="f32" />
			<rt_info>
				<attribute name="decompression" version="0" />
			</rt_info>
			<input>
				<port id="0" precision="FP16" />
			</input>
			<output>
				<port id="1" precision="FP32" />
			</output>
		</layer>
		<layer id="138" name="__module.model.22.cv3.2.1.act/aten::silu_/Swish_4/fq_output_0" type="FakeQuantize" version="opset1">
			<data levels="256" auto_broadcast="numpy" />
			<input>
				<port id="0" precision="FP32">
					<dim>1</dim>
					<dim>32</dim>
					<dim>160</dim>
					<dim>160</dim>
				</port>
				<port id="1" precision="FP32" />
				<port id="2" precision="FP32" />
				<port id="3" precision="FP32" />
				<port id="4" precision="FP32" />
			</input>
			<output>
				<port id="5" precision="FP32">
					<dim>1</dim>
					<dim>32</dim>
					<dim>160</dim>
					<dim>160</dim>
				</port>
			</output>
		</layer>
		<layer id="139" name="__module.model.2.cv2.0.m.0/aten::add/Add" type="Add" version="opset1">
			<data auto_broadcast="numpy" />
			<input>
				<port id="0" precision="FP32">
					<dim>1</dim>
					<dim>32</dim>
					<dim>160</dim>
					<dim>160</dim>
				</port>
				<port id="1" precision="FP32">
					<dim>1</dim>
					<dim>32</dim>
					<dim>160</dim>
					<dim>160</dim>
				</port>
			</input>
			<output>
				<port id="2" precision="FP32" names="176">
					<dim>1</dim>
					<dim>32</dim>
					<dim>160</dim>
					<dim>160</dim>
				</port>
			</output>
		</layer>
		<layer id="140" name="__module.model.2.cv2.0.m.0/aten::add/Add/fq_output_0/input_low_compressed" type="Const" version="opset1">
			<data element_type="f16" shape="" offset="114022" size="2" />
			<output>
				<port id="0" precision="FP16" />
			</output>
		</layer>
		<layer id="141" name="__module.model.2.cv2.0.m.0/aten::add/Add/fq_output_0/input_low" type="Convert" version="opset1">
			<data destination_type="f32" />
			<rt_info>
				<attribute name="decompression" version="0" />
			</rt_info>
			<input>
				<port id="0" precision="FP16" />
			</input>
			<output>
				<port id="1" precision="FP32" />
			</output>
		</layer>
		<layer id="142" name="__module.model.2.cv2.0.m.0/aten::add/Add/fq_output_0/input_high_compressed" type="Const" version="opset1">
			<data element_type="f16" shape="" offset="114024" size="2" />
			<output>
				<port id="0" precision="FP16" />
			</output>
		</layer>
		<layer id="143" name="__module.model.2.cv2.0.m.0/aten::add/Add/fq_output_0/input_high" type="Convert" version="opset1">
			<data destination_type="f32" />
			<rt_info>
				<attribute name="decompression" version="0" />
			</rt_info>
			<input>
				<port id="0" precision="FP16" />
			</input>
			<output>
				<port id="1" precision="FP32" />
			</output>
		</layer>
		<layer id="144" name="__module.model.2.cv2.0.m.0/aten::add/Add/fq_output_0/output_low_compressed" type="Const" version="opset1">
			<data element_type="f16" shape="" offset="114022" size="2" />
			<output>
				<port id="0" precision="FP16" />
			</output>
		</layer>
		<layer id="145" name="__module.model.2.cv2.0.m.0/aten::add/Add/fq_output_0/output_low" type="Convert" version="opset1">
			<data destination_type="f32" />
			<rt_info>
				<attribute name="decompression" version="0" />
			</rt_info>
			<input>
				<port id="0" precision="FP16" />
			</input>
			<output>
				<port id="1" precision="FP32" />
			</output>
		</layer>
		<layer id="146" name="__module.model.2.cv2.0.m.0/aten::add/Add/fq_output_0/output_high_compressed" type="Const" version="opset1">
			<data element_type="f16" shape="" offset="114024" size="2" />
			<output>
				<port id="0" precision="FP16" />
			</output>
		</layer>
		<layer id="147" name="__module.model.2.cv2.0.m.0/aten::add/Add/fq_output_0/output_high" type="Convert" version="opset1">
			<data destination_type="f32" />
			<rt_info>
				<attribute name="decompression" version="0" />
			</rt_info>
			<input>
				<port id="0" precision="FP16" />
			</input>
			<output>
				<port id="1" precision="FP32" />
			</output>
		</layer>
		<layer id="148" name="__module.model.2.cv2.0.m.0/aten::add/Add/fq_output_0" type="FakeQuantize" version="opset1">
			<data levels="256" auto_broadcast="numpy" />
			<input>
				<port id="0" precision="FP32">
					<dim>1</dim>
					<dim>32</dim>
					<dim>160</dim>
					<dim>160</dim>
				</port>
				<port id="1" precision="FP32" />
				<port id="2" precision="FP32" />
				<port id="3" precision="FP32" />
				<port id="4" precision="FP32" />
			</input>
			<output>
				<port id="5" precision="FP32">
					<dim>1</dim>
					<dim>32</dim>
					<dim>160</dim>
					<dim>160</dim>
				</port>
			</output>
		</layer>
		<layer id="149" name="Constant_933737" type="Const" version="opset1">
			<data element_type="i8" shape="32, 64, 1, 1" offset="114026" size="2048" />
			<output>
				<port id="0" precision="I8">
					<dim>32</dim>
					<dim>64</dim>
					<dim>1</dim>
					<dim>1</dim>
				</port>
			</output>
		</layer>
		<layer id="150" name="Convert_933738" type="Convert" version="opset1">
			<data destination_type="f32" />
			<input>
				<port id="0" precision="I8">
					<dim>32</dim>
					<dim>64</dim>
					<dim>1</dim>
					<dim>1</dim>
				</port>
			</input>
			<output>
				<port id="1" precision="FP32">
					<dim>32</dim>
					<dim>64</dim>
					<dim>1</dim>
					<dim>1</dim>
				</port>
			</output>
		</layer>
		<layer id="151" name="Constant_933739_compressed" type="Const" version="opset1">
			<data element_type="f16" shape="32, 1, 1, 1" offset="116074" size="64" />
			<output>
				<port id="0" precision="FP16">
					<dim>32</dim>
					<dim>1</dim>
					<dim>1</dim>
					<dim>1</dim>
				</port>
			</output>
		</layer>
		<layer id="152" name="Constant_933739" type="Convert" version="opset1">
			<data destination_type="f32" />
			<rt_info>
				<attribute name="decompression" version="0" />
			</rt_info>
			<input>
				<port id="0" precision="FP16">
					<dim>32</dim>
					<dim>1</dim>
					<dim>1</dim>
					<dim>1</dim>
				</port>
			</input>
			<output>
				<port id="1" precision="FP32">
					<dim>32</dim>
					<dim>1</dim>
					<dim>1</dim>
					<dim>1</dim>
				</port>
			</output>
		</layer>
		<layer id="153" name="__module.model.2.cv2.0.cv2.conv/aten::_convolution/Convolution/fq_weights_1" type="Multiply" version="opset1">
			<data auto_broadcast="numpy" />
			<input>
				<port id="0" precision="FP32">
					<dim>32</dim>
					<dim>64</dim>
					<dim>1</dim>
					<dim>1</dim>
				</port>
				<port id="1" precision="FP32">
					<dim>32</dim>
					<dim>1</dim>
					<dim>1</dim>
					<dim>1</dim>
				</port>
			</input>
			<output>
				<port id="2" precision="FP32">
					<dim>32</dim>
					<dim>64</dim>
					<dim>1</dim>
					<dim>1</dim>
				</port>
			</output>
		</layer>
		<layer id="154" name="__module.model.2.cv2.0.cv2.conv/aten::_convolution/Convolution" type="Convolution" version="opset1">
			<data strides="1, 1" dilations="1, 1" pads_begin="0, 0" pads_end="0, 0" auto_pad="explicit" />
			<input>
				<port id="0" precision="FP32">
					<dim>1</dim>
					<dim>64</dim>
					<dim>160</dim>
					<dim>160</dim>
				</port>
				<port id="1" precision="FP32">
					<dim>32</dim>
					<dim>64</dim>
					<dim>1</dim>
					<dim>1</dim>
				</port>
			</input>
			<output>
				<port id="2" precision="FP32">
					<dim>1</dim>
					<dim>32</dim>
					<dim>160</dim>
					<dim>160</dim>
				</port>
			</output>
		</layer>
		<layer id="155" name="__module.model.2.cv2.0.cv2.conv/aten::_convolution/Reshape_compressed" type="Const" version="opset1">
			<data element_type="f16" shape="1, 32, 1, 1" offset="116138" size="64" />
			<output>
				<port id="0" precision="FP16">
					<dim>1</dim>
					<dim>32</dim>
					<dim>1</dim>
					<dim>1</dim>
				</port>
			</output>
		</layer>
		<layer id="156" name="__module.model.2.cv2.0.cv2.conv/aten::_convolution/Reshape" type="Convert" version="opset1">
			<data destination_type="f32" />
			<rt_info>
				<attribute name="decompression" version="0" />
			</rt_info>
			<input>
				<port id="0" precision="FP16">
					<dim>1</dim>
					<dim>32</dim>
					<dim>1</dim>
					<dim>1</dim>
				</port>
			</input>
			<output>
				<port id="1" precision="FP32">
					<dim>1</dim>
					<dim>32</dim>
					<dim>1</dim>
					<dim>1</dim>
				</port>
			</output>
		</layer>
		<layer id="157" name="__module.model.2.cv2.0.cv2.conv/aten::_convolution/Add" type="Add" version="opset1">
			<data auto_broadcast="numpy" />
			<input>
				<port id="0" precision="FP32">
					<dim>1</dim>
					<dim>32</dim>
					<dim>160</dim>
					<dim>160</dim>
				</port>
				<port id="1" precision="FP32">
					<dim>1</dim>
					<dim>32</dim>
					<dim>1</dim>
					<dim>1</dim>
				</port>
			</input>
			<output>
				<port id="2" precision="FP32" names="184_1">
					<dim>1</dim>
					<dim>32</dim>
					<dim>160</dim>
					<dim>160</dim>
				</port>
			</output>
		</layer>
		<layer id="158" name="__module.model.22.cv3.2.1.act/aten::silu_/Swish_5" type="Swish" version="opset4">
			<input>
				<port id="0" precision="FP32">
					<dim>1</dim>
					<dim>32</dim>
					<dim>160</dim>
					<dim>160</dim>
				</port>
			</input>
			<output>
				<port id="1" precision="FP32" names="184,input.23">
					<dim>1</dim>
					<dim>32</dim>
					<dim>160</dim>
					<dim>160</dim>
				</port>
			</output>
		</layer>
		<layer id="159" name="__module.model.22.cv3.2.1.act/aten::silu_/Swish_5/fq_output_0/input_low_compressed" type="Const" version="opset1">
			<data element_type="f16" shape="" offset="114022" size="2" />
			<output>
				<port id="0" precision="FP16" />
			</output>
		</layer>
		<layer id="160" name="__module.model.22.cv3.2.1.act/aten::silu_/Swish_5/fq_output_0/input_low" type="Convert" version="opset1">
			<data destination_type="f32" />
			<rt_info>
				<attribute name="decompression" version="0" />
			</rt_info>
			<input>
				<port id="0" precision="FP16" />
			</input>
			<output>
				<port id="1" precision="FP32" />
			</output>
		</layer>
		<layer id="161" name="__module.model.22.cv3.2.1.act/aten::silu_/Swish_5/fq_output_0/input_high_compressed" type="Const" version="opset1">
			<data element_type="f16" shape="" offset="114024" size="2" />
			<output>
				<port id="0" precision="FP16" />
			</output>
		</layer>
		<layer id="162" name="__module.model.22.cv3.2.1.act/aten::silu_/Swish_5/fq_output_0/input_high" type="Convert" version="opset1">
			<data destination_type="f32" />
			<rt_info>
				<attribute name="decompression" version="0" />
			</rt_info>
			<input>
				<port id="0" precision="FP16" />
			</input>
			<output>
				<port id="1" precision="FP32" />
			</output>
		</layer>
		<layer id="163" name="__module.model.22.cv3.2.1.act/aten::silu_/Swish_5/fq_output_0/output_low_compressed" type="Const" version="opset1">
			<data element_type="f16" shape="" offset="114022" size="2" />
			<output>
				<port id="0" precision="FP16" />
			</output>
		</layer>
		<layer id="164" name="__module.model.22.cv3.2.1.act/aten::silu_/Swish_5/fq_output_0/output_low" type="Convert" version="opset1">
			<data destination_type="f32" />
			<rt_info>
				<attribute name="decompression" version="0" />
			</rt_info>
			<input>
				<port id="0" precision="FP16" />
			</input>
			<output>
				<port id="1" precision="FP32" />
			</output>
		</layer>
		<layer id="165" name="__module.model.22.cv3.2.1.act/aten::silu_/Swish_5/fq_output_0/output_high_compressed" type="Const" version="opset1">
			<data element_type="f16" shape="" offset="114024" size="2" />
			<output>
				<port id="0" precision="FP16" />
			</output>
		</layer>
		<layer id="166" name="__module.model.22.cv3.2.1.act/aten::silu_/Swish_5/fq_output_0/output_high" type="Convert" version="opset1">
			<data destination_type="f32" />
			<rt_info>
				<attribute name="decompression" version="0" />
			</rt_info>
			<input>
				<port id="0" precision="FP16" />
			</input>
			<output>
				<port id="1" precision="FP32" />
			</output>
		</layer>
		<layer id="167" name="__module.model.22.cv3.2.1.act/aten::silu_/Swish_5/fq_output_0" type="FakeQuantize" version="opset1">
			<data levels="256" auto_broadcast="numpy" />
			<input>
				<port id="0" precision="FP32">
					<dim>1</dim>
					<dim>32</dim>
					<dim>160</dim>
					<dim>160</dim>
				</port>
				<port id="1" precision="FP32" />
				<port id="2" precision="FP32" />
				<port id="3" precision="FP32" />
				<port id="4" precision="FP32" />
			</input>
			<output>
				<port id="5" precision="FP32">
					<dim>1</dim>
					<dim>32</dim>
					<dim>160</dim>
					<dim>160</dim>
				</port>
			</output>
		</layer>
		<layer id="168" name="__module.model.2.cv2.0/aten::cat/Concat" type="Concat" version="opset1">
			<data axis="1" />
			<input>
				<port id="0" precision="FP32">
					<dim>1</dim>
					<dim>32</dim>
					<dim>160</dim>
					<dim>160</dim>
				</port>
				<port id="1" precision="FP32">
					<dim>1</dim>
					<dim>32</dim>
					<dim>160</dim>
					<dim>160</dim>
				</port>
			</input>
			<output>
				<port id="2" precision="FP32" names="187,input.25">
					<dim>1</dim>
					<dim>64</dim>
					<dim>160</dim>
					<dim>160</dim>
				</port>
			</output>
		</layer>
		<layer id="169" name="Constant_933742" type="Const" version="opset1">
			<data element_type="i8" shape="64, 64, 1, 1" offset="116202" size="4096" />
			<output>
				<port id="0" precision="I8">
					<dim>64</dim>
					<dim>64</dim>
					<dim>1</dim>
					<dim>1</dim>
				</port>
			</output>
		</layer>
		<layer id="170" name="Convert_933743" type="Convert" version="opset1">
			<data destination_type="f32" />
			<input>
				<port id="0" precision="I8">
					<dim>64</dim>
					<dim>64</dim>
					<dim>1</dim>
					<dim>1</dim>
				</port>
			</input>
			<output>
				<port id="1" precision="FP32">
					<dim>64</dim>
					<dim>64</dim>
					<dim>1</dim>
					<dim>1</dim>
				</port>
			</output>
		</layer>
		<layer id="171" name="Constant_933744_compressed" type="Const" version="opset1">
			<data element_type="f16" shape="64, 1, 1, 1" offset="120298" size="128" />
			<output>
				<port id="0" precision="FP16">
					<dim>64</dim>
					<dim>1</dim>
					<dim>1</dim>
					<dim>1</dim>
				</port>
			</output>
		</layer>
		<layer id="172" name="Constant_933744" type="Convert" version="opset1">
			<data destination_type="f32" />
			<rt_info>
				<attribute name="decompression" version="0" />
			</rt_info>
			<input>
				<port id="0" precision="FP16">
					<dim>64</dim>
					<dim>1</dim>
					<dim>1</dim>
					<dim>1</dim>
				</port>
			</input>
			<output>
				<port id="1" precision="FP32">
					<dim>64</dim>
					<dim>1</dim>
					<dim>1</dim>
					<dim>1</dim>
				</port>
			</output>
		</layer>
		<layer id="173" name="__module.model.2.cv2.0.cv3.conv/aten::_convolution/Convolution/fq_weights_1" type="Multiply" version="opset1">
			<data auto_broadcast="numpy" />
			<input>
				<port id="0" precision="FP32">
					<dim>64</dim>
					<dim>64</dim>
					<dim>1</dim>
					<dim>1</dim>
				</port>
				<port id="1" precision="FP32">
					<dim>64</dim>
					<dim>1</dim>
					<dim>1</dim>
					<dim>1</dim>
				</port>
			</input>
			<output>
				<port id="2" precision="FP32">
					<dim>64</dim>
					<dim>64</dim>
					<dim>1</dim>
					<dim>1</dim>
				</port>
			</output>
		</layer>
		<layer id="174" name="__module.model.2.cv2.0.cv3.conv/aten::_convolution/Convolution" type="Convolution" version="opset1">
			<data strides="1, 1" dilations="1, 1" pads_begin="0, 0" pads_end="0, 0" auto_pad="explicit" />
			<input>
				<port id="0" precision="FP32">
					<dim>1</dim>
					<dim>64</dim>
					<dim>160</dim>
					<dim>160</dim>
				</port>
				<port id="1" precision="FP32">
					<dim>64</dim>
					<dim>64</dim>
					<dim>1</dim>
					<dim>1</dim>
				</port>
			</input>
			<output>
				<port id="2" precision="FP32">
					<dim>1</dim>
					<dim>64</dim>
					<dim>160</dim>
					<dim>160</dim>
				</port>
			</output>
		</layer>
		<layer id="175" name="__module.model.2.cv2.0.cv3.conv/aten::_convolution/Reshape_compressed" type="Const" version="opset1">
			<data element_type="f16" shape="1, 64, 1, 1" offset="120426" size="128" />
			<output>
				<port id="0" precision="FP16">
					<dim>1</dim>
					<dim>64</dim>
					<dim>1</dim>
					<dim>1</dim>
				</port>
			</output>
		</layer>
		<layer id="176" name="__module.model.2.cv2.0.cv3.conv/aten::_convolution/Reshape" type="Convert" version="opset1">
			<data destination_type="f32" />
			<rt_info>
				<attribute name="decompression" version="0" />
			</rt_info>
			<input>
				<port id="0" precision="FP16">
					<dim>1</dim>
					<dim>64</dim>
					<dim>1</dim>
					<dim>1</dim>
				</port>
			</input>
			<output>
				<port id="1" precision="FP32">
					<dim>1</dim>
					<dim>64</dim>
					<dim>1</dim>
					<dim>1</dim>
				</port>
			</output>
		</layer>
		<layer id="177" name="__module.model.2.cv2.0.cv3.conv/aten::_convolution/Add" type="Add" version="opset1">
			<data auto_broadcast="numpy" />
			<input>
				<port id="0" precision="FP32">
					<dim>1</dim>
					<dim>64</dim>
					<dim>160</dim>
					<dim>160</dim>
				</port>
				<port id="1" precision="FP32">
					<dim>1</dim>
					<dim>64</dim>
					<dim>1</dim>
					<dim>1</dim>
				</port>
			</input>
			<output>
				<port id="2" precision="FP32" names="195_1">
					<dim>1</dim>
					<dim>64</dim>
					<dim>160</dim>
					<dim>160</dim>
				</port>
			</output>
		</layer>
		<layer id="178" name="__module.model.22.cv3.2.1.act/aten::silu_/Swish_6" type="Swish" version="opset4">
			<input>
				<port id="0" precision="FP32">
					<dim>1</dim>
					<dim>64</dim>
					<dim>160</dim>
					<dim>160</dim>
				</port>
			</input>
			<output>
				<port id="1" precision="FP32" names="195,input.27">
					<dim>1</dim>
					<dim>64</dim>
					<dim>160</dim>
					<dim>160</dim>
				</port>
			</output>
		</layer>
		<layer id="179" name="__module.model.22.cv3.2.1.act/aten::silu_/Swish_6/fq_output_0/input_low_compressed" type="Const" version="opset1">
			<data element_type="f16" shape="" offset="1988" size="2" />
			<output>
				<port id="0" precision="FP16" />
			</output>
		</layer>
		<layer id="180" name="__module.model.22.cv3.2.1.act/aten::silu_/Swish_6/fq_output_0/input_low" type="Convert" version="opset1">
			<data destination_type="f32" />
			<rt_info>
				<attribute name="decompression" version="0" />
			</rt_info>
			<input>
				<port id="0" precision="FP16" />
			</input>
			<output>
				<port id="1" precision="FP32" />
			</output>
		</layer>
		<layer id="181" name="__module.model.22.cv3.2.1.act/aten::silu_/Swish_6/fq_output_0/input_high_compressed" type="Const" version="opset1">
			<data element_type="f16" shape="" offset="95324" size="2" />
			<output>
				<port id="0" precision="FP16" />
			</output>
		</layer>
		<layer id="182" name="__module.model.22.cv3.2.1.act/aten::silu_/Swish_6/fq_output_0/input_high" type="Convert" version="opset1">
			<data destination_type="f32" />
			<rt_info>
				<attribute name="decompression" version="0" />
			</rt_info>
			<input>
				<port id="0" precision="FP16" />
			</input>
			<output>
				<port id="1" precision="FP32" />
			</output>
		</layer>
		<layer id="183" name="__module.model.22.cv3.2.1.act/aten::silu_/Swish_6/fq_output_0/output_low_compressed" type="Const" version="opset1">
			<data element_type="f16" shape="" offset="1988" size="2" />
			<output>
				<port id="0" precision="FP16" />
			</output>
		</layer>
		<layer id="184" name="__module.model.22.cv3.2.1.act/aten::silu_/Swish_6/fq_output_0/output_low" type="Convert" version="opset1">
			<data destination_type="f32" />
			<rt_info>
				<attribute name="decompression" version="0" />
			</rt_info>
			<input>
				<port id="0" precision="FP16" />
			</input>
			<output>
				<port id="1" precision="FP32" />
			</output>
		</layer>
		<layer id="185" name="__module.model.22.cv3.2.1.act/aten::silu_/Swish_6/fq_output_0/output_high_compressed" type="Const" version="opset1">
			<data element_type="f16" shape="" offset="95324" size="2" />
			<output>
				<port id="0" precision="FP16" />
			</output>
		</layer>
		<layer id="186" name="__module.model.22.cv3.2.1.act/aten::silu_/Swish_6/fq_output_0/output_high" type="Convert" version="opset1">
			<data destination_type="f32" />
			<rt_info>
				<attribute name="decompression" version="0" />
			</rt_info>
			<input>
				<port id="0" precision="FP16" />
			</input>
			<output>
				<port id="1" precision="FP32" />
			</output>
		</layer>
		<layer id="187" name="__module.model.22.cv3.2.1.act/aten::silu_/Swish_6/fq_output_0" type="FakeQuantize" version="opset1">
			<data levels="256" auto_broadcast="numpy" />
			<input>
				<port id="0" precision="FP32">
					<dim>1</dim>
					<dim>64</dim>
					<dim>160</dim>
					<dim>160</dim>
				</port>
				<port id="1" precision="FP32" />
				<port id="2" precision="FP32" />
				<port id="3" precision="FP32" />
				<port id="4" precision="FP32" />
			</input>
			<output>
				<port id="5" precision="FP32">
					<dim>1</dim>
					<dim>64</dim>
					<dim>160</dim>
					<dim>160</dim>
				</port>
			</output>
		</layer>
		<layer id="188" name="Constant_933747" type="Const" version="opset1">
			<data element_type="i8" shape="64, 64, 3, 3" offset="120554" size="36864" />
			<output>
				<port id="0" precision="I8">
					<dim>64</dim>
					<dim>64</dim>
					<dim>3</dim>
					<dim>3</dim>
				</port>
			</output>
		</layer>
		<layer id="189" name="Convert_933748" type="Convert" version="opset1">
			<data destination_type="f32" />
			<input>
				<port id="0" precision="I8">
					<dim>64</dim>
					<dim>64</dim>
					<dim>3</dim>
					<dim>3</dim>
				</port>
			</input>
			<output>
				<port id="1" precision="FP32">
					<dim>64</dim>
					<dim>64</dim>
					<dim>3</dim>
					<dim>3</dim>
				</port>
			</output>
		</layer>
		<layer id="190" name="Constant_933749_compressed" type="Const" version="opset1">
			<data element_type="f16" shape="64, 1, 1, 1" offset="157418" size="128" />
			<output>
				<port id="0" precision="FP16">
					<dim>64</dim>
					<dim>1</dim>
					<dim>1</dim>
					<dim>1</dim>
				</port>
			</output>
		</layer>
		<layer id="191" name="Constant_933749" type="Convert" version="opset1">
			<data destination_type="f32" />
			<rt_info>
				<attribute name="decompression" version="0" />
			</rt_info>
			<input>
				<port id="0" precision="FP16">
					<dim>64</dim>
					<dim>1</dim>
					<dim>1</dim>
					<dim>1</dim>
				</port>
			</input>
			<output>
				<port id="1" precision="FP32">
					<dim>64</dim>
					<dim>1</dim>
					<dim>1</dim>
					<dim>1</dim>
				</port>
			</output>
		</layer>
		<layer id="192" name="__module.model.2.cv2.1.conv/aten::_convolution/Convolution/fq_weights_1" type="Multiply" version="opset1">
			<data auto_broadcast="numpy" />
			<input>
				<port id="0" precision="FP32">
					<dim>64</dim>
					<dim>64</dim>
					<dim>3</dim>
					<dim>3</dim>
				</port>
				<port id="1" precision="FP32">
					<dim>64</dim>
					<dim>1</dim>
					<dim>1</dim>
					<dim>1</dim>
				</port>
			</input>
			<output>
				<port id="2" precision="FP32">
					<dim>64</dim>
					<dim>64</dim>
					<dim>3</dim>
					<dim>3</dim>
				</port>
			</output>
		</layer>
		<layer id="193" name="__module.model.2.cv2.1.conv/aten::_convolution/Convolution" type="Convolution" version="opset1">
			<data strides="1, 1" dilations="1, 1" pads_begin="1, 1" pads_end="1, 1" auto_pad="explicit" />
			<input>
				<port id="0" precision="FP32">
					<dim>1</dim>
					<dim>64</dim>
					<dim>160</dim>
					<dim>160</dim>
				</port>
				<port id="1" precision="FP32">
					<dim>64</dim>
					<dim>64</dim>
					<dim>3</dim>
					<dim>3</dim>
				</port>
			</input>
			<output>
				<port id="2" precision="FP32">
					<dim>1</dim>
					<dim>64</dim>
					<dim>160</dim>
					<dim>160</dim>
				</port>
			</output>
		</layer>
		<layer id="194" name="__module.model.2.cv2.1.conv/aten::_convolution/Reshape_compressed" type="Const" version="opset1">
			<data element_type="f16" shape="1, 64, 1, 1" offset="157546" size="128" />
			<output>
				<port id="0" precision="FP16">
					<dim>1</dim>
					<dim>64</dim>
					<dim>1</dim>
					<dim>1</dim>
				</port>
			</output>
		</layer>
		<layer id="195" name="__module.model.2.cv2.1.conv/aten::_convolution/Reshape" type="Convert" version="opset1">
			<data destination_type="f32" />
			<rt_info>
				<attribute name="decompression" version="0" />
			</rt_info>
			<input>
				<port id="0" precision="FP16">
					<dim>1</dim>
					<dim>64</dim>
					<dim>1</dim>
					<dim>1</dim>
				</port>
			</input>
			<output>
				<port id="1" precision="FP32">
					<dim>1</dim>
					<dim>64</dim>
					<dim>1</dim>
					<dim>1</dim>
				</port>
			</output>
		</layer>
		<layer id="196" name="__module.model.2.cv2.1.conv/aten::_convolution/Add" type="Add" version="opset1">
			<data auto_broadcast="numpy" />
			<input>
				<port id="0" precision="FP32">
					<dim>1</dim>
					<dim>64</dim>
					<dim>160</dim>
					<dim>160</dim>
				</port>
				<port id="1" precision="FP32">
					<dim>1</dim>
					<dim>64</dim>
					<dim>1</dim>
					<dim>1</dim>
				</port>
			</input>
			<output>
				<port id="2" precision="FP32" names="204_1">
					<dim>1</dim>
					<dim>64</dim>
					<dim>160</dim>
					<dim>160</dim>
				</port>
			</output>
		</layer>
		<layer id="197" name="__module.model.22.cv3.2.1.act/aten::silu_/Swish_7" type="Swish" version="opset4">
			<input>
				<port id="0" precision="FP32">
					<dim>1</dim>
					<dim>64</dim>
					<dim>160</dim>
					<dim>160</dim>
				</port>
			</input>
			<output>
				<port id="1" precision="FP32" names="204,input.31">
					<dim>1</dim>
					<dim>64</dim>
					<dim>160</dim>
					<dim>160</dim>
				</port>
			</output>
		</layer>
		<layer id="198" name="__module.model.22.cv3.2.1.act/aten::silu_/Swish_7/fq_output_0/input_low_compressed" type="Const" version="opset1">
			<data element_type="f16" shape="" offset="93128" size="2" />
			<output>
				<port id="0" precision="FP16" />
			</output>
		</layer>
		<layer id="199" name="__module.model.22.cv3.2.1.act/aten::silu_/Swish_7/fq_output_0/input_low" type="Convert" version="opset1">
			<data destination_type="f32" />
			<rt_info>
				<attribute name="decompression" version="0" />
			</rt_info>
			<input>
				<port id="0" precision="FP16" />
			</input>
			<output>
				<port id="1" precision="FP32" />
			</output>
		</layer>
		<layer id="200" name="__module.model.22.cv3.2.1.act/aten::silu_/Swish_7/fq_output_0/input_high_compressed" type="Const" version="opset1">
			<data element_type="f16" shape="" offset="93130" size="2" />
			<output>
				<port id="0" precision="FP16" />
			</output>
		</layer>
		<layer id="201" name="__module.model.22.cv3.2.1.act/aten::silu_/Swish_7/fq_output_0/input_high" type="Convert" version="opset1">
			<data destination_type="f32" />
			<rt_info>
				<attribute name="decompression" version="0" />
			</rt_info>
			<input>
				<port id="0" precision="FP16" />
			</input>
			<output>
				<port id="1" precision="FP32" />
			</output>
		</layer>
		<layer id="202" name="__module.model.22.cv3.2.1.act/aten::silu_/Swish_7/fq_output_0/output_low_compressed" type="Const" version="opset1">
			<data element_type="f16" shape="" offset="93128" size="2" />
			<output>
				<port id="0" precision="FP16" />
			</output>
		</layer>
		<layer id="203" name="__module.model.22.cv3.2.1.act/aten::silu_/Swish_7/fq_output_0/output_low" type="Convert" version="opset1">
			<data destination_type="f32" />
			<rt_info>
				<attribute name="decompression" version="0" />
			</rt_info>
			<input>
				<port id="0" precision="FP16" />
			</input>
			<output>
				<port id="1" precision="FP32" />
			</output>
		</layer>
		<layer id="204" name="__module.model.22.cv3.2.1.act/aten::silu_/Swish_7/fq_output_0/output_high_compressed" type="Const" version="opset1">
			<data element_type="f16" shape="" offset="93130" size="2" />
			<output>
				<port id="0" precision="FP16" />
			</output>
		</layer>
		<layer id="205" name="__module.model.22.cv3.2.1.act/aten::silu_/Swish_7/fq_output_0/output_high" type="Convert" version="opset1">
			<data destination_type="f32" />
			<rt_info>
				<attribute name="decompression" version="0" />
			</rt_info>
			<input>
				<port id="0" precision="FP16" />
			</input>
			<output>
				<port id="1" precision="FP32" />
			</output>
		</layer>
		<layer id="206" name="__module.model.22.cv3.2.1.act/aten::silu_/Swish_7/fq_output_0" type="FakeQuantize" version="opset1">
			<data levels="256" auto_broadcast="numpy" />
			<input>
				<port id="0" precision="FP32">
					<dim>1</dim>
					<dim>64</dim>
					<dim>160</dim>
					<dim>160</dim>
				</port>
				<port id="1" precision="FP32" />
				<port id="2" precision="FP32" />
				<port id="3" precision="FP32" />
				<port id="4" precision="FP32" />
			</input>
			<output>
				<port id="5" precision="FP32">
					<dim>1</dim>
					<dim>64</dim>
					<dim>160</dim>
					<dim>160</dim>
				</port>
			</output>
		</layer>
		<layer id="207" name="Constant_933752" type="Const" version="opset1">
			<data element_type="i8" shape="32, 64, 1, 1" offset="157674" size="2048" />
			<output>
				<port id="0" precision="I8">
					<dim>32</dim>
					<dim>64</dim>
					<dim>1</dim>
					<dim>1</dim>
				</port>
			</output>
		</layer>
		<layer id="208" name="Convert_933753" type="Convert" version="opset1">
			<data destination_type="f32" />
			<input>
				<port id="0" precision="I8">
					<dim>32</dim>
					<dim>64</dim>
					<dim>1</dim>
					<dim>1</dim>
				</port>
			</input>
			<output>
				<port id="1" precision="FP32">
					<dim>32</dim>
					<dim>64</dim>
					<dim>1</dim>
					<dim>1</dim>
				</port>
			</output>
		</layer>
		<layer id="209" name="Constant_933754_compressed" type="Const" version="opset1">
			<data element_type="f16" shape="32, 1, 1, 1" offset="159722" size="64" />
			<output>
				<port id="0" precision="FP16">
					<dim>32</dim>
					<dim>1</dim>
					<dim>1</dim>
					<dim>1</dim>
				</port>
			</output>
		</layer>
		<layer id="210" name="Constant_933754" type="Convert" version="opset1">
			<data destination_type="f32" />
			<rt_info>
				<attribute name="decompression" version="0" />
			</rt_info>
			<input>
				<port id="0" precision="FP16">
					<dim>32</dim>
					<dim>1</dim>
					<dim>1</dim>
					<dim>1</dim>
				</port>
			</input>
			<output>
				<port id="1" precision="FP32">
					<dim>32</dim>
					<dim>1</dim>
					<dim>1</dim>
					<dim>1</dim>
				</port>
			</output>
		</layer>
		<layer id="211" name="__module.model.2.cv3.0.cv1.conv/aten::_convolution/Convolution/fq_weights_1" type="Multiply" version="opset1">
			<data auto_broadcast="numpy" />
			<input>
				<port id="0" precision="FP32">
					<dim>32</dim>
					<dim>64</dim>
					<dim>1</dim>
					<dim>1</dim>
				</port>
				<port id="1" precision="FP32">
					<dim>32</dim>
					<dim>1</dim>
					<dim>1</dim>
					<dim>1</dim>
				</port>
			</input>
			<output>
				<port id="2" precision="FP32">
					<dim>32</dim>
					<dim>64</dim>
					<dim>1</dim>
					<dim>1</dim>
				</port>
			</output>
		</layer>
		<layer id="212" name="__module.model.2.cv3.0.cv1.conv/aten::_convolution/Convolution" type="Convolution" version="opset1">
			<data strides="1, 1" dilations="1, 1" pads_begin="0, 0" pads_end="0, 0" auto_pad="explicit" />
			<input>
				<port id="0" precision="FP32">
					<dim>1</dim>
					<dim>64</dim>
					<dim>160</dim>
					<dim>160</dim>
				</port>
				<port id="1" precision="FP32">
					<dim>32</dim>
					<dim>64</dim>
					<dim>1</dim>
					<dim>1</dim>
				</port>
			</input>
			<output>
				<port id="2" precision="FP32">
					<dim>1</dim>
					<dim>32</dim>
					<dim>160</dim>
					<dim>160</dim>
				</port>
			</output>
		</layer>
		<layer id="213" name="__module.model.2.cv3.0.cv1.conv/aten::_convolution/Reshape_compressed" type="Const" version="opset1">
			<data element_type="f16" shape="1, 32, 1, 1" offset="159786" size="64" />
			<output>
				<port id="0" precision="FP16">
					<dim>1</dim>
					<dim>32</dim>
					<dim>1</dim>
					<dim>1</dim>
				</port>
			</output>
		</layer>
		<layer id="214" name="__module.model.2.cv3.0.cv1.conv/aten::_convolution/Reshape" type="Convert" version="opset1">
			<data destination_type="f32" />
			<rt_info>
				<attribute name="decompression" version="0" />
			</rt_info>
			<input>
				<port id="0" precision="FP16">
					<dim>1</dim>
					<dim>32</dim>
					<dim>1</dim>
					<dim>1</dim>
				</port>
			</input>
			<output>
				<port id="1" precision="FP32">
					<dim>1</dim>
					<dim>32</dim>
					<dim>1</dim>
					<dim>1</dim>
				</port>
			</output>
		</layer>
		<layer id="215" name="__module.model.2.cv3.0.cv1.conv/aten::_convolution/Add" type="Add" version="opset1">
			<data auto_broadcast="numpy" />
			<input>
				<port id="0" precision="FP32">
					<dim>1</dim>
					<dim>32</dim>
					<dim>160</dim>
					<dim>160</dim>
				</port>
				<port id="1" precision="FP32">
					<dim>1</dim>
					<dim>32</dim>
					<dim>1</dim>
					<dim>1</dim>
				</port>
			</input>
			<output>
				<port id="2" precision="FP32" names="219_1">
					<dim>1</dim>
					<dim>32</dim>
					<dim>160</dim>
					<dim>160</dim>
				</port>
			</output>
		</layer>
		<layer id="216" name="__module.model.22.cv3.2.1.act/aten::silu_/Swish_8" type="Swish" version="opset4">
			<input>
				<port id="0" precision="FP32">
					<dim>1</dim>
					<dim>32</dim>
					<dim>160</dim>
					<dim>160</dim>
				</port>
			</input>
			<output>
				<port id="1" precision="FP32" names="219,input.35">
					<dim>1</dim>
					<dim>32</dim>
					<dim>160</dim>
					<dim>160</dim>
				</port>
			</output>
		</layer>
		<layer id="217" name="__module.model.22.cv3.2.1.act/aten::silu_/Swish_8/fq_output_0/input_low_compressed" type="Const" version="opset1">
			<data element_type="f16" shape="" offset="1988" size="2" />
			<output>
				<port id="0" precision="FP16" />
			</output>
		</layer>
		<layer id="218" name="__module.model.22.cv3.2.1.act/aten::silu_/Swish_8/fq_output_0/input_low" type="Convert" version="opset1">
			<data destination_type="f32" />
			<rt_info>
				<attribute name="decompression" version="0" />
			</rt_info>
			<input>
				<port id="0" precision="FP16" />
			</input>
			<output>
				<port id="1" precision="FP32" />
			</output>
		</layer>
		<layer id="219" name="__module.model.22.cv3.2.1.act/aten::silu_/Swish_8/fq_output_0/input_high_compressed" type="Const" version="opset1">
			<data element_type="f16" shape="" offset="159850" size="2" />
			<output>
				<port id="0" precision="FP16" />
			</output>
		</layer>
		<layer id="220" name="__module.model.22.cv3.2.1.act/aten::silu_/Swish_8/fq_output_0/input_high" type="Convert" version="opset1">
			<data destination_type="f32" />
			<rt_info>
				<attribute name="decompression" version="0" />
			</rt_info>
			<input>
				<port id="0" precision="FP16" />
			</input>
			<output>
				<port id="1" precision="FP32" />
			</output>
		</layer>
		<layer id="221" name="__module.model.22.cv3.2.1.act/aten::silu_/Swish_8/fq_output_0/output_low_compressed" type="Const" version="opset1">
			<data element_type="f16" shape="" offset="1988" size="2" />
			<output>
				<port id="0" precision="FP16" />
			</output>
		</layer>
		<layer id="222" name="__module.model.22.cv3.2.1.act/aten::silu_/Swish_8/fq_output_0/output_low" type="Convert" version="opset1">
			<data destination_type="f32" />
			<rt_info>
				<attribute name="decompression" version="0" />
			</rt_info>
			<input>
				<port id="0" precision="FP16" />
			</input>
			<output>
				<port id="1" precision="FP32" />
			</output>
		</layer>
		<layer id="223" name="__module.model.22.cv3.2.1.act/aten::silu_/Swish_8/fq_output_0/output_high_compressed" type="Const" version="opset1">
			<data element_type="f16" shape="" offset="159850" size="2" />
			<output>
				<port id="0" precision="FP16" />
			</output>
		</layer>
		<layer id="224" name="__module.model.22.cv3.2.1.act/aten::silu_/Swish_8/fq_output_0/output_high" type="Convert" version="opset1">
			<data destination_type="f32" />
			<rt_info>
				<attribute name="decompression" version="0" />
			</rt_info>
			<input>
				<port id="0" precision="FP16" />
			</input>
			<output>
				<port id="1" precision="FP32" />
			</output>
		</layer>
		<layer id="225" name="__module.model.22.cv3.2.1.act/aten::silu_/Swish_8/fq_output_0" type="FakeQuantize" version="opset1">
			<data levels="256" auto_broadcast="numpy" />
			<input>
				<port id="0" precision="FP32">
					<dim>1</dim>
					<dim>32</dim>
					<dim>160</dim>
					<dim>160</dim>
				</port>
				<port id="1" precision="FP32" />
				<port id="2" precision="FP32" />
				<port id="3" precision="FP32" />
				<port id="4" precision="FP32" />
			</input>
			<output>
				<port id="5" precision="FP32">
					<dim>1</dim>
					<dim>32</dim>
					<dim>160</dim>
					<dim>160</dim>
				</port>
			</output>
		</layer>
		<layer id="226" name="Constant_933757" type="Const" version="opset1">
			<data element_type="i8" shape="32, 32, 3, 3" offset="159852" size="9216" />
			<output>
				<port id="0" precision="I8">
					<dim>32</dim>
					<dim>32</dim>
					<dim>3</dim>
					<dim>3</dim>
				</port>
			</output>
		</layer>
		<layer id="227" name="Convert_933758" type="Convert" version="opset1">
			<data destination_type="f32" />
			<input>
				<port id="0" precision="I8">
					<dim>32</dim>
					<dim>32</dim>
					<dim>3</dim>
					<dim>3</dim>
				</port>
			</input>
			<output>
				<port id="1" precision="FP32">
					<dim>32</dim>
					<dim>32</dim>
					<dim>3</dim>
					<dim>3</dim>
				</port>
			</output>
		</layer>
		<layer id="228" name="Constant_933759_compressed" type="Const" version="opset1">
			<data element_type="f16" shape="32, 1, 1, 1" offset="169068" size="64" />
			<output>
				<port id="0" precision="FP16">
					<dim>32</dim>
					<dim>1</dim>
					<dim>1</dim>
					<dim>1</dim>
				</port>
			</output>
		</layer>
		<layer id="229" name="Constant_933759" type="Convert" version="opset1">
			<data destination_type="f32" />
			<rt_info>
				<attribute name="decompression" version="0" />
			</rt_info>
			<input>
				<port id="0" precision="FP16">
					<dim>32</dim>
					<dim>1</dim>
					<dim>1</dim>
					<dim>1</dim>
				</port>
			</input>
			<output>
				<port id="1" precision="FP32">
					<dim>32</dim>
					<dim>1</dim>
					<dim>1</dim>
					<dim>1</dim>
				</port>
			</output>
		</layer>
		<layer id="230" name="__module.model.2.cv3.0.m.0.cv1.conv/aten::_convolution/Convolution/fq_weights_1" type="Multiply" version="opset1">
			<data auto_broadcast="numpy" />
			<input>
				<port id="0" precision="FP32">
					<dim>32</dim>
					<dim>32</dim>
					<dim>3</dim>
					<dim>3</dim>
				</port>
				<port id="1" precision="FP32">
					<dim>32</dim>
					<dim>1</dim>
					<dim>1</dim>
					<dim>1</dim>
				</port>
			</input>
			<output>
				<port id="2" precision="FP32">
					<dim>32</dim>
					<dim>32</dim>
					<dim>3</dim>
					<dim>3</dim>
				</port>
			</output>
		</layer>
		<layer id="231" name="__module.model.2.cv3.0.m.0.cv1.conv/aten::_convolution/Convolution" type="Convolution" version="opset1">
			<data strides="1, 1" dilations="1, 1" pads_begin="1, 1" pads_end="1, 1" auto_pad="explicit" />
			<input>
				<port id="0" precision="FP32">
					<dim>1</dim>
					<dim>32</dim>
					<dim>160</dim>
					<dim>160</dim>
				</port>
				<port id="1" precision="FP32">
					<dim>32</dim>
					<dim>32</dim>
					<dim>3</dim>
					<dim>3</dim>
				</port>
			</input>
			<output>
				<port id="2" precision="FP32">
					<dim>1</dim>
					<dim>32</dim>
					<dim>160</dim>
					<dim>160</dim>
				</port>
			</output>
		</layer>
		<layer id="232" name="__module.model.2.cv3.0.m.0.cv1.conv/aten::_convolution/Reshape_compressed" type="Const" version="opset1">
			<data element_type="f16" shape="1, 32, 1, 1" offset="169132" size="64" />
			<output>
				<port id="0" precision="FP16">
					<dim>1</dim>
					<dim>32</dim>
					<dim>1</dim>
					<dim>1</dim>
				</port>
			</output>
		</layer>
		<layer id="233" name="__module.model.2.cv3.0.m.0.cv1.conv/aten::_convolution/Reshape" type="Convert" version="opset1">
			<data destination_type="f32" />
			<rt_info>
				<attribute name="decompression" version="0" />
			</rt_info>
			<input>
				<port id="0" precision="FP16">
					<dim>1</dim>
					<dim>32</dim>
					<dim>1</dim>
					<dim>1</dim>
				</port>
			</input>
			<output>
				<port id="1" precision="FP32">
					<dim>1</dim>
					<dim>32</dim>
					<dim>1</dim>
					<dim>1</dim>
				</port>
			</output>
		</layer>
		<layer id="234" name="__module.model.2.cv3.0.m.0.cv1.conv/aten::_convolution/Add" type="Add" version="opset1">
			<data auto_broadcast="numpy" />
			<input>
				<port id="0" precision="FP32">
					<dim>1</dim>
					<dim>32</dim>
					<dim>160</dim>
					<dim>160</dim>
				</port>
				<port id="1" precision="FP32">
					<dim>1</dim>
					<dim>32</dim>
					<dim>1</dim>
					<dim>1</dim>
				</port>
			</input>
			<output>
				<port id="2" precision="FP32" names="231_1">
					<dim>1</dim>
					<dim>32</dim>
					<dim>160</dim>
					<dim>160</dim>
				</port>
			</output>
		</layer>
		<layer id="235" name="__module.model.21.cv3.0.m.0.cv1.act/aten::silu_/Swish_1" type="Swish" version="opset4">
			<input>
				<port id="0" precision="FP32">
					<dim>1</dim>
					<dim>32</dim>
					<dim>160</dim>
					<dim>160</dim>
				</port>
			</input>
			<output>
				<port id="1" precision="FP32" names="231,input.39">
					<dim>1</dim>
					<dim>32</dim>
					<dim>160</dim>
					<dim>160</dim>
				</port>
			</output>
		</layer>
		<layer id="236" name="__module.model.21.cv3.0.m.0.cv1.act/aten::silu_/Swish_1/fq_output_0/input_low_compressed" type="Const" version="opset1">
			<data element_type="f16" shape="" offset="169196" size="2" />
			<output>
				<port id="0" precision="FP16" />
			</output>
		</layer>
		<layer id="237" name="__module.model.21.cv3.0.m.0.cv1.act/aten::silu_/Swish_1/fq_output_0/input_low" type="Convert" version="opset1">
			<data destination_type="f32" />
			<rt_info>
				<attribute name="decompression" version="0" />
			</rt_info>
			<input>
				<port id="0" precision="FP16" />
			</input>
			<output>
				<port id="1" precision="FP32" />
			</output>
		</layer>
		<layer id="238" name="__module.model.21.cv3.0.m.0.cv1.act/aten::silu_/Swish_1/fq_output_0/input_high_compressed" type="Const" version="opset1">
			<data element_type="f16" shape="" offset="169198" size="2" />
			<output>
				<port id="0" precision="FP16" />
			</output>
		</layer>
		<layer id="239" name="__module.model.21.cv3.0.m.0.cv1.act/aten::silu_/Swish_1/fq_output_0/input_high" type="Convert" version="opset1">
			<data destination_type="f32" />
			<rt_info>
				<attribute name="decompression" version="0" />
			</rt_info>
			<input>
				<port id="0" precision="FP16" />
			</input>
			<output>
				<port id="1" precision="FP32" />
			</output>
		</layer>
		<layer id="240" name="__module.model.21.cv3.0.m.0.cv1.act/aten::silu_/Swish_1/fq_output_0/output_low_compressed" type="Const" version="opset1">
			<data element_type="f16" shape="" offset="169196" size="2" />
			<output>
				<port id="0" precision="FP16" />
			</output>
		</layer>
		<layer id="241" name="__module.model.21.cv3.0.m.0.cv1.act/aten::silu_/Swish_1/fq_output_0/output_low" type="Convert" version="opset1">
			<data destination_type="f32" />
			<rt_info>
				<attribute name="decompression" version="0" />
			</rt_info>
			<input>
				<port id="0" precision="FP16" />
			</input>
			<output>
				<port id="1" precision="FP32" />
			</output>
		</layer>
		<layer id="242" name="__module.model.21.cv3.0.m.0.cv1.act/aten::silu_/Swish_1/fq_output_0/output_high_compressed" type="Const" version="opset1">
			<data element_type="f16" shape="" offset="169198" size="2" />
			<output>
				<port id="0" precision="FP16" />
			</output>
		</layer>
		<layer id="243" name="__module.model.21.cv3.0.m.0.cv1.act/aten::silu_/Swish_1/fq_output_0/output_high" type="Convert" version="opset1">
			<data destination_type="f32" />
			<rt_info>
				<attribute name="decompression" version="0" />
			</rt_info>
			<input>
				<port id="0" precision="FP16" />
			</input>
			<output>
				<port id="1" precision="FP32" />
			</output>
		</layer>
		<layer id="244" name="__module.model.21.cv3.0.m.0.cv1.act/aten::silu_/Swish_1/fq_output_0" type="FakeQuantize" version="opset1">
			<data levels="256" auto_broadcast="numpy" />
			<input>
				<port id="0" precision="FP32">
					<dim>1</dim>
					<dim>32</dim>
					<dim>160</dim>
					<dim>160</dim>
				</port>
				<port id="1" precision="FP32" />
				<port id="2" precision="FP32" />
				<port id="3" precision="FP32" />
				<port id="4" precision="FP32" />
			</input>
			<output>
				<port id="5" precision="FP32">
					<dim>1</dim>
					<dim>32</dim>
					<dim>160</dim>
					<dim>160</dim>
				</port>
			</output>
		</layer>
		<layer id="245" name="Constant_933762" type="Const" version="opset1">
			<data element_type="i8" shape="32, 32, 3, 3" offset="169200" size="9216" />
			<output>
				<port id="0" precision="I8">
					<dim>32</dim>
					<dim>32</dim>
					<dim>3</dim>
					<dim>3</dim>
				</port>
			</output>
		</layer>
		<layer id="246" name="Convert_933763" type="Convert" version="opset1">
			<data destination_type="f32" />
			<input>
				<port id="0" precision="I8">
					<dim>32</dim>
					<dim>32</dim>
					<dim>3</dim>
					<dim>3</dim>
				</port>
			</input>
			<output>
				<port id="1" precision="FP32">
					<dim>32</dim>
					<dim>32</dim>
					<dim>3</dim>
					<dim>3</dim>
				</port>
			</output>
		</layer>
		<layer id="247" name="Constant_933764_compressed" type="Const" version="opset1">
			<data element_type="f16" shape="32, 1, 1, 1" offset="178416" size="64" />
			<output>
				<port id="0" precision="FP16">
					<dim>32</dim>
					<dim>1</dim>
					<dim>1</dim>
					<dim>1</dim>
				</port>
			</output>
		</layer>
		<layer id="248" name="Constant_933764" type="Convert" version="opset1">
			<data destination_type="f32" />
			<rt_info>
				<attribute name="decompression" version="0" />
			</rt_info>
			<input>
				<port id="0" precision="FP16">
					<dim>32</dim>
					<dim>1</dim>
					<dim>1</dim>
					<dim>1</dim>
				</port>
			</input>
			<output>
				<port id="1" precision="FP32">
					<dim>32</dim>
					<dim>1</dim>
					<dim>1</dim>
					<dim>1</dim>
				</port>
			</output>
		</layer>
		<layer id="249" name="__module.model.2.cv3.0.m.0.cv2.conv/aten::_convolution/Convolution/fq_weights_1" type="Multiply" version="opset1">
			<data auto_broadcast="numpy" />
			<input>
				<port id="0" precision="FP32">
					<dim>32</dim>
					<dim>32</dim>
					<dim>3</dim>
					<dim>3</dim>
				</port>
				<port id="1" precision="FP32">
					<dim>32</dim>
					<dim>1</dim>
					<dim>1</dim>
					<dim>1</dim>
				</port>
			</input>
			<output>
				<port id="2" precision="FP32">
					<dim>32</dim>
					<dim>32</dim>
					<dim>3</dim>
					<dim>3</dim>
				</port>
			</output>
		</layer>
		<layer id="250" name="__module.model.2.cv3.0.m.0.cv2.conv/aten::_convolution/Convolution" type="Convolution" version="opset1">
			<data strides="1, 1" dilations="1, 1" pads_begin="1, 1" pads_end="1, 1" auto_pad="explicit" />
			<input>
				<port id="0" precision="FP32">
					<dim>1</dim>
					<dim>32</dim>
					<dim>160</dim>
					<dim>160</dim>
				</port>
				<port id="1" precision="FP32">
					<dim>32</dim>
					<dim>32</dim>
					<dim>3</dim>
					<dim>3</dim>
				</port>
			</input>
			<output>
				<port id="2" precision="FP32">
					<dim>1</dim>
					<dim>32</dim>
					<dim>160</dim>
					<dim>160</dim>
				</port>
			</output>
		</layer>
		<layer id="251" name="__module.model.2.cv3.0.m.0.cv2.conv/aten::_convolution/Reshape_compressed" type="Const" version="opset1">
			<data element_type="f16" shape="1, 32, 1, 1" offset="178480" size="64" />
			<output>
				<port id="0" precision="FP16">
					<dim>1</dim>
					<dim>32</dim>
					<dim>1</dim>
					<dim>1</dim>
				</port>
			</output>
		</layer>
		<layer id="252" name="__module.model.2.cv3.0.m.0.cv2.conv/aten::_convolution/Reshape" type="Convert" version="opset1">
			<data destination_type="f32" />
			<rt_info>
				<attribute name="decompression" version="0" />
			</rt_info>
			<input>
				<port id="0" precision="FP16">
					<dim>1</dim>
					<dim>32</dim>
					<dim>1</dim>
					<dim>1</dim>
				</port>
			</input>
			<output>
				<port id="1" precision="FP32">
					<dim>1</dim>
					<dim>32</dim>
					<dim>1</dim>
					<dim>1</dim>
				</port>
			</output>
		</layer>
		<layer id="253" name="__module.model.2.cv3.0.m.0.cv2.conv/aten::_convolution/Add" type="Add" version="opset1">
			<data auto_broadcast="numpy" />
			<input>
				<port id="0" precision="FP32">
					<dim>1</dim>
					<dim>32</dim>
					<dim>160</dim>
					<dim>160</dim>
				</port>
				<port id="1" precision="FP32">
					<dim>1</dim>
					<dim>32</dim>
					<dim>1</dim>
					<dim>1</dim>
				</port>
			</input>
			<output>
				<port id="2" precision="FP32" names="240_1">
					<dim>1</dim>
					<dim>32</dim>
					<dim>160</dim>
					<dim>160</dim>
				</port>
			</output>
		</layer>
		<layer id="254" name="__module.model.22.cv3.2.1.act/aten::silu_/Swish_9" type="Swish" version="opset4">
			<input>
				<port id="0" precision="FP32">
					<dim>1</dim>
					<dim>32</dim>
					<dim>160</dim>
					<dim>160</dim>
				</port>
			</input>
			<output>
				<port id="1" precision="FP32" names="240,input.43">
					<dim>1</dim>
					<dim>32</dim>
					<dim>160</dim>
					<dim>160</dim>
				</port>
			</output>
		</layer>
		<layer id="255" name="__module.model.22.cv3.2.1.act/aten::silu_/Swish_9/fq_output_0/input_low_compressed" type="Const" version="opset1">
			<data element_type="f16" shape="" offset="178544" size="2" />
			<output>
				<port id="0" precision="FP16" />
			</output>
		</layer>
		<layer id="256" name="__module.model.22.cv3.2.1.act/aten::silu_/Swish_9/fq_output_0/input_low" type="Convert" version="opset1">
			<data destination_type="f32" />
			<rt_info>
				<attribute name="decompression" version="0" />
			</rt_info>
			<input>
				<port id="0" precision="FP16" />
			</input>
			<output>
				<port id="1" precision="FP32" />
			</output>
		</layer>
		<layer id="257" name="__module.model.22.cv3.2.1.act/aten::silu_/Swish_9/fq_output_0/input_high_compressed" type="Const" version="opset1">
			<data element_type="f16" shape="" offset="178546" size="2" />
			<output>
				<port id="0" precision="FP16" />
			</output>
		</layer>
		<layer id="258" name="__module.model.22.cv3.2.1.act/aten::silu_/Swish_9/fq_output_0/input_high" type="Convert" version="opset1">
			<data destination_type="f32" />
			<rt_info>
				<attribute name="decompression" version="0" />
			</rt_info>
			<input>
				<port id="0" precision="FP16" />
			</input>
			<output>
				<port id="1" precision="FP32" />
			</output>
		</layer>
		<layer id="259" name="__module.model.22.cv3.2.1.act/aten::silu_/Swish_9/fq_output_0/output_low_compressed" type="Const" version="opset1">
			<data element_type="f16" shape="" offset="178544" size="2" />
			<output>
				<port id="0" precision="FP16" />
			</output>
		</layer>
		<layer id="260" name="__module.model.22.cv3.2.1.act/aten::silu_/Swish_9/fq_output_0/output_low" type="Convert" version="opset1">
			<data destination_type="f32" />
			<rt_info>
				<attribute name="decompression" version="0" />
			</rt_info>
			<input>
				<port id="0" precision="FP16" />
			</input>
			<output>
				<port id="1" precision="FP32" />
			</output>
		</layer>
		<layer id="261" name="__module.model.22.cv3.2.1.act/aten::silu_/Swish_9/fq_output_0/output_high_compressed" type="Const" version="opset1">
			<data element_type="f16" shape="" offset="178546" size="2" />
			<output>
				<port id="0" precision="FP16" />
			</output>
		</layer>
		<layer id="262" name="__module.model.22.cv3.2.1.act/aten::silu_/Swish_9/fq_output_0/output_high" type="Convert" version="opset1">
			<data destination_type="f32" />
			<rt_info>
				<attribute name="decompression" version="0" />
			</rt_info>
			<input>
				<port id="0" precision="FP16" />
			</input>
			<output>
				<port id="1" precision="FP32" />
			</output>
		</layer>
		<layer id="263" name="__module.model.22.cv3.2.1.act/aten::silu_/Swish_9/fq_output_0" type="FakeQuantize" version="opset1">
			<data levels="256" auto_broadcast="numpy" />
			<input>
				<port id="0" precision="FP32">
					<dim>1</dim>
					<dim>32</dim>
					<dim>160</dim>
					<dim>160</dim>
				</port>
				<port id="1" precision="FP32" />
				<port id="2" precision="FP32" />
				<port id="3" precision="FP32" />
				<port id="4" precision="FP32" />
			</input>
			<output>
				<port id="5" precision="FP32">
					<dim>1</dim>
					<dim>32</dim>
					<dim>160</dim>
					<dim>160</dim>
				</port>
			</output>
		</layer>
		<layer id="264" name="__module.model.2.cv3.0.m.0/aten::add/Add" type="Add" version="opset1">
			<data auto_broadcast="numpy" />
			<input>
				<port id="0" precision="FP32">
					<dim>1</dim>
					<dim>32</dim>
					<dim>160</dim>
					<dim>160</dim>
				</port>
				<port id="1" precision="FP32">
					<dim>1</dim>
					<dim>32</dim>
					<dim>160</dim>
					<dim>160</dim>
				</port>
			</input>
			<output>
				<port id="2" precision="FP32" names="242">
					<dim>1</dim>
					<dim>32</dim>
					<dim>160</dim>
					<dim>160</dim>
				</port>
			</output>
		</layer>
		<layer id="265" name="__module.model.2.cv3.0.m.0/aten::add/Add/fq_output_0/input_low_compressed" type="Const" version="opset1">
			<data element_type="f16" shape="" offset="178548" size="2" />
			<output>
				<port id="0" precision="FP16" />
			</output>
		</layer>
		<layer id="266" name="__module.model.2.cv3.0.m.0/aten::add/Add/fq_output_0/input_low" type="Convert" version="opset1">
			<data destination_type="f32" />
			<rt_info>
				<attribute name="decompression" version="0" />
			</rt_info>
			<input>
				<port id="0" precision="FP16" />
			</input>
			<output>
				<port id="1" precision="FP32" />
			</output>
		</layer>
		<layer id="267" name="__module.model.2.cv3.0.m.0/aten::add/Add/fq_output_0/input_high_compressed" type="Const" version="opset1">
			<data element_type="f16" shape="" offset="178550" size="2" />
			<output>
				<port id="0" precision="FP16" />
			</output>
		</layer>
		<layer id="268" name="__module.model.2.cv3.0.m.0/aten::add/Add/fq_output_0/input_high" type="Convert" version="opset1">
			<data destination_type="f32" />
			<rt_info>
				<attribute name="decompression" version="0" />
			</rt_info>
			<input>
				<port id="0" precision="FP16" />
			</input>
			<output>
				<port id="1" precision="FP32" />
			</output>
		</layer>
		<layer id="269" name="__module.model.2.cv3.0.m.0/aten::add/Add/fq_output_0/output_low_compressed" type="Const" version="opset1">
			<data element_type="f16" shape="" offset="178548" size="2" />
			<output>
				<port id="0" precision="FP16" />
			</output>
		</layer>
		<layer id="270" name="__module.model.2.cv3.0.m.0/aten::add/Add/fq_output_0/output_low" type="Convert" version="opset1">
			<data destination_type="f32" />
			<rt_info>
				<attribute name="decompression" version="0" />
			</rt_info>
			<input>
				<port id="0" precision="FP16" />
			</input>
			<output>
				<port id="1" precision="FP32" />
			</output>
		</layer>
		<layer id="271" name="__module.model.2.cv3.0.m.0/aten::add/Add/fq_output_0/output_high_compressed" type="Const" version="opset1">
			<data element_type="f16" shape="" offset="178550" size="2" />
			<output>
				<port id="0" precision="FP16" />
			</output>
		</layer>
		<layer id="272" name="__module.model.2.cv3.0.m.0/aten::add/Add/fq_output_0/output_high" type="Convert" version="opset1">
			<data destination_type="f32" />
			<rt_info>
				<attribute name="decompression" version="0" />
			</rt_info>
			<input>
				<port id="0" precision="FP16" />
			</input>
			<output>
				<port id="1" precision="FP32" />
			</output>
		</layer>
		<layer id="273" name="__module.model.2.cv3.0.m.0/aten::add/Add/fq_output_0" type="FakeQuantize" version="opset1">
			<data levels="256" auto_broadcast="numpy" />
			<input>
				<port id="0" precision="FP32">
					<dim>1</dim>
					<dim>32</dim>
					<dim>160</dim>
					<dim>160</dim>
				</port>
				<port id="1" precision="FP32" />
				<port id="2" precision="FP32" />
				<port id="3" precision="FP32" />
				<port id="4" precision="FP32" />
			</input>
			<output>
				<port id="5" precision="FP32">
					<dim>1</dim>
					<dim>32</dim>
					<dim>160</dim>
					<dim>160</dim>
				</port>
			</output>
		</layer>
		<layer id="274" name="Constant_933767" type="Const" version="opset1">
			<data element_type="i8" shape="32, 64, 1, 1" offset="178552" size="2048" />
			<output>
				<port id="0" precision="I8">
					<dim>32</dim>
					<dim>64</dim>
					<dim>1</dim>
					<dim>1</dim>
				</port>
			</output>
		</layer>
		<layer id="275" name="Convert_933768" type="Convert" version="opset1">
			<data destination_type="f32" />
			<input>
				<port id="0" precision="I8">
					<dim>32</dim>
					<dim>64</dim>
					<dim>1</dim>
					<dim>1</dim>
				</port>
			</input>
			<output>
				<port id="1" precision="FP32">
					<dim>32</dim>
					<dim>64</dim>
					<dim>1</dim>
					<dim>1</dim>
				</port>
			</output>
		</layer>
		<layer id="276" name="Constant_933769_compressed" type="Const" version="opset1">
			<data element_type="f16" shape="32, 1, 1, 1" offset="180600" size="64" />
			<output>
				<port id="0" precision="FP16">
					<dim>32</dim>
					<dim>1</dim>
					<dim>1</dim>
					<dim>1</dim>
				</port>
			</output>
		</layer>
		<layer id="277" name="Constant_933769" type="Convert" version="opset1">
			<data destination_type="f32" />
			<rt_info>
				<attribute name="decompression" version="0" />
			</rt_info>
			<input>
				<port id="0" precision="FP16">
					<dim>32</dim>
					<dim>1</dim>
					<dim>1</dim>
					<dim>1</dim>
				</port>
			</input>
			<output>
				<port id="1" precision="FP32">
					<dim>32</dim>
					<dim>1</dim>
					<dim>1</dim>
					<dim>1</dim>
				</port>
			</output>
		</layer>
		<layer id="278" name="__module.model.2.cv3.0.cv2.conv/aten::_convolution/Convolution/fq_weights_1" type="Multiply" version="opset1">
			<data auto_broadcast="numpy" />
			<input>
				<port id="0" precision="FP32">
					<dim>32</dim>
					<dim>64</dim>
					<dim>1</dim>
					<dim>1</dim>
				</port>
				<port id="1" precision="FP32">
					<dim>32</dim>
					<dim>1</dim>
					<dim>1</dim>
					<dim>1</dim>
				</port>
			</input>
			<output>
				<port id="2" precision="FP32">
					<dim>32</dim>
					<dim>64</dim>
					<dim>1</dim>
					<dim>1</dim>
				</port>
			</output>
		</layer>
		<layer id="279" name="__module.model.2.cv3.0.cv2.conv/aten::_convolution/Convolution" type="Convolution" version="opset1">
			<data strides="1, 1" dilations="1, 1" pads_begin="0, 0" pads_end="0, 0" auto_pad="explicit" />
			<input>
				<port id="0" precision="FP32">
					<dim>1</dim>
					<dim>64</dim>
					<dim>160</dim>
					<dim>160</dim>
				</port>
				<port id="1" precision="FP32">
					<dim>32</dim>
					<dim>64</dim>
					<dim>1</dim>
					<dim>1</dim>
				</port>
			</input>
			<output>
				<port id="2" precision="FP32">
					<dim>1</dim>
					<dim>32</dim>
					<dim>160</dim>
					<dim>160</dim>
				</port>
			</output>
		</layer>
		<layer id="280" name="__module.model.2.cv3.0.cv2.conv/aten::_convolution/Reshape_compressed" type="Const" version="opset1">
			<data element_type="f16" shape="1, 32, 1, 1" offset="180664" size="64" />
			<output>
				<port id="0" precision="FP16">
					<dim>1</dim>
					<dim>32</dim>
					<dim>1</dim>
					<dim>1</dim>
				</port>
			</output>
		</layer>
		<layer id="281" name="__module.model.2.cv3.0.cv2.conv/aten::_convolution/Reshape" type="Convert" version="opset1">
			<data destination_type="f32" />
			<rt_info>
				<attribute name="decompression" version="0" />
			</rt_info>
			<input>
				<port id="0" precision="FP16">
					<dim>1</dim>
					<dim>32</dim>
					<dim>1</dim>
					<dim>1</dim>
				</port>
			</input>
			<output>
				<port id="1" precision="FP32">
					<dim>1</dim>
					<dim>32</dim>
					<dim>1</dim>
					<dim>1</dim>
				</port>
			</output>
		</layer>
		<layer id="282" name="__module.model.2.cv3.0.cv2.conv/aten::_convolution/Add" type="Add" version="opset1">
			<data auto_broadcast="numpy" />
			<input>
				<port id="0" precision="FP32">
					<dim>1</dim>
					<dim>32</dim>
					<dim>160</dim>
					<dim>160</dim>
				</port>
				<port id="1" precision="FP32">
					<dim>1</dim>
					<dim>32</dim>
					<dim>1</dim>
					<dim>1</dim>
				</port>
			</input>
			<output>
				<port id="2" precision="FP32" names="250_1">
					<dim>1</dim>
					<dim>32</dim>
					<dim>160</dim>
					<dim>160</dim>
				</port>
			</output>
		</layer>
		<layer id="283" name="__module.model.22.cv3.2.1.act/aten::silu_/Swish_10" type="Swish" version="opset4">
			<input>
				<port id="0" precision="FP32">
					<dim>1</dim>
					<dim>32</dim>
					<dim>160</dim>
					<dim>160</dim>
				</port>
			</input>
			<output>
				<port id="1" precision="FP32" names="250,input.45">
					<dim>1</dim>
					<dim>32</dim>
					<dim>160</dim>
					<dim>160</dim>
				</port>
			</output>
		</layer>
		<layer id="284" name="__module.model.22.cv3.2.1.act/aten::silu_/Swish_10/fq_output_0/input_low_compressed" type="Const" version="opset1">
			<data element_type="f16" shape="" offset="178548" size="2" />
			<output>
				<port id="0" precision="FP16" />
			</output>
		</layer>
		<layer id="285" name="__module.model.22.cv3.2.1.act/aten::silu_/Swish_10/fq_output_0/input_low" type="Convert" version="opset1">
			<data destination_type="f32" />
			<rt_info>
				<attribute name="decompression" version="0" />
			</rt_info>
			<input>
				<port id="0" precision="FP16" />
			</input>
			<output>
				<port id="1" precision="FP32" />
			</output>
		</layer>
		<layer id="286" name="__module.model.22.cv3.2.1.act/aten::silu_/Swish_10/fq_output_0/input_high_compressed" type="Const" version="opset1">
			<data element_type="f16" shape="" offset="178550" size="2" />
			<output>
				<port id="0" precision="FP16" />
			</output>
		</layer>
		<layer id="287" name="__module.model.22.cv3.2.1.act/aten::silu_/Swish_10/fq_output_0/input_high" type="Convert" version="opset1">
			<data destination_type="f32" />
			<rt_info>
				<attribute name="decompression" version="0" />
			</rt_info>
			<input>
				<port id="0" precision="FP16" />
			</input>
			<output>
				<port id="1" precision="FP32" />
			</output>
		</layer>
		<layer id="288" name="__module.model.22.cv3.2.1.act/aten::silu_/Swish_10/fq_output_0/output_low_compressed" type="Const" version="opset1">
			<data element_type="f16" shape="" offset="178548" size="2" />
			<output>
				<port id="0" precision="FP16" />
			</output>
		</layer>
		<layer id="289" name="__module.model.22.cv3.2.1.act/aten::silu_/Swish_10/fq_output_0/output_low" type="Convert" version="opset1">
			<data destination_type="f32" />
			<rt_info>
				<attribute name="decompression" version="0" />
			</rt_info>
			<input>
				<port id="0" precision="FP16" />
			</input>
			<output>
				<port id="1" precision="FP32" />
			</output>
		</layer>
		<layer id="290" name="__module.model.22.cv3.2.1.act/aten::silu_/Swish_10/fq_output_0/output_high_compressed" type="Const" version="opset1">
			<data element_type="f16" shape="" offset="178550" size="2" />
			<output>
				<port id="0" precision="FP16" />
			</output>
		</layer>
		<layer id="291" name="__module.model.22.cv3.2.1.act/aten::silu_/Swish_10/fq_output_0/output_high" type="Convert" version="opset1">
			<data destination_type="f32" />
			<rt_info>
				<attribute name="decompression" version="0" />
			</rt_info>
			<input>
				<port id="0" precision="FP16" />
			</input>
			<output>
				<port id="1" precision="FP32" />
			</output>
		</layer>
		<layer id="292" name="__module.model.22.cv3.2.1.act/aten::silu_/Swish_10/fq_output_0" type="FakeQuantize" version="opset1">
			<data levels="256" auto_broadcast="numpy" />
			<input>
				<port id="0" precision="FP32">
					<dim>1</dim>
					<dim>32</dim>
					<dim>160</dim>
					<dim>160</dim>
				</port>
				<port id="1" precision="FP32" />
				<port id="2" precision="FP32" />
				<port id="3" precision="FP32" />
				<port id="4" precision="FP32" />
			</input>
			<output>
				<port id="5" precision="FP32">
					<dim>1</dim>
					<dim>32</dim>
					<dim>160</dim>
					<dim>160</dim>
				</port>
			</output>
		</layer>
		<layer id="293" name="__module.model.2.cv3.0/aten::cat/Concat" type="Concat" version="opset1">
			<data axis="1" />
			<input>
				<port id="0" precision="FP32">
					<dim>1</dim>
					<dim>32</dim>
					<dim>160</dim>
					<dim>160</dim>
				</port>
				<port id="1" precision="FP32">
					<dim>1</dim>
					<dim>32</dim>
					<dim>160</dim>
					<dim>160</dim>
				</port>
			</input>
			<output>
				<port id="2" precision="FP32" names="253,input.47">
					<dim>1</dim>
					<dim>64</dim>
					<dim>160</dim>
					<dim>160</dim>
				</port>
			</output>
		</layer>
		<layer id="294" name="Constant_933772" type="Const" version="opset1">
			<data element_type="i8" shape="64, 64, 1, 1" offset="180728" size="4096" />
			<output>
				<port id="0" precision="I8">
					<dim>64</dim>
					<dim>64</dim>
					<dim>1</dim>
					<dim>1</dim>
				</port>
			</output>
		</layer>
		<layer id="295" name="Convert_933773" type="Convert" version="opset1">
			<data destination_type="f32" />
			<input>
				<port id="0" precision="I8">
					<dim>64</dim>
					<dim>64</dim>
					<dim>1</dim>
					<dim>1</dim>
				</port>
			</input>
			<output>
				<port id="1" precision="FP32">
					<dim>64</dim>
					<dim>64</dim>
					<dim>1</dim>
					<dim>1</dim>
				</port>
			</output>
		</layer>
		<layer id="296" name="Constant_933774_compressed" type="Const" version="opset1">
			<data element_type="f16" shape="64, 1, 1, 1" offset="184824" size="128" />
			<output>
				<port id="0" precision="FP16">
					<dim>64</dim>
					<dim>1</dim>
					<dim>1</dim>
					<dim>1</dim>
				</port>
			</output>
		</layer>
		<layer id="297" name="Constant_933774" type="Convert" version="opset1">
			<data destination_type="f32" />
			<rt_info>
				<attribute name="decompression" version="0" />
			</rt_info>
			<input>
				<port id="0" precision="FP16">
					<dim>64</dim>
					<dim>1</dim>
					<dim>1</dim>
					<dim>1</dim>
				</port>
			</input>
			<output>
				<port id="1" precision="FP32">
					<dim>64</dim>
					<dim>1</dim>
					<dim>1</dim>
					<dim>1</dim>
				</port>
			</output>
		</layer>
		<layer id="298" name="__module.model.2.cv3.0.cv3.conv/aten::_convolution/Convolution/fq_weights_1" type="Multiply" version="opset1">
			<data auto_broadcast="numpy" />
			<input>
				<port id="0" precision="FP32">
					<dim>64</dim>
					<dim>64</dim>
					<dim>1</dim>
					<dim>1</dim>
				</port>
				<port id="1" precision="FP32">
					<dim>64</dim>
					<dim>1</dim>
					<dim>1</dim>
					<dim>1</dim>
				</port>
			</input>
			<output>
				<port id="2" precision="FP32">
					<dim>64</dim>
					<dim>64</dim>
					<dim>1</dim>
					<dim>1</dim>
				</port>
			</output>
		</layer>
		<layer id="299" name="__module.model.2.cv3.0.cv3.conv/aten::_convolution/Convolution" type="Convolution" version="opset1">
			<data strides="1, 1" dilations="1, 1" pads_begin="0, 0" pads_end="0, 0" auto_pad="explicit" />
			<input>
				<port id="0" precision="FP32">
					<dim>1</dim>
					<dim>64</dim>
					<dim>160</dim>
					<dim>160</dim>
				</port>
				<port id="1" precision="FP32">
					<dim>64</dim>
					<dim>64</dim>
					<dim>1</dim>
					<dim>1</dim>
				</port>
			</input>
			<output>
				<port id="2" precision="FP32">
					<dim>1</dim>
					<dim>64</dim>
					<dim>160</dim>
					<dim>160</dim>
				</port>
			</output>
		</layer>
		<layer id="300" name="__module.model.2.cv3.0.cv3.conv/aten::_convolution/Reshape_compressed" type="Const" version="opset1">
			<data element_type="f16" shape="1, 64, 1, 1" offset="184952" size="128" />
			<output>
				<port id="0" precision="FP16">
					<dim>1</dim>
					<dim>64</dim>
					<dim>1</dim>
					<dim>1</dim>
				</port>
			</output>
		</layer>
		<layer id="301" name="__module.model.2.cv3.0.cv3.conv/aten::_convolution/Reshape" type="Convert" version="opset1">
			<data destination_type="f32" />
			<rt_info>
				<attribute name="decompression" version="0" />
			</rt_info>
			<input>
				<port id="0" precision="FP16">
					<dim>1</dim>
					<dim>64</dim>
					<dim>1</dim>
					<dim>1</dim>
				</port>
			</input>
			<output>
				<port id="1" precision="FP32">
					<dim>1</dim>
					<dim>64</dim>
					<dim>1</dim>
					<dim>1</dim>
				</port>
			</output>
		</layer>
		<layer id="302" name="__module.model.2.cv3.0.cv3.conv/aten::_convolution/Add" type="Add" version="opset1">
			<data auto_broadcast="numpy" />
			<input>
				<port id="0" precision="FP32">
					<dim>1</dim>
					<dim>64</dim>
					<dim>160</dim>
					<dim>160</dim>
				</port>
				<port id="1" precision="FP32">
					<dim>1</dim>
					<dim>64</dim>
					<dim>1</dim>
					<dim>1</dim>
				</port>
			</input>
			<output>
				<port id="2" precision="FP32" names="261_1">
					<dim>1</dim>
					<dim>64</dim>
					<dim>160</dim>
					<dim>160</dim>
				</port>
			</output>
		</layer>
		<layer id="303" name="__module.model.22.cv3.2.1.act/aten::silu_/Swish_11" type="Swish" version="opset4">
			<input>
				<port id="0" precision="FP32">
					<dim>1</dim>
					<dim>64</dim>
					<dim>160</dim>
					<dim>160</dim>
				</port>
			</input>
			<output>
				<port id="1" precision="FP32" names="261,input.49">
					<dim>1</dim>
					<dim>64</dim>
					<dim>160</dim>
					<dim>160</dim>
				</port>
			</output>
		</layer>
		<layer id="304" name="__module.model.22.cv3.2.1.act/aten::silu_/Swish_11/fq_output_0/input_low_compressed" type="Const" version="opset1">
			<data element_type="f16" shape="" offset="185080" size="2" />
			<output>
				<port id="0" precision="FP16" />
			</output>
		</layer>
		<layer id="305" name="__module.model.22.cv3.2.1.act/aten::silu_/Swish_11/fq_output_0/input_low" type="Convert" version="opset1">
			<data destination_type="f32" />
			<rt_info>
				<attribute name="decompression" version="0" />
			</rt_info>
			<input>
				<port id="0" precision="FP16" />
			</input>
			<output>
				<port id="1" precision="FP32" />
			</output>
		</layer>
		<layer id="306" name="__module.model.22.cv3.2.1.act/aten::silu_/Swish_11/fq_output_0/input_high_compressed" type="Const" version="opset1">
			<data element_type="f16" shape="" offset="185082" size="2" />
			<output>
				<port id="0" precision="FP16" />
			</output>
		</layer>
		<layer id="307" name="__module.model.22.cv3.2.1.act/aten::silu_/Swish_11/fq_output_0/input_high" type="Convert" version="opset1">
			<data destination_type="f32" />
			<rt_info>
				<attribute name="decompression" version="0" />
			</rt_info>
			<input>
				<port id="0" precision="FP16" />
			</input>
			<output>
				<port id="1" precision="FP32" />
			</output>
		</layer>
		<layer id="308" name="__module.model.22.cv3.2.1.act/aten::silu_/Swish_11/fq_output_0/output_low_compressed" type="Const" version="opset1">
			<data element_type="f16" shape="" offset="185080" size="2" />
			<output>
				<port id="0" precision="FP16" />
			</output>
		</layer>
		<layer id="309" name="__module.model.22.cv3.2.1.act/aten::silu_/Swish_11/fq_output_0/output_low" type="Convert" version="opset1">
			<data destination_type="f32" />
			<rt_info>
				<attribute name="decompression" version="0" />
			</rt_info>
			<input>
				<port id="0" precision="FP16" />
			</input>
			<output>
				<port id="1" precision="FP32" />
			</output>
		</layer>
		<layer id="310" name="__module.model.22.cv3.2.1.act/aten::silu_/Swish_11/fq_output_0/output_high_compressed" type="Const" version="opset1">
			<data element_type="f16" shape="" offset="185082" size="2" />
			<output>
				<port id="0" precision="FP16" />
			</output>
		</layer>
		<layer id="311" name="__module.model.22.cv3.2.1.act/aten::silu_/Swish_11/fq_output_0/output_high" type="Convert" version="opset1">
			<data destination_type="f32" />
			<rt_info>
				<attribute name="decompression" version="0" />
			</rt_info>
			<input>
				<port id="0" precision="FP16" />
			</input>
			<output>
				<port id="1" precision="FP32" />
			</output>
		</layer>
		<layer id="312" name="__module.model.22.cv3.2.1.act/aten::silu_/Swish_11/fq_output_0" type="FakeQuantize" version="opset1">
			<data levels="256" auto_broadcast="numpy" />
			<input>
				<port id="0" precision="FP32">
					<dim>1</dim>
					<dim>64</dim>
					<dim>160</dim>
					<dim>160</dim>
				</port>
				<port id="1" precision="FP32" />
				<port id="2" precision="FP32" />
				<port id="3" precision="FP32" />
				<port id="4" precision="FP32" />
			</input>
			<output>
				<port id="5" precision="FP32">
					<dim>1</dim>
					<dim>64</dim>
					<dim>160</dim>
					<dim>160</dim>
				</port>
			</output>
		</layer>
		<layer id="313" name="Constant_933777" type="Const" version="opset1">
			<data element_type="i8" shape="64, 64, 3, 3" offset="185084" size="36864" />
			<output>
				<port id="0" precision="I8">
					<dim>64</dim>
					<dim>64</dim>
					<dim>3</dim>
					<dim>3</dim>
				</port>
			</output>
		</layer>
		<layer id="314" name="Convert_933778" type="Convert" version="opset1">
			<data destination_type="f32" />
			<input>
				<port id="0" precision="I8">
					<dim>64</dim>
					<dim>64</dim>
					<dim>3</dim>
					<dim>3</dim>
				</port>
			</input>
			<output>
				<port id="1" precision="FP32">
					<dim>64</dim>
					<dim>64</dim>
					<dim>3</dim>
					<dim>3</dim>
				</port>
			</output>
		</layer>
		<layer id="315" name="Constant_933779_compressed" type="Const" version="opset1">
			<data element_type="f16" shape="64, 1, 1, 1" offset="221948" size="128" />
			<output>
				<port id="0" precision="FP16">
					<dim>64</dim>
					<dim>1</dim>
					<dim>1</dim>
					<dim>1</dim>
				</port>
			</output>
		</layer>
		<layer id="316" name="Constant_933779" type="Convert" version="opset1">
			<data destination_type="f32" />
			<rt_info>
				<attribute name="decompression" version="0" />
			</rt_info>
			<input>
				<port id="0" precision="FP16">
					<dim>64</dim>
					<dim>1</dim>
					<dim>1</dim>
					<dim>1</dim>
				</port>
			</input>
			<output>
				<port id="1" precision="FP32">
					<dim>64</dim>
					<dim>1</dim>
					<dim>1</dim>
					<dim>1</dim>
				</port>
			</output>
		</layer>
		<layer id="317" name="__module.model.2.cv3.1.conv/aten::_convolution/Convolution/fq_weights_1" type="Multiply" version="opset1">
			<data auto_broadcast="numpy" />
			<input>
				<port id="0" precision="FP32">
					<dim>64</dim>
					<dim>64</dim>
					<dim>3</dim>
					<dim>3</dim>
				</port>
				<port id="1" precision="FP32">
					<dim>64</dim>
					<dim>1</dim>
					<dim>1</dim>
					<dim>1</dim>
				</port>
			</input>
			<output>
				<port id="2" precision="FP32">
					<dim>64</dim>
					<dim>64</dim>
					<dim>3</dim>
					<dim>3</dim>
				</port>
			</output>
		</layer>
		<layer id="318" name="__module.model.2.cv3.1.conv/aten::_convolution/Convolution" type="Convolution" version="opset1">
			<data strides="1, 1" dilations="1, 1" pads_begin="1, 1" pads_end="1, 1" auto_pad="explicit" />
			<input>
				<port id="0" precision="FP32">
					<dim>1</dim>
					<dim>64</dim>
					<dim>160</dim>
					<dim>160</dim>
				</port>
				<port id="1" precision="FP32">
					<dim>64</dim>
					<dim>64</dim>
					<dim>3</dim>
					<dim>3</dim>
				</port>
			</input>
			<output>
				<port id="2" precision="FP32">
					<dim>1</dim>
					<dim>64</dim>
					<dim>160</dim>
					<dim>160</dim>
				</port>
			</output>
		</layer>
		<layer id="319" name="__module.model.2.cv3.1.conv/aten::_convolution/Reshape_compressed" type="Const" version="opset1">
			<data element_type="f16" shape="1, 64, 1, 1" offset="222076" size="128" />
			<output>
				<port id="0" precision="FP16">
					<dim>1</dim>
					<dim>64</dim>
					<dim>1</dim>
					<dim>1</dim>
				</port>
			</output>
		</layer>
		<layer id="320" name="__module.model.2.cv3.1.conv/aten::_convolution/Reshape" type="Convert" version="opset1">
			<data destination_type="f32" />
			<rt_info>
				<attribute name="decompression" version="0" />
			</rt_info>
			<input>
				<port id="0" precision="FP16">
					<dim>1</dim>
					<dim>64</dim>
					<dim>1</dim>
					<dim>1</dim>
				</port>
			</input>
			<output>
				<port id="1" precision="FP32">
					<dim>1</dim>
					<dim>64</dim>
					<dim>1</dim>
					<dim>1</dim>
				</port>
			</output>
		</layer>
		<layer id="321" name="__module.model.2.cv3.1.conv/aten::_convolution/Add" type="Add" version="opset1">
			<data auto_broadcast="numpy" />
			<input>
				<port id="0" precision="FP32">
					<dim>1</dim>
					<dim>64</dim>
					<dim>160</dim>
					<dim>160</dim>
				</port>
				<port id="1" precision="FP32">
					<dim>1</dim>
					<dim>64</dim>
					<dim>1</dim>
					<dim>1</dim>
				</port>
			</input>
			<output>
				<port id="2" precision="FP32" names="270_1">
					<dim>1</dim>
					<dim>64</dim>
					<dim>160</dim>
					<dim>160</dim>
				</port>
			</output>
		</layer>
		<layer id="322" name="__module.model.22.cv3.2.1.act/aten::silu_/Swish_12" type="Swish" version="opset4">
			<input>
				<port id="0" precision="FP32">
					<dim>1</dim>
					<dim>64</dim>
					<dim>160</dim>
					<dim>160</dim>
				</port>
			</input>
			<output>
				<port id="1" precision="FP32" names="270,input.53">
					<dim>1</dim>
					<dim>64</dim>
					<dim>160</dim>
					<dim>160</dim>
				</port>
			</output>
		</layer>
		<layer id="323" name="__module.model.22.cv3.2.1.act/aten::silu_/Swish_12/fq_output_0/input_low_compressed" type="Const" version="opset1">
			<data element_type="f16" shape="" offset="93128" size="2" />
			<output>
				<port id="0" precision="FP16" />
			</output>
		</layer>
		<layer id="324" name="__module.model.22.cv3.2.1.act/aten::silu_/Swish_12/fq_output_0/input_low" type="Convert" version="opset1">
			<data destination_type="f32" />
			<rt_info>
				<attribute name="decompression" version="0" />
			</rt_info>
			<input>
				<port id="0" precision="FP16" />
			</input>
			<output>
				<port id="1" precision="FP32" />
			</output>
		</layer>
		<layer id="325" name="__module.model.22.cv3.2.1.act/aten::silu_/Swish_12/fq_output_0/input_high_compressed" type="Const" version="opset1">
			<data element_type="f16" shape="" offset="93130" size="2" />
			<output>
				<port id="0" precision="FP16" />
			</output>
		</layer>
		<layer id="326" name="__module.model.22.cv3.2.1.act/aten::silu_/Swish_12/fq_output_0/input_high" type="Convert" version="opset1">
			<data destination_type="f32" />
			<rt_info>
				<attribute name="decompression" version="0" />
			</rt_info>
			<input>
				<port id="0" precision="FP16" />
			</input>
			<output>
				<port id="1" precision="FP32" />
			</output>
		</layer>
		<layer id="327" name="__module.model.22.cv3.2.1.act/aten::silu_/Swish_12/fq_output_0/output_low_compressed" type="Const" version="opset1">
			<data element_type="f16" shape="" offset="93128" size="2" />
			<output>
				<port id="0" precision="FP16" />
			</output>
		</layer>
		<layer id="328" name="__module.model.22.cv3.2.1.act/aten::silu_/Swish_12/fq_output_0/output_low" type="Convert" version="opset1">
			<data destination_type="f32" />
			<rt_info>
				<attribute name="decompression" version="0" />
			</rt_info>
			<input>
				<port id="0" precision="FP16" />
			</input>
			<output>
				<port id="1" precision="FP32" />
			</output>
		</layer>
		<layer id="329" name="__module.model.22.cv3.2.1.act/aten::silu_/Swish_12/fq_output_0/output_high_compressed" type="Const" version="opset1">
			<data element_type="f16" shape="" offset="93130" size="2" />
			<output>
				<port id="0" precision="FP16" />
			</output>
		</layer>
		<layer id="330" name="__module.model.22.cv3.2.1.act/aten::silu_/Swish_12/fq_output_0/output_high" type="Convert" version="opset1">
			<data destination_type="f32" />
			<rt_info>
				<attribute name="decompression" version="0" />
			</rt_info>
			<input>
				<port id="0" precision="FP16" />
			</input>
			<output>
				<port id="1" precision="FP32" />
			</output>
		</layer>
		<layer id="331" name="__module.model.22.cv3.2.1.act/aten::silu_/Swish_12/fq_output_0" type="FakeQuantize" version="opset1">
			<data levels="256" auto_broadcast="numpy" />
			<input>
				<port id="0" precision="FP32">
					<dim>1</dim>
					<dim>64</dim>
					<dim>160</dim>
					<dim>160</dim>
				</port>
				<port id="1" precision="FP32" />
				<port id="2" precision="FP32" />
				<port id="3" precision="FP32" />
				<port id="4" precision="FP32" />
			</input>
			<output>
				<port id="5" precision="FP32">
					<dim>1</dim>
					<dim>64</dim>
					<dim>160</dim>
					<dim>160</dim>
				</port>
			</output>
		</layer>
		<layer id="332" name="__module.model.2/aten::cat/Concat" type="Concat" version="opset1">
			<data axis="1" />
			<input>
				<port id="0" precision="FP32">
					<dim>1</dim>
					<dim>64</dim>
					<dim>160</dim>
					<dim>160</dim>
				</port>
				<port id="1" precision="FP32">
					<dim>1</dim>
					<dim>64</dim>
					<dim>160</dim>
					<dim>160</dim>
				</port>
				<port id="2" precision="FP32">
					<dim>1</dim>
					<dim>64</dim>
					<dim>160</dim>
					<dim>160</dim>
				</port>
				<port id="3" precision="FP32">
					<dim>1</dim>
					<dim>64</dim>
					<dim>160</dim>
					<dim>160</dim>
				</port>
			</input>
			<output>
				<port id="4" precision="FP32" names="273,input.55">
					<dim>1</dim>
					<dim>256</dim>
					<dim>160</dim>
					<dim>160</dim>
				</port>
			</output>
		</layer>
		<layer id="333" name="Constant_933782" type="Const" version="opset1">
			<data element_type="i8" shape="256, 256, 1, 1" offset="222204" size="65536" />
			<output>
				<port id="0" precision="I8">
					<dim>256</dim>
					<dim>256</dim>
					<dim>1</dim>
					<dim>1</dim>
				</port>
			</output>
		</layer>
		<layer id="334" name="Convert_933783" type="Convert" version="opset1">
			<data destination_type="f32" />
			<input>
				<port id="0" precision="I8">
					<dim>256</dim>
					<dim>256</dim>
					<dim>1</dim>
					<dim>1</dim>
				</port>
			</input>
			<output>
				<port id="1" precision="FP32">
					<dim>256</dim>
					<dim>256</dim>
					<dim>1</dim>
					<dim>1</dim>
				</port>
			</output>
		</layer>
		<layer id="335" name="Constant_933784_compressed" type="Const" version="opset1">
			<data element_type="f16" shape="256, 1, 1, 1" offset="287740" size="512" />
			<output>
				<port id="0" precision="FP16">
					<dim>256</dim>
					<dim>1</dim>
					<dim>1</dim>
					<dim>1</dim>
				</port>
			</output>
		</layer>
		<layer id="336" name="Constant_933784" type="Convert" version="opset1">
			<data destination_type="f32" />
			<rt_info>
				<attribute name="decompression" version="0" />
			</rt_info>
			<input>
				<port id="0" precision="FP16">
					<dim>256</dim>
					<dim>1</dim>
					<dim>1</dim>
					<dim>1</dim>
				</port>
			</input>
			<output>
				<port id="1" precision="FP32">
					<dim>256</dim>
					<dim>1</dim>
					<dim>1</dim>
					<dim>1</dim>
				</port>
			</output>
		</layer>
		<layer id="337" name="__module.model.2.cv4.conv/aten::_convolution/Convolution/fq_weights_1" type="Multiply" version="opset1">
			<data auto_broadcast="numpy" />
			<input>
				<port id="0" precision="FP32">
					<dim>256</dim>
					<dim>256</dim>
					<dim>1</dim>
					<dim>1</dim>
				</port>
				<port id="1" precision="FP32">
					<dim>256</dim>
					<dim>1</dim>
					<dim>1</dim>
					<dim>1</dim>
				</port>
			</input>
			<output>
				<port id="2" precision="FP32">
					<dim>256</dim>
					<dim>256</dim>
					<dim>1</dim>
					<dim>1</dim>
				</port>
			</output>
		</layer>
		<layer id="338" name="__module.model.2.cv4.conv/aten::_convolution/Convolution" type="Convolution" version="opset1">
			<data strides="1, 1" dilations="1, 1" pads_begin="0, 0" pads_end="0, 0" auto_pad="explicit" />
			<input>
				<port id="0" precision="FP32">
					<dim>1</dim>
					<dim>256</dim>
					<dim>160</dim>
					<dim>160</dim>
				</port>
				<port id="1" precision="FP32">
					<dim>256</dim>
					<dim>256</dim>
					<dim>1</dim>
					<dim>1</dim>
				</port>
			</input>
			<output>
				<port id="2" precision="FP32">
					<dim>1</dim>
					<dim>256</dim>
					<dim>160</dim>
					<dim>160</dim>
				</port>
			</output>
		</layer>
		<layer id="339" name="__module.model.2.cv4.conv/aten::_convolution/Reshape_compressed" type="Const" version="opset1">
			<data element_type="f16" shape="1, 256, 1, 1" offset="288252" size="512" />
			<output>
				<port id="0" precision="FP16">
					<dim>1</dim>
					<dim>256</dim>
					<dim>1</dim>
					<dim>1</dim>
				</port>
			</output>
		</layer>
		<layer id="340" name="__module.model.2.cv4.conv/aten::_convolution/Reshape" type="Convert" version="opset1">
			<data destination_type="f32" />
			<rt_info>
				<attribute name="decompression" version="0" />
			</rt_info>
			<input>
				<port id="0" precision="FP16">
					<dim>1</dim>
					<dim>256</dim>
					<dim>1</dim>
					<dim>1</dim>
				</port>
			</input>
			<output>
				<port id="1" precision="FP32">
					<dim>1</dim>
					<dim>256</dim>
					<dim>1</dim>
					<dim>1</dim>
				</port>
			</output>
		</layer>
		<layer id="341" name="__module.model.2.cv4.conv/aten::_convolution/Add" type="Add" version="opset1">
			<data auto_broadcast="numpy" />
			<input>
				<port id="0" precision="FP32">
					<dim>1</dim>
					<dim>256</dim>
					<dim>160</dim>
					<dim>160</dim>
				</port>
				<port id="1" precision="FP32">
					<dim>1</dim>
					<dim>256</dim>
					<dim>1</dim>
					<dim>1</dim>
				</port>
			</input>
			<output>
				<port id="2" precision="FP32" names="281_1">
					<dim>1</dim>
					<dim>256</dim>
					<dim>160</dim>
					<dim>160</dim>
				</port>
			</output>
		</layer>
		<layer id="342" name="__module.model.22.cv3.2.1.act/aten::silu_/Swish_13" type="Swish" version="opset4">
			<input>
				<port id="0" precision="FP32">
					<dim>1</dim>
					<dim>256</dim>
					<dim>160</dim>
					<dim>160</dim>
				</port>
			</input>
			<output>
				<port id="1" precision="FP32" names="281,input.57">
					<dim>1</dim>
					<dim>256</dim>
					<dim>160</dim>
					<dim>160</dim>
				</port>
			</output>
		</layer>
		<layer id="343" name="__module.model.22.cv3.2.1.act/aten::silu_/Swish_13/fq_output_0/input_low_compressed" type="Const" version="opset1">
			<data element_type="f16" shape="" offset="288764" size="2" />
			<output>
				<port id="0" precision="FP16" />
			</output>
		</layer>
		<layer id="344" name="__module.model.22.cv3.2.1.act/aten::silu_/Swish_13/fq_output_0/input_low" type="Convert" version="opset1">
			<data destination_type="f32" />
			<rt_info>
				<attribute name="decompression" version="0" />
			</rt_info>
			<input>
				<port id="0" precision="FP16" />
			</input>
			<output>
				<port id="1" precision="FP32" />
			</output>
		</layer>
		<layer id="345" name="__module.model.22.cv3.2.1.act/aten::silu_/Swish_13/fq_output_0/input_high_compressed" type="Const" version="opset1">
			<data element_type="f16" shape="" offset="288766" size="2" />
			<output>
				<port id="0" precision="FP16" />
			</output>
		</layer>
		<layer id="346" name="__module.model.22.cv3.2.1.act/aten::silu_/Swish_13/fq_output_0/input_high" type="Convert" version="opset1">
			<data destination_type="f32" />
			<rt_info>
				<attribute name="decompression" version="0" />
			</rt_info>
			<input>
				<port id="0" precision="FP16" />
			</input>
			<output>
				<port id="1" precision="FP32" />
			</output>
		</layer>
		<layer id="347" name="__module.model.22.cv3.2.1.act/aten::silu_/Swish_13/fq_output_0/output_low_compressed" type="Const" version="opset1">
			<data element_type="f16" shape="" offset="288764" size="2" />
			<output>
				<port id="0" precision="FP16" />
			</output>
		</layer>
		<layer id="348" name="__module.model.22.cv3.2.1.act/aten::silu_/Swish_13/fq_output_0/output_low" type="Convert" version="opset1">
			<data destination_type="f32" />
			<rt_info>
				<attribute name="decompression" version="0" />
			</rt_info>
			<input>
				<port id="0" precision="FP16" />
			</input>
			<output>
				<port id="1" precision="FP32" />
			</output>
		</layer>
		<layer id="349" name="__module.model.22.cv3.2.1.act/aten::silu_/Swish_13/fq_output_0/output_high_compressed" type="Const" version="opset1">
			<data element_type="f16" shape="" offset="288766" size="2" />
			<output>
				<port id="0" precision="FP16" />
			</output>
		</layer>
		<layer id="350" name="__module.model.22.cv3.2.1.act/aten::silu_/Swish_13/fq_output_0/output_high" type="Convert" version="opset1">
			<data destination_type="f32" />
			<rt_info>
				<attribute name="decompression" version="0" />
			</rt_info>
			<input>
				<port id="0" precision="FP16" />
			</input>
			<output>
				<port id="1" precision="FP32" />
			</output>
		</layer>
		<layer id="351" name="__module.model.22.cv3.2.1.act/aten::silu_/Swish_13/fq_output_0" type="FakeQuantize" version="opset1">
			<data levels="256" auto_broadcast="numpy" />
			<input>
				<port id="0" precision="FP32">
					<dim>1</dim>
					<dim>256</dim>
					<dim>160</dim>
					<dim>160</dim>
				</port>
				<port id="1" precision="FP32" />
				<port id="2" precision="FP32" />
				<port id="3" precision="FP32" />
				<port id="4" precision="FP32" />
			</input>
			<output>
				<port id="5" precision="FP32">
					<dim>1</dim>
					<dim>256</dim>
					<dim>160</dim>
					<dim>160</dim>
				</port>
			</output>
		</layer>
		<layer id="352" name="__module.model.3/aten::avg_pool2d/AvgPool" type="AvgPool" version="opset1">
			<data kernel="2, 2" strides="1, 1" pads_begin="0, 0" pads_end="0, 0" exclude-pad="false" auto_pad="explicit" rounding_type="floor" />
			<input>
				<port id="0" precision="FP32">
					<dim>1</dim>
					<dim>256</dim>
					<dim>160</dim>
					<dim>160</dim>
				</port>
			</input>
			<output>
				<port id="1" precision="FP32" names="295,x.5">
					<dim>1</dim>
					<dim>256</dim>
					<dim>159</dim>
					<dim>159</dim>
				</port>
			</output>
		</layer>
…
		<edge from-layer="2604" from-port="3" to-layer="2855" to-port="0" />
		<edge from-layer="2604" from-port="4" to-layer="2855" to-port="1" />
		<edge from-layer="2604" from-port="4" to-layer="2610" to-port="0" />
		<edge from-layer="2605" from-port="0" to-layer="2606" to-port="0" />
		<edge from-layer="2606" from-port="1" to-layer="2609" to-port="0" />
		<edge from-layer="2607" from-port="0" to-layer="2608" to-port="0" />
		<edge from-layer="2608" from-port="1" to-layer="2609" to-port="1" />
		<edge from-layer="2609" from-port="2" to-layer="2610" to-port="1" />
		<edge from-layer="2610" from-port="2" to-layer="2613" to-port="0" />
		<edge from-layer="2611" from-port="0" to-layer="2612" to-port="0" />
		<edge from-layer="2612" from-port="1" to-layer="2613" to-port="1" />
		<edge from-layer="2613" from-port="2" to-layer="2614" to-port="0" />
		<edge from-layer="2614" from-port="1" to-layer="2623" to-port="0" />
		<edge from-layer="2615" from-port="0" to-layer="2616" to-port="0" />
		<edge from-layer="2616" from-port="1" to-layer="2623" to-port="1" />
		<edge from-layer="2617" from-port="0" to-layer="2618" to-port="0" />
		<edge from-layer="2618" from-port="1" to-layer="2623" to-port="2" />
		<edge from-layer="2619" from-port="0" to-layer="2620" to-port="0" />
		<edge from-layer="2620" from-port="1" to-layer="2623" to-port="3" />
		<edge from-layer="2621" from-port="0" to-layer="2622" to-port="0" />
		<edge from-layer="2622" from-port="1" to-layer="2623" to-port="4" />
		<edge from-layer="2623" from-port="5" to-layer="2662" to-port="0" />
		<edge from-layer="2623" from-port="5" to-layer="2629" to-port="0" />
		<edge from-layer="2624" from-port="0" to-layer="2625" to-port="0" />
		<edge from-layer="2625" from-port="1" to-layer="2628" to-port="0" />
		<edge from-layer="2626" from-port="0" to-layer="2627" to-port="0" />
		<edge from-layer="2627" from-port="1" to-layer="2628" to-port="1" />
		<edge from-layer="2628" from-port="2" to-layer="2629" to-port="1" />
		<edge from-layer="2629" from-port="2" to-layer="2632" to-port="0" />
		<edge from-layer="2630" from-port="0" to-layer="2631" to-port="0" />
		<edge from-layer="2631" from-port="1" to-layer="2632" to-port="1" />
		<edge from-layer="2632" from-port="2" to-layer="2633" to-port="0" />
		<edge from-layer="2633" from-port="1" to-layer="2642" to-port="0" />
		<edge from-layer="2634" from-port="0" to-layer="2635" to-port="0" />
		<edge from-layer="2635" from-port="1" to-layer="2642" to-port="1" />
		<edge from-layer="2636" from-port="0" to-layer="2637" to-port="0" />
		<edge from-layer="2637" from-port="1" to-layer="2642" to-port="2" />
		<edge from-layer="2638" from-port="0" to-layer="2639" to-port="0" />
		<edge from-layer="2639" from-port="1" to-layer="2642" to-port="3" />
		<edge from-layer="2640" from-port="0" to-layer="2641" to-port="0" />
		<edge from-layer="2641" from-port="1" to-layer="2642" to-port="4" />
		<edge from-layer="2642" from-port="5" to-layer="2648" to-port="0" />
		<edge from-layer="2643" from-port="0" to-layer="2644" to-port="0" />
		<edge from-layer="2644" from-port="1" to-layer="2647" to-port="0" />
		<edge from-layer="2645" from-port="0" to-layer="2646" to-port="0" />
		<edge from-layer="2646" from-port="1" to-layer="2647" to-port="1" />
		<edge from-layer="2647" from-port="2" to-layer="2648" to-port="1" />
		<edge from-layer="2648" from-port="2" to-layer="2651" to-port="0" />
		<edge from-layer="2649" from-port="0" to-layer="2650" to-port="0" />
		<edge from-layer="2650" from-port="1" to-layer="2651" to-port="1" />
		<edge from-layer="2651" from-port="2" to-layer="2652" to-port="0" />
		<edge from-layer="2652" from-port="1" to-layer="2661" to-port="0" />
		<edge from-layer="2653" from-port="0" to-layer="2654" to-port="0" />
		<edge from-layer="2654" from-port="1" to-layer="2661" to-port="1" />
		<edge from-layer="2655" from-port="0" to-layer="2656" to-port="0" />
		<edge from-layer="2656" from-port="1" to-layer="2661" to-port="2" />
		<edge from-layer="2657" from-port="0" to-layer="2658" to-port="0" />
		<edge from-layer="2658" from-port="1" to-layer="2661" to-port="3" />
		<edge from-layer="2659" from-port="0" to-layer="2660" to-port="0" />
		<edge from-layer="2660" from-port="1" to-layer="2661" to-port="4" />
		<edge from-layer="2661" from-port="5" to-layer="2662" to-port="1" />
		<edge from-layer="2662" from-port="2" to-layer="2671" to-port="0" />
		<edge from-layer="2663" from-port="0" to-layer="2664" to-port="0" />
		<edge from-layer="2664" from-port="1" to-layer="2671" to-port="1" />
		<edge from-layer="2665" from-port="0" to-layer="2666" to-port="0" />
		<edge from-layer="2666" from-port="1" to-layer="2671" to-port="2" />
		<edge from-layer="2667" from-port="0" to-layer="2668" to-port="0" />
		<edge from-layer="2668" from-port="1" to-layer="2671" to-port="3" />
		<edge from-layer="2669" from-port="0" to-layer="2670" to-port="0" />
		<edge from-layer="2670" from-port="1" to-layer="2671" to-port="4" />
		<edge from-layer="2671" from-port="5" to-layer="2691" to-port="0" />
		<edge from-layer="2672" from-port="0" to-layer="2673" to-port="0" />
		<edge from-layer="2673" from-port="1" to-layer="2676" to-port="0" />
		<edge from-layer="2674" from-port="0" to-layer="2675" to-port="0" />
		<edge from-layer="2675" from-port="1" to-layer="2676" to-port="1" />
		<edge from-layer="2676" from-port="2" to-layer="2677" to-port="1" />
		<edge from-layer="2677" from-port="2" to-layer="2680" to-port="0" />
		<edge from-layer="2678" from-port="0" to-layer="2679" to-port="0" />
		<edge from-layer="2679" from-port="1" to-layer="2680" to-port="1" />
		<edge from-layer="2680" from-port="2" to-layer="2681" to-port="0" />
		<edge from-layer="2681" from-port="1" to-layer="2690" to-port="0" />
		<edge from-layer="2682" from-port="0" to-layer="2683" to-port="0" />
		<edge from-layer="2683" from-port="1" to-layer="2690" to-port="1" />
		<edge from-layer="2684" from-port="0" to-layer="2685" to-port="0" />
		<edge from-layer="2685" from-port="1" to-layer="2690" to-port="2" />
		<edge from-layer="2686" from-port="0" to-layer="2687" to-port="0" />
		<edge from-layer="2687" from-port="1" to-layer="2690" to-port="3" />
		<edge from-layer="2688" from-port="0" to-layer="2689" to-port="0" />
		<edge from-layer="2689" from-port="1" to-layer="2690" to-port="4" />
		<edge from-layer="2690" from-port="5" to-layer="2691" to-port="1" />
		<edge from-layer="2691" from-port="2" to-layer="2697" to-port="0" />
		<edge from-layer="2692" from-port="0" to-layer="2693" to-port="0" />
		<edge from-layer="2693" from-port="1" to-layer="2696" to-port="0" />
		<edge from-layer="2694" from-port="0" to-layer="2695" to-port="0" />
		<edge from-layer="2695" from-port="1" to-layer="2696" to-port="1" />
		<edge from-layer="2696" from-port="2" to-layer="2697" to-port="1" />
		<edge from-layer="2697" from-port="2" to-layer="2700" to-port="0" />
		<edge from-layer="2698" from-port="0" to-layer="2699" to-port="0" />
		<edge from-layer="2699" from-port="1" to-layer="2700" to-port="1" />
		<edge from-layer="2700" from-port="2" to-layer="2701" to-port="0" />
		<edge from-layer="2701" from-port="1" to-layer="2710" to-port="0" />
		<edge from-layer="2702" from-port="0" to-layer="2703" to-port="0" />
		<edge from-layer="2703" from-port="1" to-layer="2710" to-port="1" />
		<edge from-layer="2704" from-port="0" to-layer="2705" to-port="0" />
		<edge from-layer="2705" from-port="1" to-layer="2710" to-port="2" />
		<edge from-layer="2706" from-port="0" to-layer="2707" to-port="0" />
		<edge from-layer="2707" from-port="1" to-layer="2710" to-port="3" />
		<edge from-layer="2708" from-port="0" to-layer="2709" to-port="0" />
		<edge from-layer="2709" from-port="1" to-layer="2710" to-port="4" />
		<edge from-layer="2710" from-port="5" to-layer="2716" to-port="0" />
		<edge from-layer="2711" from-port="0" to-layer="2712" to-port="0" />
		<edge from-layer="2712" from-port="1" to-layer="2715" to-port="0" />
		<edge from-layer="2713" from-port="0" to-layer="2714" to-port="0" />
		<edge from-layer="2714" from-port="1" to-layer="2715" to-port="1" />
		<edge from-layer="2715" from-port="2" to-layer="2716" to-port="1" />
		<edge from-layer="2716" from-port="2" to-layer="2719" to-port="0" />
		<edge from-layer="2717" from-port="0" to-layer="2718" to-port="0" />
		<edge from-layer="2718" from-port="1" to-layer="2719" to-port="1" />
		<edge from-layer="2719" from-port="2" to-layer="2720" to-port="0" />
		<edge from-layer="2720" from-port="1" to-layer="2729" to-port="0" />
		<edge from-layer="2721" from-port="0" to-layer="2722" to-port="0" />
		<edge from-layer="2722" from-port="1" to-layer="2729" to-port="1" />
		<edge from-layer="2723" from-port="0" to-layer="2724" to-port="0" />
		<edge from-layer="2724" from-port="1" to-layer="2729" to-port="2" />
		<edge from-layer="2725" from-port="0" to-layer="2726" to-port="0" />
		<edge from-layer="2726" from-port="1" to-layer="2729" to-port="3" />
		<edge from-layer="2727" from-port="0" to-layer="2728" to-port="0" />
		<edge from-layer="2728" from-port="1" to-layer="2729" to-port="4" />
		<edge from-layer="2729" from-port="5" to-layer="2735" to-port="0" />
		<edge from-layer="2729" from-port="5" to-layer="2802" to-port="0" />
		<edge from-layer="2729" from-port="5" to-layer="2855" to-port="2" />
		<edge from-layer="2730" from-port="0" to-layer="2731" to-port="0" />
		<edge from-layer="2731" from-port="1" to-layer="2734" to-port="0" />
		<edge from-layer="2732" from-port="0" to-layer="2733" to-port="0" />
		<edge from-layer="2733" from-port="1" to-layer="2734" to-port="1" />
		<edge from-layer="2734" from-port="2" to-layer="2735" to-port="1" />
		<edge from-layer="2735" from-port="2" to-layer="2738" to-port="0" />
		<edge from-layer="2736" from-port="0" to-layer="2737" to-port="0" />
		<edge from-layer="2737" from-port="1" to-layer="2738" to-port="1" />
		<edge from-layer="2738" from-port="2" to-layer="2739" to-port="0" />
		<edge from-layer="2739" from-port="1" to-layer="2748" to-port="0" />
		<edge from-layer="2740" from-port="0" to-layer="2741" to-port="0" />
		<edge from-layer="2741" from-port="1" to-layer="2748" to-port="1" />
		<edge from-layer="2742" from-port="0" to-layer="2743" to-port="0" />
		<edge from-layer="2743" from-port="1" to-layer="2748" to-port="2" />
		<edge from-layer="2744" from-port="0" to-layer="2745" to-port="0" />
		<edge from-layer="2745" from-port="1" to-layer="2748" to-port="3" />
		<edge from-layer="2746" from-port="0" to-layer="2747" to-port="0" />
		<edge from-layer="2747" from-port="1" to-layer="2748" to-port="4" />
		<edge from-layer="2748" from-port="5" to-layer="2754" to-port="0" />
		<edge from-layer="2748" from-port="5" to-layer="2787" to-port="0" />
		<edge from-layer="2749" from-port="0" to-layer="2750" to-port="0" />
		<edge from-layer="2750" from-port="1" to-layer="2753" to-port="0" />
		<edge from-layer="2751" from-port="0" to-layer="2752" to-port="0" />
		<edge from-layer="2752" from-port="1" to-layer="2753" to-port="1" />
		<edge from-layer="2753" from-port="2" to-layer="2754" to-port="1" />
		<edge from-layer="2754" from-port="2" to-layer="2757" to-port="0" />
		<edge from-layer="2755" from-port="0" to-layer="2756" to-port="0" />
		<edge from-layer="2756" from-port="1" to-layer="2757" to-port="1" />
		<edge from-layer="2757" from-port="2" to-layer="2758" to-port="0" />
		<edge from-layer="2758" from-port="1" to-layer="2767" to-port="0" />
		<edge from-layer="2759" from-port="0" to-layer="2760" to-port="0" />
		<edge from-layer="2760" from-port="1" to-layer="2767" to-port="1" />
		<edge from-layer="2761" from-port="0" to-layer="2762" to-port="0" />
		<edge from-layer="2762" from-port="1" to-layer="2767" to-port="2" />
		<edge from-layer="2763" from-port="0" to-layer="2764" to-port="0" />
		<edge from-layer="2764" from-port="1" to-layer="2767" to-port="3" />
		<edge from-layer="2765" from-port="0" to-layer="2766" to-port="0" />
		<edge from-layer="2766" from-port="1" to-layer="2767" to-port="4" />
		<edge from-layer="2767" from-port="5" to-layer="2773" to-port="0" />
		<edge from-layer="2768" from-port="0" to-layer="2769" to-port="0" />
		<edge from-layer="2769" from-port="1" to-layer="2772" to-port="0" />
		<edge from-layer="2770" from-port="0" to-layer="2771" to-port="0" />
		<edge from-layer="2771" from-port="1" to-layer="2772" to-port="1" />
		<edge from-layer="2772" from-port="2" to-layer="2773" to-port="1" />
		<edge from-layer="2773" from-port="2" to-layer="2776" to-port="0" />
		<edge from-layer="2774" from-port="0" to-layer="2775" to-port="0" />
		<edge from-layer="2775" from-port="1" to-layer="2776" to-port="1" />
		<edge from-layer="2776" from-port="2" to-layer="2777" to-port="0" />
		<edge from-layer="2777" from-port="1" to-layer="2786" to-port="0" />
		<edge from-layer="2778" from-port="0" to-layer="2779" to-port="0" />
		<edge from-layer="2779" from-port="1" to-layer="2786" to-port="1" />
		<edge from-layer="2780" from-port="0" to-layer="2781" to-port="0" />
		<edge from-layer="2781" from-port="1" to-layer="2786" to-port="2" />
		<edge from-layer="2782" from-port="0" to-layer="2783" to-port="0" />
		<edge from-layer="2783" from-port="1" to-layer="2786" to-port="3" />
		<edge from-layer="2784" from-port="0" to-layer="2785" to-port="0" />
		<edge from-layer="2785" from-port="1" to-layer="2786" to-port="4" />
		<edge from-layer="2786" from-port="5" to-layer="2787" to-port="1" />
		<edge from-layer="2787" from-port="2" to-layer="2796" to-port="0" />
		<edge from-layer="2788" from-port="0" to-layer="2789" to-port="0" />
		<edge from-layer="2789" from-port="1" to-layer="2796" to-port="1" />
		<edge from-layer="2790" from-port="0" to-layer="2791" to-port="0" />
		<edge from-layer="2791" from-port="1" to-layer="2796" to-port="2" />
		<edge from-layer="2792" from-port="0" to-layer="2793" to-port="0" />
		<edge from-layer="2793" from-port="1" to-layer="2796" to-port="3" />
		<edge from-layer="2794" from-port="0" to-layer="2795" to-port="0" />
		<edge from-layer="2795" from-port="1" to-layer="2796" to-port="4" />
		<edge from-layer="2796" from-port="5" to-layer="2816" to-port="0" />
		<edge from-layer="2797" from-port="0" to-layer="2798" to-port="0" />
		<edge from-layer="2798" from-port="1" to-layer="2801" to-port="0" />
		<edge from-layer="2799" from-port="0" to-layer="2800" to-port="0" />
		<edge from-layer="2800" from-port="1" to-layer="2801" to-port="1" />
		<edge from-layer="2801" from-port="2" to-layer="2802" to-port="1" />
		<edge from-layer="2802" from-port="2" to-layer="2805" to-port="0" />
		<edge from-layer="2803" from-port="0" to-layer="2804" to-port="0" />
		<edge from-layer="2804" from-port="1" to-layer="2805" to-port="1" />
		<edge from-layer="2805" from-port="2" to-layer="2806" to-port="0" />
		<edge from-layer="2806" from-port="1" to-layer="2815" to-port="0" />
		<edge from-layer="2807" from-port="0" to-layer="2808" to-port="0" />
		<edge from-layer="2808" from-port="1" to-layer="2815" to-port="1" />
		<edge from-layer="2809" from-port="0" to-layer="2810" to-port="0" />
		<edge from-layer="2810" from-port="1" to-layer="2815" to-port="2" />
		<edge from-layer="2811" from-port="0" to-layer="2812" to-port="0" />
		<edge from-layer="2812" from-port="1" to-layer="2815" to-port="3" />
		<edge from-layer="2813" from-port="0" to-layer="2814" to-port="0" />
		<edge from-layer="2814" from-port="1" to-layer="2815" to-port="4" />
		<edge from-layer="2815" from-port="5" to-layer="2816" to-port="1" />
		<edge from-layer="2816" from-port="2" to-layer="2822" to-port="0" />
		<edge from-layer="2817" from-port="0" to-layer="2818" to-port="0" />
		<edge from-layer="2818" from-port="1" to-layer="2821" to-port="0" />
		<edge from-layer="2819" from-port="0" to-layer="2820" to-port="0" />
		<edge from-layer="2820" from-port="1" to-layer="2821" to-port="1" />
		<edge from-layer="2821" from-port="2" to-layer="2822" to-port="1" />
		<edge from-layer="2822" from-port="2" to-layer="2825" to-port="0" />
		<edge from-layer="2823" from-port="0" to-layer="2824" to-port="0" />
		<edge from-layer="2824" from-port="1" to-layer="2825" to-port="1" />
		<edge from-layer="2825" from-port="2" to-layer="2826" to-port="0" />
		<edge from-layer="2826" from-port="1" to-layer="2835" to-port="0" />
		<edge from-layer="2827" from-port="0" to-layer="2828" to-port="0" />
		<edge from-layer="2828" from-port="1" to-layer="2835" to-port="1" />
		<edge from-layer="2829" from-port="0" to-layer="2830" to-port="0" />
		<edge from-layer="2830" from-port="1" to-layer="2835" to-port="2" />
		<edge from-layer="2831" from-port="0" to-layer="2832" to-port="0" />
		<edge from-layer="2832" from-port="1" to-layer="2835" to-port="3" />
		<edge from-layer="2833" from-port="0" to-layer="2834" to-port="0" />
		<edge from-layer="2834" from-port="1" to-layer="2835" to-port="4" />
		<edge from-layer="2835" from-port="5" to-layer="2841" to-port="0" />
		<edge from-layer="2836" from-port="0" to-layer="2837" to-port="0" />
		<edge from-layer="2837" from-port="1" to-layer="2840" to-port="0" />
		<edge from-layer="2838" from-port="0" to-layer="2839" to-port="0" />
		<edge from-layer="2839" from-port="1" to-layer="2840" to-port="1" />
		<edge from-layer="2840" from-port="2" to-layer="2841" to-port="1" />
		<edge from-layer="2841" from-port="2" to-layer="2844" to-port="0" />
		<edge from-layer="2842" from-port="0" to-layer="2843" to-port="0" />
		<edge from-layer="2843" from-port="1" to-layer="2844" to-port="1" />
		<edge from-layer="2844" from-port="2" to-layer="2845" to-port="0" />
		<edge from-layer="2845" from-port="1" to-layer="2854" to-port="0" />
		<edge from-layer="2846" from-port="0" to-layer="2847" to-port="0" />
		<edge from-layer="2847" from-port="1" to-layer="2854" to-port="1" />
		<edge from-layer="2848" from-port="0" to-layer="2849" to-port="0" />
		<edge from-layer="2849" from-port="1" to-layer="2854" to-port="2" />
		<edge from-layer="2850" from-port="0" to-layer="2851" to-port="0" />
		<edge from-layer="2851" from-port="1" to-layer="2854" to-port="3" />
		<edge from-layer="2852" from-port="0" to-layer="2853" to-port="0" />
		<edge from-layer="2853" from-port="1" to-layer="2854" to-port="4" />
		<edge from-layer="2854" from-port="5" to-layer="2855" to-port="3" />
		<edge from-layer="2855" from-port="4" to-layer="2861" to-port="0" />
		<edge from-layer="2856" from-port="0" to-layer="2857" to-port="0" />
		<edge from-layer="2857" from-port="1" to-layer="2860" to-port="0" />
		<edge from-layer="2858" from-port="0" to-layer="2859" to-port="0" />
		<edge from-layer="2859" from-port="1" to-layer="2860" to-port="1" />
		<edge from-layer="2860" from-port="2" to-layer="2861" to-port="1" />
		<edge from-layer="2861" from-port="2" to-layer="2864" to-port="0" />
		<edge from-layer="2862" from-port="0" to-layer="2863" to-port="0" />
		<edge from-layer="2863" from-port="1" to-layer="2864" to-port="1" />
		<edge from-layer="2864" from-port="2" to-layer="2865" to-port="0" />
		<edge from-layer="2865" from-port="1" to-layer="2874" to-port="0" />
		<edge from-layer="2866" from-port="0" to-layer="2867" to-port="0" />
		<edge from-layer="2867" from-port="1" to-layer="2874" to-port="1" />
		<edge from-layer="2868" from-port="0" to-layer="2869" to-port="0" />
		<edge from-layer="2869" from-port="1" to-layer="2874" to-port="2" />
		<edge from-layer="2870" from-port="0" to-layer="2871" to-port="0" />
		<edge from-layer="2871" from-port="1" to-layer="2874" to-port="3" />
		<edge from-layer="2872" from-port="0" to-layer="2873" to-port="0" />
		<edge from-layer="2873" from-port="1" to-layer="2874" to-port="4" />
		<edge from-layer="2874" from-port="5" to-layer="2880" to-port="0" />
		<edge from-layer="2874" from-port="5" to-layer="2927" to-port="0" />
		<edge from-layer="2875" from-port="0" to-layer="2876" to-port="0" />
		<edge from-layer="2876" from-port="1" to-layer="2879" to-port="0" />
		<edge from-layer="2877" from-port="0" to-layer="2878" to-port="0" />
		<edge from-layer="2878" from-port="1" to-layer="2879" to-port="1" />
		<edge from-layer="2879" from-port="2" to-layer="2880" to-port="1" />
		<edge from-layer="2880" from-port="2" to-layer="2883" to-port="0" />
		<edge from-layer="2881" from-port="0" to-layer="2882" to-port="0" />
		<edge from-layer="2882" from-port="1" to-layer="2883" to-port="1" />
		<edge from-layer="2883" from-port="2" to-layer="2884" to-port="0" />
		<edge from-layer="2884" from-port="1" to-layer="2893" to-port="0" />
		<edge from-layer="2885" from-port="0" to-layer="2886" to-port="0" />
		<edge from-layer="2886" from-port="1" to-layer="2893" to-port="1" />
		<edge from-layer="2887" from-port="0" to-layer="2888" to-port="0" />
		<edge from-layer="2888" from-port="1" to-layer="2893" to-port="2" />
		<edge from-layer="2889" from-port="0" to-layer="2890" to-port="0" />
		<edge from-layer="2890" from-port="1" to-layer="2893" to-port="3" />
		<edge from-layer="2891" from-port="0" to-layer="2892" to-port="0" />
		<edge from-layer="2892" from-port="1" to-layer="2893" to-port="4" />
		<edge from-layer="2893" from-port="5" to-layer="2899" to-port="0" />
		<edge from-layer="2894" from-port="0" to-layer="2895" to-port="0" />
		<edge from-layer="2895" from-port="1" to-layer="2898" to-port="0" />
		<edge from-layer="2896" from-port="0" to-layer="2897" to-port="0" />
		<edge from-layer="2897" from-port="1" to-layer="2898" to-port="1" />
		<edge from-layer="2898" from-port="2" to-layer="2899" to-port="1" />
		<edge from-layer="2899" from-port="2" to-layer="2902" to-port="0" />
		<edge from-layer="2900" from-port="0" to-layer="2901" to-port="0" />
		<edge from-layer="2901" from-port="1" to-layer="2902" to-port="1" />
		<edge from-layer="2902" from-port="2" to-layer="2903" to-port="0" />
		<edge from-layer="2903" from-port="1" to-layer="2912" to-port="0" />
		<edge from-layer="2904" from-port="0" to-layer="2905" to-port="0" />
		<edge from-layer="2905" from-port="1" to-layer="2912" to-port="1" />
		<edge from-layer="2906" from-port="0" to-layer="2907" to-port="0" />
		<edge from-layer="2907" from-port="1" to-layer="2912" to-port="2" />
		<edge from-layer="2908" from-port="0" to-layer="2909" to-port="0" />
		<edge from-layer="2909" from-port="1" to-layer="2912" to-port="3" />
		<edge from-layer="2910" from-port="0" to-layer="2911" to-port="0" />
		<edge from-layer="2911" from-port="1" to-layer="2912" to-port="4" />
		<edge from-layer="2912" from-port="5" to-layer="2918" to-port="0" />
		<edge from-layer="2913" from-port="0" to-layer="2914" to-port="0" />
		<edge from-layer="2914" from-port="1" to-layer="2917" to-port="0" />
		<edge from-layer="2915" from-port="0" to-layer="2916" to-port="0" />
		<edge from-layer="2916" from-port="1" to-layer="2917" to-port="1" />
		<edge from-layer="2917" from-port="2" to-layer="2918" to-port="1" />
		<edge from-layer="2918" from-port="2" to-layer="2921" to-port="0" />
		<edge from-layer="2919" from-port="0" to-layer="2920" to-port="0" />
		<edge from-layer="2920" from-port="1" to-layer="2921" to-port="1" />
		<edge from-layer="2921" from-port="2" to-layer="2969" to-port="0" />
		<edge from-layer="2922" from-port="0" to-layer="2923" to-port="0" />
		<edge from-layer="2923" from-port="1" to-layer="2926" to-port="0" />
		<edge from-layer="2924" from-port="0" to-layer="2925" to-port="0" />
		<edge from-layer="2925" from-port="1" to-layer="2926" to-port="1" />
		<edge from-layer="2926" from-port="2" to-layer="2927" to-port="1" />
		<edge from-layer="2927" from-port="2" to-layer="2930" to-port="0" />
		<edge from-layer="2928" from-port="0" to-layer="2929" to-port="0" />
		<edge from-layer="2929" from-port="1" to-layer="2930" to-port="1" />
		<edge from-layer="2930" from-port="2" to-layer="2931" to-port="0" />
		<edge from-layer="2931" from-port="1" to-layer="2940" to-port="0" />
		<edge from-layer="2932" from-port="0" to-layer="2933" to-port="0" />
		<edge from-layer="2933" from-port="1" to-layer="2940" to-port="1" />
		<edge from-layer="2934" from-port="0" to-layer="2935" to-port="0" />
		<edge from-layer="2935" from-port="1" to-layer="2940" to-port="2" />
		<edge from-layer="2936" from-port="0" to-layer="2937" to-port="0" />
		<edge from-layer="2937" from-port="1" to-layer="2940" to-port="3" />
		<edge from-layer="2938" from-port="0" to-layer="2939" to-port="0" />
		<edge from-layer="2939" from-port="1" to-layer="2940" to-port="4" />
		<edge from-layer="2940" from-port="5" to-layer="2946" to-port="0" />
		<edge from-layer="2941" from-port="0" to-layer="2942" to-port="0" />
		<edge from-layer="2942" from-port="1" to-layer="2945" to-port="0" />
		<edge from-layer="2943" from-port="0" to-layer="2944" to-port="0" />
		<edge from-layer="2944" from-port="1" to-layer="2945" to-port="1" />
		<edge from-layer="2945" from-port="2" to-layer="2946" to-port="1" />
		<edge from-layer="2946" from-port="2" to-layer="2949" to-port="0" />
		<edge from-layer="2947" from-port="0" to-layer="2948" to-port="0" />
		<edge from-layer="2948" from-port="1" to-layer="2949" to-port="1" />
		<edge from-layer="2949" from-port="2" to-layer="2950" to-port="0" />
		<edge from-layer="2950" from-port="1" to-layer="2959" to-port="0" />
		<edge from-layer="2951" from-port="0" to-layer="2952" to-port="0" />
		<edge from-layer="2952" from-port="1" to-layer="2959" to-port="1" />
		<edge from-layer="2953" from-port="0" to-layer="2954" to-port="0" />
		<edge from-layer="2954" from-port="1" to-layer="2959" to-port="2" />
		<edge from-layer="2955" from-port="0" to-layer="2956" to-port="0" />
		<edge from-layer="2956" from-port="1" to-layer="2959" to-port="3" />
		<edge from-layer="2957" from-port="0" to-layer="2958" to-port="0" />
		<edge from-layer="2958" from-port="1" to-layer="2959" to-port="4" />
		<edge from-layer="2959" from-port="5" to-layer="2965" to-port="0" />
		<edge from-layer="2960" from-port="0" to-layer="2961" to-port="0" />
		<edge from-layer="2961" from-port="1" to-layer="2964" to-port="0" />
		<edge from-layer="2962" from-port="0" to-layer="2963" to-port="0" />
		<edge from-layer="2963" from-port="1" to-layer="2964" to-port="1" />
		<edge from-layer="2964" from-port="2" to-layer="2965" to-port="1" />
		<edge from-layer="2965" from-port="2" to-layer="2968" to-port="0" />
		<edge from-layer="2966" from-port="0" to-layer="2967" to-port="0" />
		<edge from-layer="2967" from-port="1" to-layer="2968" to-port="1" />
		<edge from-layer="2968" from-port="2" to-layer="2969" to-port="1" />
		<edge from-layer="2969" from-port="2" to-layer="3174" to-port="0" />
		<edge from-layer="2969" from-port="2" to-layer="2970" to-port="0" />
		<edge from-layer="2971" from-port="0" to-layer="2972" to-port="0" />
		<edge from-layer="2972" from-port="1" to-layer="2975" to-port="0" />
		<edge from-layer="2973" from-port="0" to-layer="2974" to-port="0" />
		<edge from-layer="2974" from-port="1" to-layer="2975" to-port="1" />
		<edge from-layer="2975" from-port="2" to-layer="2976" to-port="1" />
		<edge from-layer="2976" from-port="2" to-layer="2979" to-port="0" />
		<edge from-layer="2977" from-port="0" to-layer="2978" to-port="0" />
		<edge from-layer="2978" from-port="1" to-layer="2979" to-port="1" />
		<edge from-layer="2979" from-port="2" to-layer="2980" to-port="0" />
		<edge from-layer="2980" from-port="1" to-layer="2989" to-port="0" />
		<edge from-layer="2981" from-port="0" to-layer="2982" to-port="0" />
		<edge from-layer="2982" from-port="1" to-layer="2989" to-port="1" />
		<edge from-layer="2983" from-port="0" to-layer="2984" to-port="0" />
		<edge from-layer="2984" from-port="1" to-layer="2989" to-port="2" />
		<edge from-layer="2985" from-port="0" to-layer="2986" to-port="0" />
		<edge from-layer="2986" from-port="1" to-layer="2989" to-port="3" />
		<edge from-layer="2987" from-port="0" to-layer="2988" to-port="0" />
		<edge from-layer="2988" from-port="1" to-layer="2989" to-port="4" />
		<edge from-layer="2989" from-port="5" to-layer="2995" to-port="0" />
		<edge from-layer="2990" from-port="0" to-layer="2991" to-port="0" />
		<edge from-layer="2991" from-port="1" to-layer="2994" to-port="0" />
		<edge from-layer="2992" from-port="0" to-layer="2993" to-port="0" />
		<edge from-layer="2993" from-port="1" to-layer="2994" to-port="1" />
		<edge from-layer="2994" from-port="2" to-layer="2995" to-port="1" />
		<edge from-layer="2995" from-port="2" to-layer="2998" to-port="0" />
		<edge from-layer="2996" from-port="0" to-layer="2997" to-port="0" />
		<edge from-layer="2997" from-port="1" to-layer="2998" to-port="1" />
		<edge from-layer="2998" from-port="2" to-layer="2999" to-port="0" />
		<edge from-layer="2999" from-port="1" to-layer="3008" to-port="0" />
		<edge from-layer="3000" from-port="0" to-layer="3001" to-port="0" />
		<edge from-layer="3001" from-port="1" to-layer="3008" to-port="1" />
		<edge from-layer="3002" from-port="0" to-layer="3003" to-port="0" />
		<edge from-layer="3003" from-port="1" to-layer="3008" to-port="2" />
		<edge from-layer="3004" from-port="0" to-layer="3005" to-port="0" />
		<edge from-layer="3005" from-port="1" to-layer="3008" to-port="3" />
		<edge from-layer="3006" from-port="0" to-layer="3007" to-port="0" />
		<edge from-layer="3007" from-port="1" to-layer="3008" to-port="4" />
		<edge from-layer="3008" from-port="5" to-layer="3014" to-port="0" />
		<edge from-layer="3009" from-port="0" to-layer="3010" to-port="0" />
		<edge from-layer="3010" from-port="1" to-layer="3013" to-port="0" />
		<edge from-layer="3011" from-port="0" to-layer="3012" to-port="0" />
		<edge from-layer="3012" from-port="1" to-layer="3013" to-port="1" />
		<edge from-layer="3013" from-port="2" to-layer="3014" to-port="1" />
		<edge from-layer="3014" from-port="2" to-layer="3017" to-port="0" />
		<edge from-layer="3015" from-port="0" to-layer="3016" to-port="0" />
		<edge from-layer="3016" from-port="1" to-layer="3017" to-port="1" />
		<edge from-layer="3017" from-port="2" to-layer="3065" to-port="0" />
		<edge from-layer="3018" from-port="0" to-layer="3019" to-port="0" />
		<edge from-layer="3019" from-port="1" to-layer="3022" to-port="0" />
		<edge from-layer="3020" from-port="0" to-layer="3021" to-port="0" />
		<edge from-layer="3021" from-port="1" to-layer="3022" to-port="1" />
		<edge from-layer="3022" from-port="2" to-layer="3023" to-port="1" />
		<edge from-layer="3023" from-port="2" to-layer="3026" to-port="0" />
		<edge from-layer="3024" from-port="0" to-layer="3025" to-port="0" />
		<edge from-layer="3025" from-port="1" to-layer="3026" to-port="1" />
		<edge from-layer="3026" from-port="2" to-layer="3027" to-port="0" />
		<edge from-layer="3027" from-port="1" to-layer="3036" to-port="0" />
		<edge from-layer="3028" from-port="0" to-layer="3029" to-port="0" />
		<edge from-layer="3029" from-port="1" to-layer="3036" to-port="1" />
		<edge from-layer="3030" from-port="0" to-layer="3031" to-port="0" />
		<edge from-layer="3031" from-port="1" to-layer="3036" to-port="2" />
		<edge from-layer="3032" from-port="0" to-layer="3033" to-port="0" />
		<edge from-layer="3033" from-port="1" to-layer="3036" to-port="3" />
		<edge from-layer="3034" from-port="0" to-layer="3035" to-port="0" />
		<edge from-layer="3035" from-port="1" to-layer="3036" to-port="4" />
		<edge from-layer="3036" from-port="5" to-layer="3042" to-port="0" />
		<edge from-layer="3037" from-port="0" to-layer="3038" to-port="0" />
		<edge from-layer="3038" from-port="1" to-layer="3041" to-port="0" />
		<edge from-layer="3039" from-port="0" to-layer="3040" to-port="0" />
		<edge from-layer="3040" from-port="1" to-layer="3041" to-port="1" />
		<edge from-layer="3041" from-port="2" to-layer="3042" to-port="1" />
		<edge from-layer="3042" from-port="2" to-layer="3045" to-port="0" />
		<edge from-layer="3043" from-port="0" to-layer="3044" to-port="0" />
		<edge from-layer="3044" from-port="1" to-layer="3045" to-port="1" />
		<edge from-layer="3045" from-port="2" to-layer="3046" to-port="0" />
		<edge from-layer="3046" from-port="1" to-layer="3055" to-port="0" />
		<edge from-layer="3047" from-port="0" to-layer="3048" to-port="0" />
		<edge from-layer="3048" from-port="1" to-layer="3055" to-port="1" />
		<edge from-layer="3049" from-port="0" to-layer="3050" to-port="0" />
		<edge from-layer="3050" from-port="1" to-layer="3055" to-port="2" />
		<edge from-layer="3051" from-port="0" to-layer="3052" to-port="0" />
		<edge from-layer="3052" from-port="1" to-layer="3055" to-port="3" />
		<edge from-layer="3053" from-port="0" to-layer="3054" to-port="0" />
		<edge from-layer="3054" from-port="1" to-layer="3055" to-port="4" />
		<edge from-layer="3055" from-port="5" to-layer="3061" to-port="0" />
		<edge from-layer="3056" from-port="0" to-layer="3057" to-port="0" />
		<edge from-layer="3057" from-port="1" to-layer="3060" to-port="0" />
		<edge from-layer="3058" from-port="0" to-layer="3059" to-port="0" />
		<edge from-layer="3059" from-port="1" to-layer="3060" to-port="1" />
		<edge from-layer="3060" from-port="2" to-layer="3061" to-port="1" />
		<edge from-layer="3061" from-port="2" to-layer="3064" to-port="0" />
		<edge from-layer="3062" from-port="0" to-layer="3063" to-port="0" />
		<edge from-layer="3063" from-port="1" to-layer="3064" to-port="1" />
		<edge from-layer="3064" from-port="2" to-layer="3065" to-port="1" />
		<edge from-layer="3065" from-port="2" to-layer="3173" to-port="0" />
		<edge from-layer="3065" from-port="2" to-layer="3066" to-port="0" />
		<edge from-layer="3067" from-port="0" to-layer="3068" to-port="0" />
		<edge from-layer="3068" from-port="1" to-layer="3071" to-port="0" />
		<edge from-layer="3069" from-port="0" to-layer="3070" to-port="0" />
		<edge from-layer="3070" from-port="1" to-layer="3071" to-port="1" />
		<edge from-layer="3071" from-port="2" to-layer="3072" to-port="1" />
		<edge from-layer="3072" from-port="2" to-layer="3075" to-port="0" />
		<edge from-layer="3073" from-port="0" to-layer="3074" to-port="0" />
		<edge from-layer="3074" from-port="1" to-layer="3075" to-port="1" />
		<edge from-layer="3075" from-port="2" to-layer="3076" to-port="0" />
		<edge from-layer="3076" from-port="1" to-layer="3085" to-port="0" />
		<edge from-layer="3077" from-port="0" to-layer="3078" to-port="0" />
		<edge from-layer="3078" from-port="1" to-layer="3085" to-port="1" />
		<edge from-layer="3079" from-port="0" to-layer="3080" to-port="0" />
		<edge from-layer="3080" from-port="1" to-layer="3085" to-port="2" />
		<edge from-layer="3081" from-port="0" to-layer="3082" to-port="0" />
		<edge from-layer="3082" from-port="1" to-layer="3085" to-port="3" />
		<edge from-layer="3083" from-port="0" to-layer="3084" to-port="0" />
		<edge from-layer="3084" from-port="1" to-layer="3085" to-port="4" />
		<edge from-layer="3085" from-port="5" to-layer="3091" to-port="0" />
		<edge from-layer="3086" from-port="0" to-layer="3087" to-port="0" />
		<edge from-layer="3087" from-port="1" to-layer="3090" to-port="0" />
		<edge from-layer="3088" from-port="0" to-layer="3089" to-port="0" />
		<edge from-layer="3089" from-port="1" to-layer="3090" to-port="1" />
		<edge from-layer="3090" from-port="2" to-layer="3091" to-port="1" />
		<edge from-layer="3091" from-port="2" to-layer="3094" to-port="0" />
		<edge from-layer="3092" from-port="0" to-layer="3093" to-port="0" />
		<edge from-layer="3093" from-port="1" to-layer="3094" to-port="1" />
		<edge from-layer="3094" from-port="2" to-layer="3095" to-port="0" />
		<edge from-layer="3095" from-port="1" to-layer="3104" to-port="0" />
		<edge from-layer="3096" from-port="0" to-layer="3097" to-port="0" />
		<edge from-layer="3097" from-port="1" to-layer="3104" to-port="1" />
		<edge from-layer="3098" from-port="0" to-layer="3099" to-port="0" />
		<edge from-layer="3099" from-port="1" to-layer="3104" to-port="2" />
		<edge from-layer="3100" from-port="0" to-layer="3101" to-port="0" />
		<edge from-layer="3101" from-port="1" to-layer="3104" to-port="3" />
		<edge from-layer="3102" from-port="0" to-layer="3103" to-port="0" />
		<edge from-layer="3103" from-port="1" to-layer="3104" to-port="4" />
		<edge from-layer="3104" from-port="5" to-layer="3110" to-port="0" />
		<edge from-layer="3105" from-port="0" to-layer="3106" to-port="0" />
		<edge from-layer="3106" from-port="1" to-layer="3109" to-port="0" />
		<edge from-layer="3107" from-port="0" to-layer="3108" to-port="0" />
		<edge from-layer="3108" from-port="1" to-layer="3109" to-port="1" />
		<edge from-layer="3109" from-port="2" to-layer="3110" to-port="1" />
		<edge from-layer="3110" from-port="2" to-layer="3113" to-port="0" />
		<edge from-layer="3111" from-port="0" to-layer="3112" to-port="0" />
		<edge from-layer="3112" from-port="1" to-layer="3113" to-port="1" />
		<edge from-layer="3113" from-port="2" to-layer="3161" to-port="0" />
		<edge from-layer="3114" from-port="0" to-layer="3115" to-port="0" />
		<edge from-layer="3115" from-port="1" to-layer="3118" to-port="0" />
		<edge from-layer="3116" from-port="0" to-layer="3117" to-port="0" />
		<edge from-layer="3117" from-port="1" to-layer="3118" to-port="1" />
		<edge from-layer="3118" from-port="2" to-layer="3119" to-port="1" />
		<edge from-layer="3119" from-port="2" to-layer="3122" to-port="0" />
		<edge from-layer="3120" from-port="0" to-layer="3121" to-port="0" />
		<edge from-layer="3121" from-port="1" to-layer="3122" to-port="1" />
		<edge from-layer="3122" from-port="2" to-layer="3123" to-port="0" />
		<edge from-layer="3123" from-port="1" to-layer="3132" to-port="0" />
		<edge from-layer="3124" from-port="0" to-layer="3125" to-port="0" />
		<edge from-layer="3125" from-port="1" to-layer="3132" to-port="1" />
		<edge from-layer="3126" from-port="0" to-layer="3127" to-port="0" />
		<edge from-layer="3127" from-port="1" to-layer="3132" to-port="2" />
		<edge from-layer="3128" from-port="0" to-layer="3129" to-port="0" />
		<edge from-layer="3129" from-port="1" to-layer="3132" to-port="3" />
		<edge from-layer="3130" from-port="0" to-layer="3131" to-port="0" />
		<edge from-layer="3131" from-port="1" to-layer="3132" to-port="4" />
		<edge from-layer="3132" from-port="5" to-layer="3138" to-port="0" />
		<edge from-layer="3133" from-port="0" to-layer="3134" to-port="0" />
		<edge from-layer="3134" from-port="1" to-layer="3137" to-port="0" />
		<edge from-layer="3135" from-port="0" to-layer="3136" to-port="0" />
		<edge from-layer="3136" from-port="1" to-layer="3137" to-port="1" />
		<edge from-layer="3137" from-port="2" to-layer="3138" to-port="1" />
		<edge from-layer="3138" from-port="2" to-layer="3141" to-port="0" />
		<edge from-layer="3139" from-port="0" to-layer="3140" to-port="0" />
		<edge from-layer="3140" from-port="1" to-layer="3141" to-port="1" />
		<edge from-layer="3141" from-port="2" to-layer="3142" to-port="0" />
		<edge from-layer="3142" from-port="1" to-layer="3151" to-port="0" />
		<edge from-layer="3143" from-port="0" to-layer="3144" to-port="0" />
		<edge from-layer="3144" from-port="1" to-layer="3151" to-port="1" />
		<edge from-layer="3145" from-port="0" to-layer="3146" to-port="0" />
		<edge from-layer="3146" from-port="1" to-layer="3151" to-port="2" />
		<edge from-layer="3147" from-port="0" to-layer="3148" to-port="0" />
		<edge from-layer="3148" from-port="1" to-layer="3151" to-port="3" />
		<edge from-layer="3149" from-port="0" to-layer="3150" to-port="0" />
		<edge from-layer="3150" from-port="1" to-layer="3151" to-port="4" />
		<edge from-layer="3151" from-port="5" to-layer="3157" to-port="0" />
		<edge from-layer="3152" from-port="0" to-layer="3153" to-port="0" />
		<edge from-layer="3153" from-port="1" to-layer="3156" to-port="0" />
		<edge from-layer="3154" from-port="0" to-layer="3155" to-port="0" />
		<edge from-layer="3155" from-port="1" to-layer="3156" to-port="1" />
		<edge from-layer="3156" from-port="2" to-layer="3157" to-port="1" />
		<edge from-layer="3157" from-port="2" to-layer="3160" to-port="0" />
		<edge from-layer="3158" from-port="0" to-layer="3159" to-port="0" />
		<edge from-layer="3159" from-port="1" to-layer="3160" to-port="1" />
		<edge from-layer="3160" from-port="2" to-layer="3161" to-port="1" />
		<edge from-layer="3161" from-port="2" to-layer="3162" to-port="0" />
		<edge from-layer="3161" from-port="2" to-layer="3172" to-port="0" />
		<edge from-layer="3163" from-port="0" to-layer="3164" to-port="0" />
		<edge from-layer="3164" from-port="1" to-layer="3223" to-port="0" />
		<edge from-layer="3164" from-port="1" to-layer="3233" to-port="0" />
		<edge from-layer="3165" from-port="1" to-layer="3168" to-port="0" />
		<edge from-layer="3166" from-port="0" to-layer="3168" to-port="1" />
		<edge from-layer="3167" from-port="0" to-layer="3168" to-port="2" />
		<edge from-layer="3168" from-port="3" to-layer="3171" to-port="0" />
		<edge from-layer="3169" from-port="0" to-layer="3171" to-port="1" />
		<edge from-layer="3170" from-port="0" to-layer="3171" to-port="2" />
		<edge from-layer="3171" from-port="3" to-layer="3172" to-port="1" />
		<edge from-layer="3171" from-port="3" to-layer="3173" to-port="1" />
		<edge from-layer="3171" from-port="3" to-layer="3174" to-port="1" />
		<edge from-layer="3172" from-port="2" to-layer="3175" to-port="0" />
		<edge from-layer="3173" from-port="2" to-layer="3175" to-port="1" />
		<edge from-layer="3174" from-port="2" to-layer="3175" to-port="2" />
		<edge from-layer="3175" from-port="3" to-layer="3178" to-port="0" />
		<edge from-layer="3176" from-port="0" to-layer="3178" to-port="1" />
		<edge from-layer="3176" from-port="0" to-layer="3222" to-port="1" />
		<edge from-layer="3177" from-port="0" to-layer="3178" to-port="2" />
		<edge from-layer="3178" from-port="3" to-layer="3182" to-port="0" />
		<edge from-layer="3178" from-port="4" to-layer="3270" to-port="0" />
		<edge from-layer="3178" from-port="3" to-layer="3187" to-port="0" />
		<edge from-layer="3179" from-port="0" to-layer="3186" to-port="0" />
		<edge from-layer="3180" from-port="0" to-layer="3186" to-port="1" />
		<edge from-layer="3181" from-port="0" to-layer="3186" to-port="2" />
		<edge from-layer="3182" from-port="1" to-layer="3185" to-port="0" />
		<edge from-layer="3182" from-port="1" to-layer="3217" to-port="0" />
		<edge from-layer="3183" from-port="0" to-layer="3185" to-port="1" />
		<edge from-layer="3184" from-port="0" to-layer="3185" to-port="2" />
		<edge from-layer="3185" from-port="3" to-layer="3186" to-port="3" />
		<edge from-layer="3185" from-port="3" to-layer="3219" to-port="2" />
		<edge from-layer="3186" from-port="4" to-layer="3187" to-port="1" />
		<edge from-layer="3187" from-port="2" to-layer="3189" to-port="0" />
		<edge from-layer="3188" from-port="0" to-layer="3189" to-port="1" />
		<edge from-layer="3189" from-port="2" to-layer="3190" to-port="0" />
		<edge from-layer="3190" from-port="1" to-layer="3199" to-port="0" />
		<edge from-layer="3191" from-port="0" to-layer="3192" to-port="0" />
		<edge from-layer="3192" from-port="1" to-layer="3199" to-port="1" />
		<edge from-layer="3193" from-port="0" to-layer="3194" to-port="0" />
		<edge from-layer="3194" from-port="1" to-layer="3199" to-port="2" />
		<edge from-layer="3195" from-port="0" to-layer="3196" to-port="0" />
		<edge from-layer="3196" from-port="1" to-layer="3199" to-port="3" />
		<edge from-layer="3197" from-port="0" to-layer="3198" to-port="0" />
		<edge from-layer="3198" from-port="1" to-layer="3199" to-port="4" />
		<edge from-layer="3199" from-port="5" to-layer="3205" to-port="0" />
		<edge from-layer="3200" from-port="0" to-layer="3201" to-port="0" />
		<edge from-layer="3201" from-port="1" to-layer="3204" to-port="0" />
		<edge from-layer="3202" from-port="0" to-layer="3203" to-port="0" />
		<edge from-layer="3203" from-port="1" to-layer="3204" to-port="1" />
		<edge from-layer="3204" from-port="2" to-layer="3205" to-port="1" />
		<edge from-layer="3205" from-port="2" to-layer="3214" to-port="0" />
		<edge from-layer="3206" from-port="0" to-layer="3207" to-port="0" />
		<edge from-layer="3207" from-port="1" to-layer="3214" to-port="1" />
		<edge from-layer="3208" from-port="0" to-layer="3209" to-port="0" />
		<edge from-layer="3209" from-port="1" to-layer="3214" to-port="2" />
		<edge from-layer="3210" from-port="0" to-layer="3211" to-port="0" />
		<edge from-layer="3211" from-port="1" to-layer="3214" to-port="3" />
		<edge from-layer="3212" from-port="0" to-layer="3213" to-port="0" />
		<edge from-layer="3213" from-port="1" to-layer="3214" to-port="4" />
		<edge from-layer="3214" from-port="5" to-layer="3220" to-port="0" />
		<edge from-layer="3215" from-port="0" to-layer="3217" to-port="1" />
		<edge from-layer="3216" from-port="0" to-layer="3217" to-port="2" />
		<edge from-layer="3217" from-port="3" to-layer="3219" to-port="0" />
		<edge from-layer="3218" from-port="0" to-layer="3219" to-port="1" />
		<edge from-layer="3219" from-port="3" to-layer="3220" to-port="1" />
		<edge from-layer="3220" from-port="2" to-layer="3222" to-port="0" />
		<edge from-layer="3221" from-port="0" to-layer="3222" to-port="2" />
		<edge from-layer="3222" from-port="3" to-layer="3223" to-port="1" />
		<edge from-layer="3222" from-port="4" to-layer="3233" to-port="1" />
		<edge from-layer="3223" from-port="2" to-layer="3232" to-port="0" />
		<edge from-layer="3224" from-port="0" to-layer="3225" to-port="0" />
		<edge from-layer="3225" from-port="1" to-layer="3232" to-port="1" />
		<edge from-layer="3226" from-port="0" to-layer="3227" to-port="0" />
		<edge from-layer="3227" from-port="1" to-layer="3232" to-port="2" />
		<edge from-layer="3228" from-port="0" to-layer="3229" to-port="0" />
		<edge from-layer="3229" from-port="1" to-layer="3232" to-port="3" />
		<edge from-layer="3230" from-port="0" to-layer="3231" to-port="0" />
		<edge from-layer="3231" from-port="1" to-layer="3232" to-port="4" />
		<edge from-layer="3232" from-port="5" to-layer="3243" to-port="0" />
		<edge from-layer="3232" from-port="5" to-layer="3256" to-port="1" />
		<edge from-layer="3233" from-port="2" to-layer="3242" to-port="0" />
		<edge from-layer="3234" from-port="0" to-layer="3235" to-port="0" />
		<edge from-layer="3235" from-port="1" to-layer="3242" to-port="1" />
		<edge from-layer="3236" from-port="0" to-layer="3237" to-port="0" />
		<edge from-layer="3237" from-port="1" to-layer="3242" to-port="2" />
		<edge from-layer="3238" from-port="0" to-layer="3239" to-port="0" />
		<edge from-layer="3239" from-port="1" to-layer="3242" to-port="3" />
		<edge from-layer="3240" from-port="0" to-layer="3241" to-port="0" />
		<edge from-layer="3241" from-port="1" to-layer="3242" to-port="4" />
		<edge from-layer="3242" from-port="5" to-layer="3243" to-port="1" />
		<edge from-layer="3242" from-port="5" to-layer="3256" to-port="0" />
		<edge from-layer="3243" from-port="2" to-layer="3246" to-port="0" />
		<edge from-layer="3244" from-port="0" to-layer="3245" to-port="0" />
		<edge from-layer="3245" from-port="1" to-layer="3246" to-port="1" />
		<edge from-layer="3246" from-port="2" to-layer="3255" to-port="0" />
		<edge from-layer="3247" from-port="0" to-layer="3248" to-port="0" />
		<edge from-layer="3248" from-port="1" to-layer="3255" to-port="1" />
		<edge from-layer="3249" from-port="0" to-layer="3250" to-port="0" />
		<edge from-layer="3250" from-port="1" to-layer="3255" to-port="2" />
		<edge from-layer="3251" from-port="0" to-layer="3252" to-port="0" />
		<edge from-layer="3252" from-port="1" to-layer="3255" to-port="3" />
		<edge from-layer="3253" from-port="0" to-layer="3254" to-port="0" />
		<edge from-layer="3254" from-port="1" to-layer="3255" to-port="4" />
		<edge from-layer="3255" from-port="5" to-layer="3266" to-port="0" />
		<edge from-layer="3256" from-port="2" to-layer="3265" to-port="0" />
		<edge from-layer="3257" from-port="0" to-layer="3258" to-port="0" />
		<edge from-layer="3258" from-port="1" to-layer="3265" to-port="1" />
		<edge from-layer="3259" from-port="0" to-layer="3260" to-port="0" />
		<edge from-layer="3260" from-port="1" to-layer="3265" to-port="2" />
		<edge from-layer="3261" from-port="0" to-layer="3262" to-port="0" />
		<edge from-layer="3262" from-port="1" to-layer="3265" to-port="3" />
		<edge from-layer="3263" from-port="0" to-layer="3264" to-port="0" />
		<edge from-layer="3264" from-port="1" to-layer="3265" to-port="4" />
		<edge from-layer="3265" from-port="5" to-layer="3266" to-port="1" />
		<edge from-layer="3266" from-port="2" to-layer="3269" to-port="0" />
		<edge from-layer="3267" from-port="0" to-layer="3268" to-port="0" />
		<edge from-layer="3268" from-port="1" to-layer="3269" to-port="1" />
		<edge from-layer="3269" from-port="2" to-layer="3271" to-port="0" />
		<edge from-layer="3270" from-port="1" to-layer="3271" to-port="1" />
		<edge from-layer="3271" from-port="2" to-layer="3272" to-port="0" />
	</edges>
	<rt_info>
		<Runtime_version value="2024.0.0-14509-34caeefd078-releases/2024/0" />
		<conversion_parameters>
			<framework value="pytorch" />
			<is_python_object value="True" />
		</conversion_parameters>
		<nncf>
			<friendly_names_were_updated value="True" />
			<quantization>
				<advanced_parameters value="{}" />
				<fast_bias_correction value="True" />
				<ignored_scope value="None" />
				<model_type value="None" />
				<preset value="QuantizationPreset.MIXED" />
				<subset_size value="300" />
				<target_device value="ANY" />
			</quantization>
		</nncf>
	</rt_info>
</net>
