<?xml version="1.0"?>
<net name="Model0" version="11">
	<layers>
		<layer id="3" name="input_ids" type="Parameter" version="opset1">
			<data shape="?,?" element_type="i64" />
			<output>
				<port id="0" precision="I64" names="input_ids">
					<dim>-1</dim>
					<dim>-1</dim>
				</port>
			</output>
		</layer>
		<layer id="2" name="attention_mask" type="Parameter" version="opset1">
			<data shape="?,?" element_type="i64" />
			<output>
				<port id="0" precision="I64" names="attention_mask">
					<dim>-1</dim>
					<dim>-1</dim>
				</port>
			</output>
		</layer>
		<layer id="1" name="position_ids" type="Parameter" version="opset1">
			<data shape="?,?" element_type="i64" />
			<output>
				<port id="0" precision="I64" names="position_ids">
					<dim>-1</dim>
					<dim>-1</dim>
				</port>
			</output>
		</layer>
		<layer id="0" name="beam_idx" type="Parameter" version="opset1">
			<data shape="?" element_type="i32" />
			<output>
				<port id="0" precision="I32" names="beam_idx">
					<dim>-1</dim>
				</port>
			</output>
		</layer>
		<layer id="4" name="Constant_124167" type="Const" version="opset1">
			<data element_type="f32" shape="" offset="0" size="4" />
			<output>
				<port id="0" precision="FP32" />
			</output>
		</layer>
		<layer id="5" name="ShapeOf_124153" type="ShapeOf" version="opset3">
			<data output_type="i64" />
			<input>
				<port id="0" precision="I64">
					<dim>-1</dim>
					<dim>-1</dim>
				</port>
			</input>
			<output>
				<port id="1" precision="I64">
					<dim>2</dim>
				</port>
			</output>
		</layer>
		<layer id="6" name="Constant_124155" type="Const" version="opset1">
			<data element_type="i32" shape="1" offset="0" size="4" />
			<output>
				<port id="0" precision="I32">
					<dim>1</dim>
				</port>
			</output>
		</layer>
		<layer id="7" name="Constant_124157" type="Const" version="opset1">
			<data element_type="i32" shape="" offset="0" size="4" />
			<output>
				<port id="0" precision="I32" />
			</output>
		</layer>
		<layer id="8" name="Gather_124158" type="Gather" version="opset8">
			<data batch_dims="0" />
			<input>
				<port id="0" precision="I64">
					<dim>2</dim>
				</port>
				<port id="1" precision="I32">
					<dim>1</dim>
				</port>
				<port id="2" precision="I32" />
			</input>
			<output>
				<port id="3" precision="I64">
					<dim>1</dim>
				</port>
			</output>
		</layer>
		<layer id="9" name="Constant_124160" type="Const" version="opset1">
			<data element_type="i64" shape="1" offset="4" size="8" />
			<output>
				<port id="0" precision="I64">
					<dim>1</dim>
				</port>
			</output>
		</layer>
		<layer id="10" name="Constant_124162" type="Const" version="opset1">
			<data element_type="i64" shape="1" offset="12" size="8" />
			<output>
				<port id="0" precision="I64">
					<dim>1</dim>
				</port>
			</output>
		</layer>
		<layer id="11" name="Constant_124164" type="Const" version="opset1">
			<data element_type="i64" shape="1" offset="20" size="8" />
			<output>
				<port id="0" precision="I64">
					<dim>1</dim>
				</port>
			</output>
		</layer>
		<layer id="12" name="Concat_124165" type="Concat" version="opset1">
			<data axis="0" />
			<input>
				<port id="0" precision="I64">
					<dim>1</dim>
				</port>
				<port id="1" precision="I64">
					<dim>1</dim>
				</port>
				<port id="2" precision="I64">
					<dim>1</dim>
				</port>
				<port id="3" precision="I64">
					<dim>1</dim>
				</port>
			</input>
			<output>
				<port id="4" precision="I64">
					<dim>4</dim>
				</port>
			</output>
		</layer>
		<layer id="13" name="Broadcast_124168" type="Broadcast" version="opset3">
			<data mode="numpy" />
			<input>
				<port id="0" precision="FP32" />
				<port id="1" precision="I64">
					<dim>4</dim>
				</port>
			</input>
			<output>
				<port id="2" precision="FP32">
					<dim>-1</dim>
					<dim>4</dim>
					<dim>0</dim>
					<dim>64</dim>
				</port>
			</output>
		</layer>
		<layer id="14" name="ReadValue_121994" type="ReadValue" version="opset6">
			<data variable_id="past_key_values.9.valuepresent.9.value" variable_type="f32" variable_shape="?,4,?,64" />
			<input>
				<port id="0" precision="FP32">
					<dim>-1</dim>
					<dim>4</dim>
					<dim>0</dim>
					<dim>64</dim>
				</port>
			</input>
			<output>
				<port id="1" precision="FP32" names="past_key_values.9.value">
					<dim>-1</dim>
					<dim>4</dim>
					<dim>-1</dim>
					<dim>64</dim>
				</port>
			</output>
		</layer>
		<layer id="15" name="Constant_119677" type="Const" version="opset1">
			<data element_type="i32" shape="" offset="0" size="4" />
			<output>
				<port id="0" precision="I32" />
			</output>
		</layer>
		<layer id="16" name="Gather_119678" type="Gather" version="opset8">
			<data batch_dims="0" />
			<input>
				<port id="0" precision="FP32">
					<dim>-1</dim>
					<dim>4</dim>
					<dim>-1</dim>
					<dim>64</dim>
				</port>
				<port id="1" precision="I32">
					<dim>-1</dim>
				</port>
				<port id="2" precision="I32" />
			</input>
			<output>
				<port id="3" precision="FP32">
					<dim>-1</dim>
					<dim>4</dim>
					<dim>-1</dim>
					<dim>64</dim>
				</port>
			</output>
		</layer>
		<layer id="17" name="Constant_111411" type="Const" version="opset1">
			<data element_type="f32" shape="1, 1, 2048" offset="28" size="8192" />
			<output>
				<port id="0" precision="FP32">
					<dim>1</dim>
					<dim>1</dim>
					<dim>2048</dim>
				</port>
			</output>
		</layer>
		<layer id="18" name="self.model.embed_tokens.weight" type="Const" version="opset1">
			<data element_type="u8" shape="32000, 2048" offset="8220" size="65536000" />
			<output>
				<port id="0" precision="U8">
					<dim>32000</dim>
					<dim>2048</dim>
				</port>
			</output>
		</layer>
		<layer id="19" name="Convert_127022" type="Convert" version="opset1">
			<data destination_type="f32" />
			<input>
				<port id="0" precision="U8">
					<dim>32000</dim>
					<dim>2048</dim>
				</port>
			</input>
			<output>
				<port id="1" precision="FP32">
					<dim>32000</dim>
					<dim>2048</dim>
				</port>
			</output>
		</layer>
		<layer id="20" name="self.model.embed_tokens.weight/zero_point" type="Const" version="opset1">
			<data element_type="u8" shape="32000, 1" offset="65544220" size="32000" />
			<output>
				<port id="0" precision="U8">
					<dim>32000</dim>
					<dim>1</dim>
				</port>
			</output>
		</layer>
		<layer id="21" name="Convert_127025" type="Convert" version="opset1">
			<data destination_type="f32" />
			<input>
				<port id="0" precision="U8">
					<dim>32000</dim>
					<dim>1</dim>
				</port>
			</input>
			<output>
				<port id="1" precision="FP32">
					<dim>32000</dim>
					<dim>1</dim>
				</port>
			</output>
		</layer>
		<layer id="22" name="Subtract_127026" type="Subtract" version="opset1">
			<data auto_broadcast="numpy" />
			<input>
				<port id="0" precision="FP32">
					<dim>32000</dim>
					<dim>2048</dim>
				</port>
				<port id="1" precision="FP32">
					<dim>32000</dim>
					<dim>1</dim>
				</port>
			</input>
			<output>
				<port id="2" precision="FP32">
					<dim>32000</dim>
					<dim>2048</dim>
				</port>
			</output>
		</layer>
		<layer id="23" name="self.model.embed_tokens.weight/scale" type="Const" version="opset1">
			<data element_type="f16" shape="32000, 1" offset="65576220" size="64000" />
			<output>
				<port id="0" precision="FP16">
					<dim>32000</dim>
					<dim>1</dim>
				</port>
			</output>
		</layer>
		<layer id="24" name="self.model.embed_tokens.weight/scale_convert" type="Convert" version="opset1">
			<data destination_type="f32" />
			<input>
				<port id="0" precision="FP16">
					<dim>32000</dim>
					<dim>1</dim>
				</port>
			</input>
			<output>
				<port id="1" precision="FP32">
					<dim>32000</dim>
					<dim>1</dim>
				</port>
			</output>
		</layer>
		<layer id="25" name="self.model.embed_tokens.weight/fq_weights_0" type="Multiply" version="opset1">
			<data auto_broadcast="numpy" />
			<input>
				<port id="0" precision="FP32">
					<dim>32000</dim>
					<dim>2048</dim>
				</port>
				<port id="1" precision="FP32">
					<dim>32000</dim>
					<dim>1</dim>
				</port>
			</input>
			<output>
				<port id="2" precision="FP32">
					<dim>32000</dim>
					<dim>2048</dim>
				</port>
			</output>
		</layer>
		<layer id="26" name="__module.model.embed_tokens/aten::embedding/Convert" type="Convert" version="opset1">
			<data destination_type="i32" />
			<input>
				<port id="0" precision="I64">
					<dim>-1</dim>
					<dim>-1</dim>
				</port>
			</input>
			<output>
				<port id="1" precision="I32">
					<dim>-1</dim>
					<dim>-1</dim>
				</port>
			</output>
		</layer>
		<layer id="27" name="__module.model.embed_tokens/aten::embedding/Constant" type="Const" version="opset1">
			<data element_type="i32" shape="" offset="0" size="4" />
			<output>
				<port id="0" precision="I32" />
			</output>
		</layer>
		<layer id="28" name="__module.model.embed_tokens/aten::embedding/Gather" type="Gather" version="opset8">
			<data batch_dims="0" />
			<input>
				<port id="0" precision="FP32">
					<dim>32000</dim>
					<dim>2048</dim>
				</port>
				<port id="1" precision="I32">
					<dim>-1</dim>
					<dim>-1</dim>
				</port>
				<port id="2" precision="I32" />
			</input>
			<output>
				<port id="3" precision="FP32" names="220,268,279,hidden_states.1,inputs_embeds">
					<dim>-1</dim>
					<dim>-1</dim>
					<dim>2048</dim>
				</port>
			</output>
		</layer>
		<layer id="29" name="Constant_111319" type="Const" version="opset1">
			<data element_type="f32" shape="1, 1, 2048" offset="65640220" size="8192" />
			<output>
				<port id="0" precision="FP32">
					<dim>1</dim>
					<dim>1</dim>
					<dim>2048</dim>
				</port>
			</output>
		</layer>
		<layer id="30" name="Constant_111318" type="Const" version="opset1">
			<data element_type="f32" shape="1, 1, 1" offset="65648412" size="4" />
			<output>
				<port id="0" precision="FP32">
					<dim>1</dim>
					<dim>1</dim>
					<dim>1</dim>
				</port>
			</output>
		</layer>
		<layer id="31" name="Constant_111316" type="Const" version="opset1">
			<data element_type="f32" shape="1, 1, 1" offset="65648416" size="4" />
			<output>
				<port id="0" precision="FP32">
					<dim>1</dim>
					<dim>1</dim>
					<dim>1</dim>
				</port>
			</output>
		</layer>
		<layer id="32" name="__module.model.layers.0.input_layernorm/aten::pow/Power" type="Power" version="opset1">
			<data auto_broadcast="numpy" />
			<input>
				<port id="0" precision="FP32">
					<dim>-1</dim>
					<dim>-1</dim>
					<dim>2048</dim>
				</port>
				<port id="1" precision="FP32">
					<dim>1</dim>
					<dim>1</dim>
					<dim>1</dim>
				</port>
			</input>
			<output>
				<port id="2" precision="FP32" names="269">
					<dim>-1</dim>
					<dim>-1</dim>
					<dim>2048</dim>
				</port>
			</output>
		</layer>
		<layer id="33" name="Constant_289" type="Const" version="opset1">
			<data element_type="i64" shape="1" offset="65648420" size="8" />
			<output>
				<port id="0" precision="I64" names="270">
					<dim>1</dim>
				</port>
			</output>
		</layer>
		<layer id="34" name="__module.model.layers.0.input_layernorm/aten::mean/ReduceMean" type="ReduceMean" version="opset1">
			<data keep_dims="true" />
			<input>
				<port id="0" precision="FP32">
					<dim>-1</dim>
					<dim>-1</dim>
					<dim>2048</dim>
				</port>
				<port id="1" precision="I64">
					<dim>1</dim>
				</port>
			</input>
			<output>
				<port id="2" precision="FP32" names="271,variance.1">
					<dim>-1</dim>
					<dim>-1</dim>
					<dim>1</dim>
				</port>
			</output>
		</layer>
		<layer id="35" name="Constant_111317" type="Const" version="opset1">
			<data element_type="f32" shape="1, 1, 1" offset="65648428" size="4" />
			<output>
				<port id="0" precision="FP32">
					<dim>1</dim>
					<dim>1</dim>
					<dim>1</dim>
				</port>
			</output>
		</layer>
		<layer id="36" name="__module.model.layers.0.input_layernorm/aten::add/Add" type="Add" version="opset1">
			<data auto_broadcast="numpy" />
			<input>
				<port id="0" precision="FP32">
					<dim>-1</dim>
					<dim>-1</dim>
					<dim>1</dim>
				</port>
				<port id="1" precision="FP32">
					<dim>1</dim>
					<dim>1</dim>
					<dim>1</dim>
				</port>
			</input>
			<output>
				<port id="2" precision="FP32" names="272">
					<dim>-1</dim>
					<dim>-1</dim>
					<dim>1</dim>
				</port>
			</output>
		</layer>
		<layer id="37" name="__module.model.layers.0.input_layernorm/aten::rsqrt/Sqrt" type="Sqrt" version="opset1">
			<input>
				<port id="0" precision="FP32">
					<dim>-1</dim>
					<dim>-1</dim>
					<dim>1</dim>
				</port>
			</input>
			<output>
				<port id="1" precision="FP32">
					<dim>-1</dim>
					<dim>-1</dim>
					<dim>1</dim>
				</port>
			</output>
		</layer>
		<layer id="38" name="__module.model.layers.0.input_layernorm/aten::rsqrt/Divide" type="Divide" version="opset1">
			<data auto_broadcast="numpy" m_pythondiv="true" />
			<input>
				<port id="0" precision="FP32">
					<dim>1</dim>
					<dim>1</dim>
					<dim>1</dim>
				</port>
				<port id="1" precision="FP32">
					<dim>-1</dim>
					<dim>-1</dim>
					<dim>1</dim>
				</port>
			</input>
			<output>
				<port id="2" precision="FP32" names="273">
					<dim>-1</dim>
					<dim>-1</dim>
					<dim>1</dim>
				</port>
			</output>
		</layer>
		<layer id="39" name="__module.model.layers.0.input_layernorm/aten::mul/Multiply" type="Multiply" version="opset1">
			<data auto_broadcast="numpy" />
			<input>
				<port id="0" precision="FP32">
					<dim>-1</dim>
					<dim>-1</dim>
					<dim>2048</dim>
				</port>
				<port id="1" precision="FP32">
					<dim>-1</dim>
					<dim>-1</dim>
					<dim>1</dim>
				</port>
			</input>
			<output>
				<port id="2" precision="FP32" names="274,275,hidden_states.3,hidden_states.5">
					<dim>-1</dim>
					<dim>-1</dim>
					<dim>2048</dim>
				</port>
			</output>
		</layer>
		<layer id="40" name="__module.model.layers.0.input_layernorm/aten::mul/Multiply_1" type="Multiply" version="opset1">
			<data auto_broadcast="numpy" />
			<input>
				<port id="0" precision="FP32">
					<dim>1</dim>
					<dim>1</dim>
					<dim>2048</dim>
				</port>
				<port id="1" precision="FP32">
					<dim>-1</dim>
					<dim>-1</dim>
					<dim>2048</dim>
				</port>
			</input>
			<output>
				<port id="2" precision="FP32" names="276,278,hidden_states.7">
					<dim>-1</dim>
					<dim>-1</dim>
					<dim>2048</dim>
				</port>
			</output>
		</layer>
		<layer id="41" name="self.model.layers.0.self_attn.q_proj.weight" type="Const" version="opset1">
			<data element_type="u4" shape="2048, 16, 128" offset="65648432" size="2097152" />
			<output>
				<port id="0" precision="U4">
					<dim>2048</dim>
					<dim>16</dim>
					<dim>128</dim>
				</port>
			</output>
		</layer>
		<layer id="42" name="Convert_127054" type="Convert" version="opset1">
			<data destination_type="f32" />
			<input>
				<port id="0" precision="U4">
					<dim>2048</dim>
					<dim>16</dim>
					<dim>128</dim>
				</port>
			</input>
			<output>
				<port id="1" precision="FP32">
					<dim>2048</dim>
					<dim>16</dim>
					<dim>128</dim>
				</port>
			</output>
		</layer>
		<layer id="43" name="self.model.layers.0.self_attn.q_proj.weight/zero_point" type="Const" version="opset1">
			<data element_type="u4" shape="2048, 16, 1" offset="67745584" size="16384" />
			<output>
				<port id="0" precision="U4">
					<dim>2048</dim>
					<dim>16</dim>
					<dim>1</dim>
				</port>
			</output>
		</layer>
		<layer id="44" name="Convert_127056" type="Convert" version="opset1">
			<data destination_type="f32" />
			<input>
				<port id="0" precision="U4">
					<dim>2048</dim>
					<dim>16</dim>
					<dim>1</dim>
				</port>
			</input>
			<output>
				<port id="1" precision="FP32">
					<dim>2048</dim>
					<dim>16</dim>
					<dim>1</dim>
				</port>
			</output>
		</layer>
		<layer id="45" name="Subtract_127057" type="Subtract" version="opset1">
			<data auto_broadcast="numpy" />
			<input>
				<port id="0" precision="FP32">
					<dim>2048</dim>
					<dim>16</dim>
					<dim>128</dim>
				</port>
				<port id="1" precision="FP32">
					<dim>2048</dim>
					<dim>16</dim>
					<dim>1</dim>
				</port>
			</input>
			<output>
				<port id="2" precision="FP32">
					<dim>2048</dim>
					<dim>16</dim>
					<dim>128</dim>
				</port>
			</output>
		</layer>
		<layer id="46" name="self.model.layers.0.self_attn.q_proj.weight/scale" type="Const" version="opset1">
			<data element_type="f16" shape="2048, 16, 1" offset="67761968" size="65536" />
			<output>
				<port id="0" precision="FP16">
					<dim>2048</dim>
					<dim>16</dim>
					<dim>1</dim>
				</port>
			</output>
		</layer>
		<layer id="47" name="self.model.layers.0.self_attn.q_proj.weight/scale_convert" type="Convert" version="opset1">
			<data destination_type="f32" />
			<input>
				<port id="0" precision="FP16">
					<dim>2048</dim>
					<dim>16</dim>
					<dim>1</dim>
				</port>
			</input>
			<output>
				<port id="1" precision="FP32">
					<dim>2048</dim>
					<dim>16</dim>
					<dim>1</dim>
				</port>
			</output>
		</layer>
		<layer id="48" name="self.model.layers.0.self_attn.q_proj.weight/fq_weights_1" type="Multiply" version="opset1">
			<data auto_broadcast="numpy" />
			<input>
				<port id="0" precision="FP32">
					<dim>2048</dim>
					<dim>16</dim>
					<dim>128</dim>
				</port>
				<port id="1" precision="FP32">
					<dim>2048</dim>
					<dim>16</dim>
					<dim>1</dim>
				</port>
			</input>
			<output>
				<port id="2" precision="FP32">
					<dim>2048</dim>
					<dim>16</dim>
					<dim>128</dim>
				</port>
			</output>
		</layer>
		<layer id="49" name="Constant_127062" type="Const" version="opset1">
			<data element_type="i32" shape="2" offset="67827504" size="8" />
			<output>
				<port id="0" precision="I32">
					<dim>2</dim>
				</port>
			</output>
		</layer>
		<layer id="50" name="Reshape_127063" type="Reshape" version="opset1">
			<data special_zero="false" />
			<input>
				<port id="0" precision="FP32">
					<dim>2048</dim>
					<dim>16</dim>
					<dim>128</dim>
				</port>
				<port id="1" precision="I32">
					<dim>2</dim>
				</port>
			</input>
			<output>
				<port id="2" precision="FP32">
					<dim>2048</dim>
					<dim>2048</dim>
				</port>
			</output>
		</layer>
		<layer id="51" name="__module.model.layers.0.self_attn.q_proj/aten::linear/MatMul" type="MatMul" version="opset1">
			<data transpose_a="false" transpose_b="true" />
			<input>
				<port id="0" precision="FP32">
					<dim>-1</dim>
					<dim>-1</dim>
					<dim>2048</dim>
				</port>
				<port id="1" precision="FP32">
					<dim>2048</dim>
					<dim>2048</dim>
				</port>
			</input>
			<output>
				<port id="2" precision="FP32" names="288,query_states.1">
					<dim>-1</dim>
					<dim>-1</dim>
					<dim>2048</dim>
				</port>
			</output>
		</layer>
		<layer id="52" name="__module.model.layers.0.self_attn/aten::size/ShapeOf" type="ShapeOf" version="opset3">
			<data output_type="i64" />
			<input>
				<port id="0" precision="FP32">
					<dim>-1</dim>
					<dim>-1</dim>
					<dim>2048</dim>
				</port>
			</input>
			<output>
				<port id="1" precision="I64">
					<dim>3</dim>
				</port>
			</output>
		</layer>
		<layer id="53" name="Constant_93174" type="Const" version="opset1">
			<data element_type="i64" shape="2" offset="67827512" size="16" />
			<output>
				<port id="0" precision="I64">
					<dim>2</dim>
				</port>
			</output>
		</layer>
		<layer id="54" name="Constant_93175" type="Const" version="opset1">
			<data element_type="i64" shape="" offset="12" size="8" />
			<output>
				<port id="0" precision="I64" />
			</output>
		</layer>
		<layer id="55" name="Gather_93176" type="Gather" version="opset8">
			<data batch_dims="0" />
			<input>
				<port id="0" precision="I64">
					<dim>3</dim>
				</port>
				<port id="1" precision="I64">
					<dim>2</dim>
				</port>
				<port id="2" precision="I64" />
			</input>
			<output>
				<port id="3" precision="I64">
					<dim>2</dim>
				</port>
			</output>
		</layer>
		<layer id="56" name="__module.model.layers.0.self_attn/prim::ListConstruct/Reshape_1" type="Const" version="opset1">
			<data element_type="i64" shape="1" offset="67827528" size="8" />
			<output>
				<port id="0" precision="I64">
					<dim>1</dim>
				</port>
			</output>
		</layer>
		<layer id="57" name="__module.model.layers.0.self_attn/prim::ListConstruct/Reshape_2" type="Const" version="opset1">
			<data element_type="i64" shape="1" offset="20" size="8" />
			<output>
				<port id="0" precision="I64">
					<dim>1</dim>
				</port>
			</output>
		</layer>
		<layer id="58" name="__module.model.layers.0.self_attn/prim::ListConstruct/Concat" type="Concat" version="opset1">
			<data axis="0" />
			<input>
				<port id="0" precision="I64">
					<dim>2</dim>
				</port>
				<port id="1" precision="I64">
					<dim>1</dim>
				</port>
				<port id="2" precision="I64">
					<dim>1</dim>
				</port>
			</input>
			<output>
				<port id="3" precision="I64" names="293">
					<dim>4</dim>
				</port>
			</output>
		</layer>
		<layer id="59" name="__module.model.layers.0.self_attn/aten::view/Reshape" type="Reshape" version="opset1">
			<data special_zero="false" />
			<input>
				<port id="0" precision="FP32">
					<dim>-1</dim>
					<dim>-1</dim>
					<dim>2048</dim>
				</port>
				<port id="1" precision="I64">
					<dim>4</dim>
				</port>
			</input>
			<output>
				<port id="2" precision="FP32" names="294">
					<dim>-1</dim>
					<dim>-1</dim>
					<dim>32</dim>
					<dim>64</dim>
				</port>
			</output>
		</layer>
		<layer id="60" name="__module.model.layers.0.self_attn/aten::transpose/ScatterElementsUpdate" type="Const" version="opset1">
			<data element_type="i32" shape="4" offset="67827536" size="16" />
			<output>
				<port id="0" precision="I32">
					<dim>4</dim>
				</port>
			</output>
		</layer>
		<layer id="61" name="__module.model.layers.0.self_attn/aten::transpose/Transpose" type="Transpose" version="opset1">
			<input>
				<port id="0" precision="FP32">
					<dim>-1</dim>
					<dim>-1</dim>
					<dim>32</dim>
					<dim>64</dim>
				</port>
				<port id="1" precision="I32">
					<dim>4</dim>
				</port>
			</input>
			<output>
				<port id="2" precision="FP32" names="295,q.1">
					<dim>-1</dim>
					<dim>32</dim>
					<dim>-1</dim>
					<dim>64</dim>
				</port>
			</output>
		</layer>
		<layer id="62" name="__module.model.layers.0.self_attn.rotary_emb/aten::to/Convert" type="Const" version="opset1">
			<data element_type="f32" shape="1, 32, 1" offset="67827552" size="128" />
			<output>
				<port id="0" precision="FP32" names="306">
					<dim>1</dim>
					<dim>32</dim>
					<dim>1</dim>
				</port>
			</output>
		</layer>
		<layer id="63" name="__module.model.layers.0.self_attn.rotary_emb/aten::size/ShapeOf" type="ShapeOf" version="opset3">
			<data output_type="i64" />
			<input>
				<port id="0" precision="I64">
					<dim>-1</dim>
					<dim>-1</dim>
				</port>
			</input>
			<output>
				<port id="1" precision="I64">
					<dim>2</dim>
				</port>
			</output>
		</layer>
		<layer id="64" name="Constant_92581" type="Const" version="opset1">
			<data element_type="i64" shape="1" offset="12" size="8" />
			<output>
				<port id="0" precision="I64">
					<dim>1</dim>
				</port>
			</output>
		</layer>
		<layer id="65" name="__module.model.layers.0.self_attn.rotary_emb/aten::size/Constant" type="Const" version="opset1">
			<data element_type="i32" shape="" offset="0" size="4" />
			<output>
				<port id="0" precision="I32" />
			</output>
		</layer>
		<layer id="66" name="__module.model.layers.0.self_attn.rotary_emb/aten::size/Gather" type="Gather" version="opset8">
			<data batch_dims="0" />
			<input>
				<port id="0" precision="I64">
					<dim>2</dim>
				</port>
				<port id="1" precision="I64">
					<dim>1</dim>
				</port>
				<port id="2" precision="I32" />
			</input>
			<output>
				<port id="3" precision="I64" names="1030,1210,1390,1570,1750,1930,2110,2290,2470,2650,2830,3010,307,3190,3370,3550,3730,3910,4090,490,670,850">
					<dim>1</dim>
				</port>
			</output>
		</layer>
		<layer id="67" name="__module.model.layers.0.self_attn.rotary_emb/prim::ListConstruct/Reshape_0" type="Const" version="opset1">
			<data element_type="i64" shape="1" offset="65648420" size="8" />
			<output>
				<port id="0" precision="I64">
					<dim>1</dim>
				</port>
			</output>
		</layer>
		<layer id="68" name="__module.model.layers.0.self_attn.rotary_emb/prim::ListConstruct/Reshape_1" type="Const" version="opset1">
			<data element_type="i64" shape="1" offset="67827680" size="8" />
			<output>
				<port id="0" precision="I64">
					<dim>1</dim>
				</port>
			</output>
		</layer>
		<layer id="69" name="__module.model.layers.0.self_attn.rotary_emb/prim::ListConstruct/Concat" type="Concat" version="opset1">
			<data axis="0" />
			<input>
				<port id="0" precision="I64">
					<dim>1</dim>
				</port>
				<port id="1" precision="I64">
					<dim>1</dim>
				</port>
				<port id="2" precision="I64">
					<dim>1</dim>
				</port>
			</input>
			<output>
				<port id="3" precision="I64" names="1031,1211,1391,1571,1751,1931,2111,2291,2471,2651,2831,3011,308,3191,3371,3551,3731,3911,4091,491,671,851">
					<dim>3</dim>
				</port>
			</output>
		</layer>
		<layer id="70" name="__module.model.layers.0.self_attn.rotary_emb/aten::expand/Abs" type="Abs" version="opset1">
			<input>
				<port id="0" precision="I64">
					<dim>3</dim>
				</port>
			</input>
			<output>
				<port id="1" precision="I64">
					<dim>3</dim>
				</port>
			</output>
		</layer>
		<layer id="71" name="__module.model.layers.0.self_attn.rotary_emb/aten::expand/Broadcast" type="Broadcast" version="opset3">
			<data mode="bidirectional" />
			<input>
				<port id="0" precision="FP32">
					<dim>1</dim>
					<dim>32</dim>
					<dim>1</dim>
				</port>
				<port id="1" precision="I64">
					<dim>3</dim>
				</port>
			</input>
			<output>
				<port id="2" precision="FP32" names="309,314,inv_freq_expanded.1,inv_freq_expanded.3">
					<dim>-1</dim>
					<dim>32</dim>
					<dim>-1</dim>
				</port>
			</output>
		</layer>
		<layer id="72" name="168" type="Const" version="opset1">
			<data element_type="i64" shape="" offset="67827680" size="8" />
			<output>
				<port id="0" precision="I64" names="168" />
			</output>
		</layer>
		<layer id="73" name="__module.model.layers.0.self_attn.rotary_emb/aten::unsqueeze/Unsqueeze" type="Unsqueeze" version="opset1">
			<input>
				<port id="0" precision="I64">
					<dim>-1</dim>
					<dim>-1</dim>
				</port>
				<port id="1" precision="I64" />
			</input>
			<output>
				<port id="2" precision="I64" names="1034,1035,1214,1215,1394,1395,1574,1575,1754,1755,1934,1935,2114,2115,2294,2295,2474,2475,2654,2655,2834,2835,3014,3015,311,312,3194,3195,3374,3375,3554,3555,3734,3735,3914,3915,4094,4095,494,495,674,675,854,855">
					<dim>-1</dim>
					<dim>1</dim>
					<dim>-1</dim>
				</port>
			</output>
		</layer>
		<layer id="74" name="__module.model.layers.0.self_attn.rotary_emb/aten::to/Convert_2" type="Convert" version="opset1">
			<data destination_type="f32" />
			<input>
				<port id="0" precision="I64">
					<dim>-1</dim>
					<dim>1</dim>
					<dim>-1</dim>
				</port>
			</input>
			<output>
				<port id="1" precision="FP32" names="1036,1038,1216,1218,1396,1398,1576,1578,1756,1758,1936,1938,2116,2118,2296,2298,2476,2478,2656,2658,2836,2838,3016,3018,313,315,3196,3198,3376,3378,3556,3558,3736,3738,3916,3918,4096,4098,496,498,676,678,856,858,position_ids_expanded,position_ids_expanded.1,position_ids_expanded.11,position_ids_expanded.13,position_ids_expanded.15,position_ids_expanded.17,position_ids_expanded.19,position_ids_expanded.21,position_ids_expanded.23,position_ids_expanded.25,position_ids_expanded.27,position_ids_expanded.29,position_ids_expanded.3,position_ids_expanded.31,position_ids_expanded.33,position_ids_expanded.35,position_ids_expanded.37,position_ids_expanded.39,position_ids_expanded.41,position_ids_expanded.43,position_ids_expanded.45,position_ids_expanded.47,position_ids_expanded.49,position_ids_expanded.5,position_ids_expanded.51,position_ids_expanded.53,position_ids_expanded.55,position_ids_expanded.57,position_ids_expanded.59,position_ids_expanded.61,position_ids_expanded.63,position_ids_expanded.65,position_ids_expanded.67,position_ids_expanded.69,position_ids_expanded.7,position_ids_expanded.71,position_ids_expanded.73,position_ids_expanded.75,position_ids_expanded.77,position_ids_expanded.79,position_ids_expanded.81,position_ids_expanded.83,position_ids_expanded.85,position_ids_expanded.9">
					<dim>-1</dim>
					<dim>1</dim>
					<dim>-1</dim>
				</port>
			</output>
		</layer>
		<layer id="75" name="__module.model.layers.0.self_attn.rotary_emb/aten::matmul/MatMul" type="MatMul" version="opset1">
			<data transpose_a="false" transpose_b="false" />
			<input>
				<port id="0" precision="FP32">
					<dim>-1</dim>
					<dim>32</dim>
					<dim>-1</dim>
				</port>
				<port id="1" precision="FP32">
					<dim>-1</dim>
					<dim>1</dim>
					<dim>-1</dim>
				</port>
			</input>
			<output>
				<port id="2" precision="FP32" names="316">
					<dim>-1</dim>
					<dim>32</dim>
					<dim>-1</dim>
				</port>
			</output>
		</layer>
		<layer id="76" name="__module.model.layers.0.self_attn.rotary_emb/aten::transpose/ScatterElementsUpdate" type="Const" version="opset1">
			<data element_type="i32" shape="3" offset="67827688" size="12" />
			<output>
				<port id="0" precision="I32">
					<dim>3</dim>
				</port>
			</output>
		</layer>
		<layer id="77" name="__module.model.layers.0.self_attn.rotary_emb/aten::transpose/Transpose" type="Transpose" version="opset1">
			<input>
				<port id="0" precision="FP32">
					<dim>-1</dim>
					<dim>32</dim>
					<dim>-1</dim>
				</port>
				<port id="1" precision="I32">
					<dim>3</dim>
				</port>
			</input>
			<output>
				<port id="2" precision="FP32" names="317">
					<dim>-1</dim>
					<dim>-1</dim>
					<dim>32</dim>
				</port>
			</output>
		</layer>
		<layer id="78" name="__module.model.layers.0.self_attn.rotary_emb/aten::cat/Concat" type="Concat" version="opset1">
			<data axis="-1" />
			<input>
				<port id="0" precision="FP32">
					<dim>-1</dim>
					<dim>-1</dim>
					<dim>32</dim>
				</port>
				<port id="1" precision="FP32">
					<dim>-1</dim>
					<dim>-1</dim>
					<dim>32</dim>
				</port>
			</input>
			<output>
				<port id="2" precision="FP32" names="319,emb.1">
					<dim>-1</dim>
					<dim>-1</dim>
					<dim>64</dim>
				</port>
			</output>
		</layer>
		<layer id="79" name="__module.model.layers.0.self_attn.rotary_emb/aten::cos/Cos" type="Cos" version="opset1">
			<input>
				<port id="0" precision="FP32">
					<dim>-1</dim>
					<dim>-1</dim>
					<dim>64</dim>
				</port>
			</input>
			<output>
				<port id="1" precision="FP32" names="320,322,325,cos.1,cos.3">
					<dim>-1</dim>
					<dim>-1</dim>
					<dim>64</dim>
				</port>
			</output>
		</layer>
		<layer id="80" name="__module.model.layers.0.self_attn/aten::unsqueeze/Unsqueeze" type="Unsqueeze" version="opset1">
			<input>
				<port id="0" precision="FP32">
					<dim>-1</dim>
					<dim>-1</dim>
					<dim>64</dim>
				</port>
				<port id="1" precision="I64" />
			</input>
			<output>
				<port id="2" precision="FP32" names="327,cos.5">
					<dim>-1</dim>
					<dim>1</dim>
					<dim>-1</dim>
					<dim>64</dim>
				</port>
			</output>
		</layer>
		<layer id="81" name="__module.model.layers.0.self_attn/aten::mul/Multiply" type="Multiply" version="opset1">
			<data auto_broadcast="numpy" />
			<input>
				<port id="0" precision="FP32">
					<dim>-1</dim>
					<dim>32</dim>
					<dim>-1</dim>
					<dim>64</dim>
				</port>
				<port id="1" precision="FP32">
					<dim>-1</dim>
					<dim>1</dim>
					<dim>-1</dim>
					<dim>64</dim>
				</port>
			</input>
			<output>
				<port id="2" precision="FP32" names="329">
					<dim>-1</dim>
					<dim>32</dim>
					<dim>-1</dim>
					<dim>64</dim>
				</port>
			</output>
		</layer>
		<layer id="82" name="Constant_96056" type="Const" version="opset1">
			<data element_type="i64" shape="4" offset="67827700" size="32" />
			<output>
				<port id="0" precision="I64">
					<dim>4</dim>
				</port>
			</output>
		</layer>
		<layer id="83" name="Constant_96055" type="Const" version="opset1">
			<data element_type="i64" shape="1" offset="67827732" size="8" />
			<output>
				<port id="0" precision="I64">
					<dim>1</dim>
				</port>
			</output>
		</layer>
		<layer id="84" name="__module.model.layers.0.self_attn/aten::size/ShapeOf_3" type="ShapeOf" version="opset3">
			<data output_type="i64" />
			<input>
				<port id="0" precision="FP32">
					<dim>-1</dim>
					<dim>32</dim>
					<dim>-1</dim>
					<dim>64</dim>
				</port>
			</input>
			<output>
				<port id="1" precision="I64">
					<dim>4</dim>
				</port>
			</output>
		</layer>
		<layer id="85" name="161" type="Const" version="opset1">
			<data element_type="i64" shape="" offset="67827732" size="8" />
			<output>
				<port id="0" precision="I64" names="161" />
			</output>
		</layer>
		<layer id="86" name="__module.model.layers.0.self_attn/aten::size/Constant_3" type="Const" version="opset1">
			<data element_type="i32" shape="" offset="0" size="4" />
			<output>
				<port id="0" precision="I32" />
			</output>
		</layer>
		<layer id="87" name="__module.model.layers.0.self_attn/aten::size/Gather_3" type="Gather" version="opset8">
			<data batch_dims="0" />
			<input>
				<port id="0" precision="I64">
					<dim>4</dim>
				</port>
				<port id="1" precision="I64" />
				<port id="2" precision="I32" />
			</input>
			<output>
				<port id="3" precision="I64" names="330,335" />
			</output>
		</layer>
		<layer id="88" name="Constant_37" type="Const" version="opset1">
			<data element_type="i64" shape="" offset="67827740" size="8" />
			<output>
				<port id="0" precision="I64" names="155" />
			</output>
		</layer>
		<layer id="89" name="__module.model.layers.0.self_attn/aten::floor_divide/Divide_1" type="Divide" version="opset1">
			<data auto_broadcast="numpy" m_pythondiv="true" />
			<input>
				<port id="0" precision="I64" />
				<port id="1" precision="I64" />
			</input>
			<output>
				<port id="2" precision="I64" />
			</output>
		</layer>
		<layer id="90" name="__module.model.layers.0.self_attn/aten::floor_divide/Floor_1" type="Floor" version="opset1">
			<input>
				<port id="0" precision="I64" />
			</input>
			<output>
				<port id="1" precision="I64" names="332,333,337,338" />
			</output>
		</layer>
		<layer id="91" name="__module.model.layers.0.self_attn/aten::slice/Constant_1" type="Const" version="opset1">
			<data element_type="i32" shape="" offset="0" size="4" />
			<output>
				<port id="0" precision="I32" />
			</output>
		</layer>
		<layer id="92" name="__module.model.layers.0.self_attn/aten::slice/Unsqueeze_5" type="Unsqueeze" version="opset1">
			<input>
				<port id="0" precision="I64" />
				<port id="1" precision="I32" />
			</input>
			<output>
				<port id="2" precision="I64">
					<dim>1</dim>
				</port>
			</output>
		</layer>
		<layer id="93" name="Constant_96054" type="Const" version="opset1">
			<data element_type="i32" shape="1" offset="0" size="4" />
			<output>
				<port id="0" precision="I32">
					<dim>1</dim>
				</port>
			</output>
		</layer>
		<layer id="94" name="ScatterUpdate_96057" type="ScatterUpdate" version="opset3">
			<input>
				<port id="0" precision="I64">
					<dim>4</dim>
				</port>
				<port id="1" precision="I64">
					<dim>1</dim>
				</port>
				<port id="2" precision="I64">
					<dim>1</dim>
				</port>
				<port id="3" precision="I32">
					<dim>1</dim>
				</port>
			</input>
			<output>
				<port id="4" precision="I64">
					<dim>4</dim>
				</port>
			</output>
		</layer>
		<layer id="95" name="Constant_96060" type="Const" version="opset1">
			<data element_type="i64" shape="4" offset="67827748" size="32" />
			<output>
				<port id="0" precision="I64">
					<dim>4</dim>
				</port>
			</output>
		</layer>
		<layer id="96" name="Constant_96063" type="Const" version="opset1">
			<data element_type="i64" shape="4" offset="67827780" size="32" />
			<output>
				<port id="0" precision="I64">
					<dim>4</dim>
				</port>
			</output>
		</layer>
		<layer id="97" name="__module.model.layers.0.self_attn/aten::slice/Slice" type="StridedSlice" version="opset1">
			<data begin_mask="1, 1, 1, 0" end_mask="1, 1, 1, 0" new_axis_mask="" shrink_axis_mask="" ellipsis_mask="" />
			<input>
				<port id="0" precision="FP32">
					<dim>-1</dim>
					<dim>32</dim>
					<dim>-1</dim>
					<dim>64</dim>
				</port>
				<port id="1" precision="I64">
					<dim>4</dim>
				</port>
				<port id="2" precision="I64">
					<dim>4</dim>
				</port>
				<port id="3" precision="I64">
					<dim>4</dim>
				</port>
			</input>
			<output>
				<port id="4" precision="FP32" names="339,x2.1">
					<dim>-1</dim>
					<dim>32</dim>
					<dim>-1</dim>
					<dim>32</dim>
				</port>
			</output>
		</layer>
		<layer id="98" name="Constant_111320" type="Const" version="opset1">
			<data element_type="f32" shape="1, 1, 1, 1" offset="67827812" size="4" />
			<output>
				<port id="0" precision="FP32">
					<dim>1</dim>
					<dim>1</dim>
					<dim>1</dim>
					<dim>1</dim>
				</port>
			</output>
		</layer>
		<layer id="99" name="__module.model.layers.0.self_attn/aten::neg/Multiply" type="Multiply" version="opset1">
			<data auto_broadcast="numpy" />
			<input>
				<port id="0" precision="FP32">
					<dim>-1</dim>
					<dim>32</dim>
					<dim>-1</dim>
					<dim>32</dim>
				</port>
				<port id="1" precision="FP32">
					<dim>1</dim>
					<dim>1</dim>
					<dim>1</dim>
					<dim>1</dim>
				</port>
			</input>
			<output>
				<port id="2" precision="FP32" names="340">
					<dim>-1</dim>
					<dim>32</dim>
					<dim>-1</dim>
					<dim>32</dim>
				</port>
			</output>
		</layer>
		<layer id="100" name="Constant_96108" type="Const" version="opset1">
			<data element_type="i64" shape="4" offset="67827700" size="32" />
			<output>
				<port id="0" precision="I64">
					<dim>4</dim>
				</port>
			</output>
		</layer>
		<layer id="101" name="Constant_96113" type="Const" version="opset1">
			<data element_type="i64" shape="4" offset="67827780" size="32" />
			<output>
				<port id="0" precision="I64">
					<dim>4</dim>
				</port>
			</output>
		</layer>
		<layer id="102" name="__module.model.layers.0.self_attn/aten::slice/Slice_1" type="StridedSlice" version="opset1">
			<data begin_mask="1, 1, 1, 0" end_mask="1, 1, 1, 0" new_axis_mask="" shrink_axis_mask="" ellipsis_mask="" />
			<input>
				<port id="0" precision="FP32">
					<dim>-1</dim>
					<dim>32</dim>
					<dim>-1</dim>
					<dim>64</dim>
				</port>
				<port id="1" precision="I64">
					<dim>4</dim>
				</port>
				<port id="2" precision="I64">
					<dim>4</dim>
				</port>
				<port id="3" precision="I64">
					<dim>4</dim>
				</port>
			</input>
			<output>
				<port id="4" precision="FP32" names="334">
					<dim>-1</dim>
					<dim>32</dim>
					<dim>-1</dim>
					<dim>32</dim>
				</port>
			</output>
		</layer>
		<layer id="103" name="__module.model.layers.0.self_attn/aten::cat/Concat" type="Concat" version="opset1">
			<data axis="-1" />
			<input>
				<port id="0" precision="FP32">
					<dim>-1</dim>
					<dim>32</dim>
					<dim>-1</dim>
					<dim>32</dim>
				</port>
				<port id="1" precision="FP32">
					<dim>-1</dim>
					<dim>32</dim>
					<dim>-1</dim>
					<dim>32</dim>
				</port>
			</input>
			<output>
				<port id="2" precision="FP32" names="342">
					<dim>-1</dim>
					<dim>32</dim>
					<dim>-1</dim>
					<dim>64</dim>
				</port>
			</output>
		</layer>
		<layer id="104" name="__module.model.layers.0.self_attn.rotary_emb/aten::sin/Sin" type="Sin" version="opset1">
			<input>
				<port id="0" precision="FP32">
					<dim>-1</dim>
					<dim>-1</dim>
					<dim>64</dim>
				</port>
			</input>
			<output>
				<port id="1" precision="FP32" names="321,323,326,sin.1,sin.3">
					<dim>-1</dim>
					<dim>-1</dim>
					<dim>64</dim>
				</port>
			</output>
		</layer>
		<layer id="105" name="__module.model.layers.0.self_attn/aten::unsqueeze/Unsqueeze_1" type="Unsqueeze" version="opset1">
			<input>
				<port id="0" precision="FP32">
					<dim>-1</dim>
					<dim>-1</dim>
					<dim>64</dim>
				</port>
				<port id="1" precision="I64" />
			</input>
			<output>
				<port id="2" precision="FP32" names="328,sin.5">
					<dim>-1</dim>
					<dim>1</dim>
					<dim>-1</dim>
					<dim>64</dim>
				</port>
			</output>
		</layer>
		<layer id="106" name="__module.model.layers.0.self_attn/aten::mul/Multiply_1" type="Multiply" version="opset1">
			<data auto_broadcast="numpy" />
			<input>
				<port id="0" precision="FP32">
					<dim>-1</dim>
					<dim>32</dim>
					<dim>-1</dim>
					<dim>64</dim>
				</port>
				<port id="1" precision="FP32">
					<dim>-1</dim>
					<dim>1</dim>
					<dim>-1</dim>
					<dim>64</dim>
				</port>
			</input>
			<output>
				<port id="2" precision="FP32" names="343">
					<dim>-1</dim>
					<dim>32</dim>
					<dim>-1</dim>
					<dim>64</dim>
				</port>
			</output>
		</layer>
		<layer id="107" name="__module.model.layers.0.self_attn/aten::add/Add" type="Add" version="opset1">
			<data auto_broadcast="numpy" />
			<input>
				<port id="0" precision="FP32">
					<dim>-1</dim>
					<dim>32</dim>
					<dim>-1</dim>
					<dim>64</dim>
				</port>
				<port id="1" precision="FP32">
					<dim>-1</dim>
					<dim>32</dim>
					<dim>-1</dim>
					<dim>64</dim>
				</port>
			</input>
			<output>
				<port id="2" precision="FP32" names="344">
					<dim>-1</dim>
					<dim>32</dim>
					<dim>-1</dim>
					<dim>64</dim>
				</port>
			</output>
		</layer>
		<layer id="108" name="Constant_124180" type="Const" version="opset1">
			<data element_type="f32" shape="" offset="0" size="4" />
			<output>
				<port id="0" precision="FP32" />
			</output>
		</layer>
		<layer id="109" name="Constant_124173" type="Const" version="opset1">
			<data element_type="i64" shape="1" offset="4" size="8" />
			<output>
				<port id="0" precision="I64">
					<dim>1</dim>
				</port>
			</output>
		</layer>
		<layer id="110" name="Constant_124175" type="Const" version="opset1">
			<data element_type="i64" shape="1" offset="12" size="8" />
			<output>
				<port id="0" precision="I64">
					<dim>1</dim>
				</port>
			</output>
		</layer>
		<layer id="111" name="Constant_124177" type="Const" version="opset1">
			<data element_type="i64" shape="1" offset="20" size="8" />
			<output>
				<port id="0" precision="I64">
					<dim>1</dim>
				</port>
			</output>
		</layer>
		<layer id="112" name="Concat_124178" type="Concat" version="opset1">
			<data axis="0" />
			<input>
				<port id="0" precision="I64">
					<dim>1</dim>
				</port>
				<port id="1" precision="I64">
					<dim>1</dim>
				</port>
				<port id="2" precision="I64">
					<dim>1</dim>
				</port>
				<port id="3" precision="I64">
					<dim>1</dim>
				</port>
			</input>
			<output>
				<port id="4" precision="I64">
					<dim>4</dim>
				</port>
			</output>
		</layer>
		<layer id="113" name="Broadcast_124181" type="Broadcast" version="opset3">
			<data mode="numpy" />
			<input>
				<port id="0" precision="FP32" />
				<port id="1" precision="I64">
					<dim>4</dim>
				</port>
			</input>
			<output>
				<port id="2" precision="FP32">
					<dim>-1</dim>
					<dim>4</dim>
					<dim>0</dim>
					<dim>64</dim>
				</port>
			</output>
		</layer>
		<layer id="114" name="ReadValue_121908" type="ReadValue" version="opset6">
			<data variable_id="past_key_values.0.keypresent.0.key" variable_type="f32" variable_shape="?,4,?,64" />
			<input>
				<port id="0" precision="FP32">
					<dim>-1</dim>
					<dim>4</dim>
					<dim>0</dim>
					<dim>64</dim>
				</port>
			</input>
			<output>
				<port id="1" precision="FP32" names="past_key_values.0.key">
					<dim>-1</dim>
					<dim>4</dim>
					<dim>-1</dim>
					<dim>64</dim>
				</port>
			</output>
		</layer>
		<layer id="115" name="Constant_119620" type="Const" version="opset1">
			<data element_type="i32" shape="" offset="0" size="4" />
			<output>
				<port id="0" precision="I32" />
			</output>
		</layer>
		<layer id="116" name="Gather_119621" type="Gather" version="opset8">
			<data batch_dims="0" />
			<input>
				<port id="0" precision="FP32">
					<dim>-1</dim>
					<dim>4</dim>
					<dim>-1</dim>
					<dim>64</dim>
				</port>
				<port id="1" precision="I32">
					<dim>-1</dim>
				</port>
				<port id="2" precision="I32" />
			</input>
			<output>
				<port id="3" precision="FP32">
					<dim>-1</dim>
					<dim>4</dim>
					<dim>-1</dim>
					<dim>64</dim>
				</port>
			</output>
		</layer>
		<layer id="117" name="self.model.layers.0.self_attn.k_proj.weight" type="Const" version="opset1">
			<data element_type="u4" shape="256, 16, 128" offset="67827816" size="262144" />
			<output>
				<port id="0" precision="U4">
					<dim>256</dim>
					<dim>16</dim>
					<dim>128</dim>
				</port>
			</output>
		</layer>
		<layer id="118" name="Convert_127032" type="Convert" version="opset1">
			<data destination_type="f32" />
			<input>
				<port id="0" precision="U4">
					<dim>256</dim>
					<dim>16</dim>
					<dim>128</dim>
				</port>
			</input>
			<output>
				<port id="1" precision="FP32">
					<dim>256</dim>
					<dim>16</dim>
					<dim>128</dim>
				</port>
			</output>
		</layer>
		<layer id="119" name="self.model.layers.0.self_attn.k_proj.weight/zero_point" type="Const" version="opset1">
			<data element_type="u4" shape="256, 16, 1" offset="68089960" size="2048" />
			<output>
				<port id="0" precision="U4">
					<dim>256</dim>
					<dim>16</dim>
					<dim>1</dim>
				</port>
			</output>
		</layer>
		<layer id="120" name="Convert_127034" type="Convert" version="opset1">
			<data destination_type="f32" />
			<input>
				<port id="0" precision="U4">
					<dim>256</dim>
					<dim>16</dim>
					<dim>1</dim>
				</port>
			</input>
			<output>
				<port id="1" precision="FP32">
					<dim>256</dim>
					<dim>16</dim>
					<dim>1</dim>
				</port>
			</output>
		</layer>
		<layer id="121" name="Subtract_127035" type="Subtract" version="opset1">
			<data auto_broadcast="numpy" />
			<input>
				<port id="0" precision="FP32">
					<dim>256</dim>
					<dim>16</dim>
					<dim>128</dim>
				</port>
				<port id="1" precision="FP32">
					<dim>256</dim>
					<dim>16</dim>
					<dim>1</dim>
				</port>
			</input>
			<output>
				<port id="2" precision="FP32">
					<dim>256</dim>
					<dim>16</dim>
					<dim>128</dim>
				</port>
			</output>
		</layer>
		<layer id="122" name="self.model.layers.0.self_attn.k_proj.weight/scale" type="Const" version="opset1">
			<data element_type="f16" shape="256, 16, 1" offset="68092008" size="8192" />
			<output>
				<port id="0" precision="FP16">
					<dim>256</dim>
					<dim>16</dim>
					<dim>1</dim>
				</port>
			</output>
		</layer>
		<layer id="123" name="self.model.layers.0.self_attn.k_proj.weight/scale_convert" type="Convert" version="opset1">
			<data destination_type="f32" />
			<input>
				<port id="0" precision="FP16">
					<dim>256</dim>
					<dim>16</dim>
					<dim>1</dim>
				</port>
			</input>
			<output>
				<port id="1" precision="FP32">
					<dim>256</dim>
					<dim>16</dim>
					<dim>1</dim>
				</port>
			</output>
		</layer>
		<layer id="124" name="self.model.layers.0.self_attn.k_proj.weight/fq_weights_1" type="Multiply" version="opset1">
			<data auto_broadcast="numpy" />
			<input>
				<port id="0" precision="FP32">
					<dim>256</dim>
					<dim>16</dim>
					<dim>128</dim>
				</port>
				<port id="1" precision="FP32">
					<dim>256</dim>
					<dim>16</dim>
					<dim>1</dim>
				</port>
			</input>
			<output>
				<port id="2" precision="FP32">
					<dim>256</dim>
					<dim>16</dim>
					<dim>128</dim>
				</port>
			</output>
		</layer>
		<layer id="125" name="Constant_127040" type="Const" version="opset1">
			<data element_type="i32" shape="2" offset="68100200" size="8" />
			<output>
				<port id="0" precision="I32">
					<dim>2</dim>
				</port>
			</output>
		</layer>
		<layer id="126" name="Reshape_127041" type="Reshape" version="opset1">
			<data special_zero="false" />
			<input>
				<port id="0" precision="FP32">
					<dim>256</dim>
					<dim>16</dim>
					<dim>128</dim>
				</port>
				<port id="1" precision="I32">
					<dim>2</dim>
				</port>
			</input>
			<output>
				<port id="2" precision="FP32">
					<dim>256</dim>
					<dim>2048</dim>
				</port>
			</output>
		</layer>
		<layer id="127" name="__module.model.layers.0.self_attn.k_proj/aten::linear/MatMul" type="MatMul" version="opset1">
			<data transpose_a="false" transpose_b="true" />
			<input>
				<port id="0" precision="FP32">
					<dim>-1</dim>
					<dim>-1</dim>
					<dim>2048</dim>
				</port>
				<port id="1" precision="FP32">
					<dim>256</dim>
					<dim>2048</dim>
				</port>
			</input>
			<output>
				<port id="2" precision="FP32" names="290,key_states.3">
					<dim>-1</dim>
					<dim>-1</dim>
					<dim>256</dim>
				</port>
			</output>
		</layer>
		<layer id="128" name="__module.model.layers.0.self_attn/prim::ListConstruct/Reshape_1_1" type="Const" version="opset1">
			<data element_type="i64" shape="1" offset="4" size="8" />
			<output>
				<port id="0" precision="I64">
					<dim>1</dim>
				</port>
			</output>
		</layer>
		<layer id="129" name="__module.model.layers.0.self_attn/prim::ListConstruct/Concat_1" type="Concat" version="opset1">
			<data axis="0" />
			<input>
				<port id="0" precision="I64">
					<dim>2</dim>
				</port>
				<port id="1" precision="I64">
					<dim>1</dim>
				</port>
				<port id="2" precision="I64">
					<dim>1</dim>
				</port>
			</input>
			<output>
				<port id="3" precision="I64" names="296,299">
					<dim>4</dim>
				</port>
			</output>
		</layer>
		<layer id="130" name="__module.model.layers.0.self_attn/aten::view/Reshape_1" type="Reshape" version="opset1">
			<data special_zero="false" />
			<input>
				<port id="0" precision="FP32">
					<dim>-1</dim>
					<dim>-1</dim>
					<dim>256</dim>
				</port>
				<port id="1" precision="I64">
					<dim>4</dim>
				</port>
			</input>
			<output>
				<port id="2" precision="FP32" names="297">
					<dim>-1</dim>
					<dim>-1</dim>
					<dim>4</dim>
					<dim>64</dim>
				</port>
			</output>
		</layer>
		<layer id="131" name="__module.model.layers.0.self_attn/aten::transpose/ScatterElementsUpdate_1" type="Const" version="opset1">
			<data element_type="i32" shape="4" offset="67827536" size="16" />
			<output>
				<port id="0" precision="I32">
					<dim>4</dim>
				</port>
			</output>
		</layer>
		<layer id="132" name="__module.model.layers.0.self_attn/aten::transpose/Transpose_1" type="Transpose" version="opset1">
			<input>
				<port id="0" precision="FP32">
					<dim>-1</dim>
					<dim>-1</dim>
					<dim>4</dim>
					<dim>64</dim>
				</port>
				<port id="1" precision="I32">
					<dim>4</dim>
				</port>
			</input>
			<output>
				<port id="2" precision="FP32" names="298,k.1">
					<dim>-1</dim>
					<dim>4</dim>
					<dim>-1</dim>
					<dim>64</dim>
				</port>
			</output>
		</layer>
		<layer id="133" name="__module.model.layers.0.self_attn/aten::mul/Multiply_2" type="Multiply" version="opset1">
			<data auto_broadcast="numpy" />
			<input>
				<port id="0" precision="FP32">
					<dim>-1</dim>
					<dim>4</dim>
					<dim>-1</dim>
					<dim>64</dim>
				</port>
				<port id="1" precision="FP32">
					<dim>-1</dim>
					<dim>1</dim>
					<dim>-1</dim>
					<dim>64</dim>
				</port>
			</input>
			<output>
				<port id="2" precision="FP32" names="345">
					<dim>-1</dim>
					<dim>4</dim>
					<dim>-1</dim>
					<dim>64</dim>
				</port>
			</output>
		</layer>
		<layer id="134" name="Constant_96156" type="Const" version="opset1">
			<data element_type="i64" shape="4" offset="67827700" size="32" />
			<output>
				<port id="0" precision="I64">
					<dim>4</dim>
				</port>
			</output>
		</layer>
		<layer id="135" name="Constant_96155" type="Const" version="opset1">
			<data element_type="i64" shape="1" offset="67827732" size="8" />
			<output>
				<port id="0" precision="I64">
					<dim>1</dim>
				</port>
			</output>
		</layer>
		<layer id="136" name="__module.model.layers.0.self_attn/aten::size/ShapeOf_5" type="ShapeOf" version="opset3">
			<data output_type="i64" />
			<input>
				<port id="0" precision="FP32">
					<dim>-1</dim>
					<dim>4</dim>
					<dim>-1</dim>
					<dim>64</dim>
				</port>
			</input>
			<output>
				<port id="1" precision="I64">
					<dim>4</dim>
				</port>
			</output>
		</layer>
		<layer id="137" name="__module.model.layers.0.self_attn/aten::size/Constant_5" type="Const" version="opset1">
			<data element_type="i32" shape="" offset="0" size="4" />
			<output>
				<port id="0" precision="I32" />
			</output>
		</layer>
		<layer id="138" name="__module.model.layers.0.self_attn/aten::size/Gather_5" type="Gather" version="opset8">
			<data batch_dims="0" />
			<input>
				<port id="0" precision="I64">
					<dim>4</dim>
				</port>
				<port id="1" precision="I64" />
				<port id="2" precision="I32" />
			</input>
			<output>
				<port id="3" precision="I64" names="346,351" />
			</output>
		</layer>
		<layer id="139" name="__module.model.layers.0.self_attn/aten::floor_divide/Divide_3" type="Divide" version="opset1">
			<data auto_broadcast="numpy" m_pythondiv="true" />
			<input>
				<port id="0" precision="I64" />
				<port id="1" precision="I64" />
			</input>
			<output>
				<port id="2" precision="I64" />
			</output>
		</layer>
		<layer id="140" name="__module.model.layers.0.self_attn/aten::floor_divide/Floor_3" type="Floor" version="opset1">
			<input>
				<port id="0" precision="I64" />
			</input>
			<output>
				<port id="1" precision="I64" names="348,349,353,354" />
			</output>
		</layer>
		<layer id="141" name="__module.model.layers.0.self_attn/aten::slice/Constant_3" type="Const" version="opset1">
			<data element_type="i32" shape="" offset="0" size="4" />
			<output>
				<port id="0" precision="I32" />
			</output>
		</layer>
		<layer id="142" name="__module.model.layers.0.self_attn/aten::slice/Unsqueeze_13" type="Unsqueeze" version="opset1">
			<input>
				<port id="0" precision="I64" />
				<port id="1" precision="I32" />
			</input>
			<output>
				<port id="2" precision="I64">
					<dim>1</dim>
				</port>
			</output>
		</layer>
		<layer id="143" name="Constant_96154" type="Const" version="opset1">
			<data element_type="i32" shape="1" offset="0" size="4" />
			<output>
				<port id="0" precision="I32">
					<dim>1</dim>
				</port>
			</output>
		</layer>
		<layer id="144" name="ScatterUpdate_96157" type="ScatterUpdate" version="opset3">
			<input>
				<port id="0" precision="I64">
					<dim>4</dim>
				</port>
				<port id="1" precision="I64">
					<dim>1</dim>
				</port>
				<port id="2" precision="I64">
					<dim>1</dim>
				</port>
				<port id="3" precision="I32">
					<dim>1</dim>
				</port>
			</input>
			<output>
				<port id="4" precision="I64">
					<dim>4</dim>
				</port>
			</output>
		</layer>
		<layer id="145" name="Constant_96160" type="Const" version="opset1">
			<data element_type="i64" shape="4" offset="67827748" size="32" />
			<output>
				<port id="0" precision="I64">
					<dim>4</dim>
				</port>
			</output>
		</layer>
		<layer id="146" name="Constant_96163" type="Const" version="opset1">
			<data element_type="i64" shape="4" offset="67827780" size="32" />
			<output>
				<port id="0" precision="I64">
					<dim>4</dim>
				</port>
			</output>
		</layer>
		<layer id="147" name="__module.model.layers.0.self_attn/aten::slice/Slice_2" type="StridedSlice" version="opset1">
			<data begin_mask="1, 1, 1, 0" end_mask="1, 1, 1, 0" new_axis_mask="" shrink_axis_mask="" ellipsis_mask="" />
			<input>
				<port id="0" precision="FP32">
					<dim>-1</dim>
					<dim>4</dim>
					<dim>-1</dim>
					<dim>64</dim>
				</port>
				<port id="1" precision="I64">
					<dim>4</dim>
				</port>
				<port id="2" precision="I64">
					<dim>4</dim>
				</port>
				<port id="3" precision="I64">
					<dim>4</dim>
				</port>
			</input>
			<output>
				<port id="4" precision="FP32" names="355,x2.3">
					<dim>-1</dim>
					<dim>4</dim>
					<dim>-1</dim>
					<dim>32</dim>
				</port>
			</output>
		</layer>
		<layer id="148" name="Constant_111321" type="Const" version="opset1">
			<data element_type="f32" shape="1, 1, 1, 1" offset="67827812" size="4" />
			<output>
				<port id="0" precision="FP32">
					<dim>1</dim>
					<dim>1</dim>
					<dim>1</dim>
					<dim>1</dim>
				</port>
			</output>
		</layer>
		<layer id="149" name="__module.model.layers.0.self_attn/aten::neg/Multiply_1" type="Multiply" version="opset1">
			<data auto_broadcast="numpy" />
			<input>
				<port id="0" precision="FP32">
					<dim>-1</dim>
					<dim>4</dim>
					<dim>-1</dim>
					<dim>32</dim>
				</port>
				<port id="1" precision="FP32">
					<dim>1</dim>
					<dim>1</dim>
					<dim>1</dim>
					<dim>1</dim>
				</port>
			</input>
			<output>
				<port id="2" precision="FP32" names="356">
					<dim>-1</dim>
					<dim>4</dim>
					<dim>-1</dim>
					<dim>32</dim>
				</port>
			</output>
		</layer>
		<layer id="150" name="Constant_96208" type="Const" version="opset1">
			<data element_type="i64" shape="4" offset="67827700" size="32" />
			<output>
				<port id="0" precision="I64">
					<dim>4</dim>
				</port>
			</output>
		</layer>
		<layer id="151" name="Constant_96213" type="Const" version="opset1">
			<data element_type="i64" shape="4" offset="67827780" size="32" />
			<output>
				<port id="0" precision="I64">
					<dim>4</dim>
				</port>
			</output>
		</layer>
		<layer id="152" name="__module.model.layers.0.self_attn/aten::slice/Slice_3" type="StridedSlice" version="opset1">
			<data begin_mask="1, 1, 1, 0" end_mask="1, 1, 1, 0" new_axis_mask="" shrink_axis_mask="" ellipsis_mask="" />
			<input>
				<port id="0" precision="FP32">
					<dim>-1</dim>
					<dim>4</dim>
					<dim>-1</dim>
					<dim>64</dim>
				</port>
				<port id="1" precision="I64">
					<dim>4</dim>
				</port>
				<port id="2" precision="I64">
					<dim>4</dim>
				</port>
				<port id="3" precision="I64">
					<dim>4</dim>
				</port>
			</input>
			<output>
				<port id="4" precision="FP32" names="350">
					<dim>-1</dim>
					<dim>4</dim>
					<dim>-1</dim>
					<dim>32</dim>
				</port>
			</output>
		</layer>
		<layer id="153" name="__module.model.layers.0.self_attn/aten::cat/Concat_1" type="Concat" version="opset1">
			<data axis="-1" />
			<input>
				<port id="0" precision="FP32">
					<dim>-1</dim>
					<dim>4</dim>
					<dim>-1</dim>
					<dim>32</dim>
				</port>
				<port id="1" precision="FP32">
					<dim>-1</dim>
					<dim>4</dim>
					<dim>-1</dim>
					<dim>32</dim>
				</port>
			</input>
			<output>
				<port id="2" precision="FP32" names="358">
					<dim>-1</dim>
					<dim>4</dim>
					<dim>-1</dim>
					<dim>64</dim>
				</port>
			</output>
		</layer>
		<layer id="154" name="__module.model.layers.0.self_attn/aten::mul/Multiply_3" type="Multiply" version="opset1">
			<data auto_broadcast="numpy" />
			<input>
				<port id="0" precision="FP32">
					<dim>-1</dim>
					<dim>4</dim>
					<dim>-1</dim>
					<dim>64</dim>
				</port>
				<port id="1" precision="FP32">
					<dim>-1</dim>
					<dim>1</dim>
					<dim>-1</dim>
					<dim>64</dim>
				</port>
			</input>
			<output>
				<port id="2" precision="FP32" names="359">
					<dim>-1</dim>
					<dim>4</dim>
					<dim>-1</dim>
					<dim>64</dim>
				</port>
			</output>
		</layer>
		<layer id="155" name="__module.model.layers.0.self_attn/aten::add/Add_1" type="Add" version="opset1">
			<data auto_broadcast="numpy" />
			<input>
				<port id="0" precision="FP32">
					<dim>-1</dim>
					<dim>4</dim>
					<dim>-1</dim>
					<dim>64</dim>
				</port>
				<port id="1" precision="FP32">
					<dim>-1</dim>
					<dim>4</dim>
					<dim>-1</dim>
					<dim>64</dim>
				</port>
			</input>
			<output>
				<port id="2" precision="FP32" names="360,key_states.5">
					<dim>-1</dim>
					<dim>4</dim>
					<dim>-1</dim>
					<dim>64</dim>
				</port>
			</output>
		</layer>
		<layer id="156" name="__module.model.layers.0.self_attn/aten::cat/Concat_2" type="Concat" version="opset1">
			<data axis="-2" />
			<input>
				<port id="0" precision="FP32">
					<dim>-1</dim>
					<dim>4</dim>
					<dim>-1</dim>
					<dim>64</dim>
				</port>
				<port id="1" precision="FP32">
					<dim>-1</dim>
					<dim>4</dim>
					<dim>-1</dim>
					<dim>64</dim>
				</port>
			</input>
			<output>
				<port id="2" precision="FP32" names="present.0.key">
					<dim>-1</dim>
					<dim>4</dim>
					<dim>-1</dim>
					<dim>64</dim>
				</port>
			</output>
		</layer>
		<layer id="157" name="170" type="Const" version="opset1">
			<data element_type="i64" shape="" offset="67827740" size="8" />
			<output>
				<port id="0" precision="I64" names="170" />
			</output>
		</layer>
		<layer id="158" name="__module.model.layers.0.self_attn/aten::unsqueeze/Unsqueeze_2" type="Unsqueeze" version="opset1">
			<input>
				<port id="0" precision="FP32">
					<dim>-1</dim>
					<dim>4</dim>
					<dim>-1</dim>
					<dim>64</dim>
				</port>
				<port id="1" precision="I64" />
			</input>
			<output>
				<port id="2" precision="FP32" names="375,376,377">
					<dim>-1</dim>
					<dim>4</dim>
					<dim>1</dim>
					<dim>-1</dim>
					<dim>64</dim>
				</port>
			</output>
		</layer>
		<layer id="159" name="__module.model.layers.0.self_attn/aten::size/ShapeOf_6" type="ShapeOf" version="opset3">
			<data output_type="i64" />
			<input>
				<port id="0" precision="FP32">
					<dim>-1</dim>
					<dim>4</dim>
					<dim>-1</dim>
					<dim>64</dim>
				</port>
			</input>
			<output>
				<port id="1" precision="I64">
					<dim>4</dim>
				</port>
			</output>
		</layer>
		<layer id="160" name="Constant_92584" type="Const" version="opset1">
			<data element_type="i64" shape="1" offset="12" size="8" />
			<output>
				<port id="0" precision="I64">
					<dim>1</dim>
				</port>
			</output>
		</layer>
		<layer id="161" name="__module.model.layers.0.self_attn/aten::size/Constant_6" type="Const" version="opset1">
			<data element_type="i32" shape="" offset="0" size="4" />
			<output>
				<port id="0" precision="I32" />
			</output>
		</layer>
		<layer id="162" name="__module.model.layers.0.self_attn/aten::size/Gather_6" type="Gather" version="opset8">
			<data batch_dims="0" />
			<input>
				<port id="0" precision="I64">
					<dim>4</dim>
				</port>
				<port id="1" precision="I64">
					<dim>1</dim>
				</port>
				<port id="2" precision="I32" />
			</input>
			<output>
				<port id="3" precision="I64" names="368">
					<dim>1</dim>
				</port>
			</output>
		</layer>
		<layer id="163" name="__module.model.layers.0.self_attn/aten::size/Constant_7" type="Const" version="opset1">
			<data element_type="i32" shape="" offset="0" size="4" />
			<output>
				<port id="0" precision="I32" />
			</output>
		</layer>
		<layer id="164" name="__module.model.layers.0.self_attn/aten::size/Gather_7" type="Gather" version="opset8">
			<data batch_dims="0" />
			<input>
				<port id="0" precision="I64">
					<dim>4</dim>
				</port>
				<port id="1" precision="I64" />
				<port id="2" precision="I32" />
			</input>
			<output>
				<port id="3" precision="I64" names="369" />
			</output>
		</layer>
		<layer id="165" name="Constant_77293" type="Const" version="opset1">
			<data element_type="i64" shape="1" offset="65648420" size="8" />
			<output>
				<port id="0" precision="I64">
					<dim>1</dim>
				</port>
			</output>
		</layer>
		<layer id="166" name="__module.model.layers.0.self_attn/prim::ListConstruct/Reshape_0_2" type="Reshape" version="opset1">
			<data special_zero="false" />
			<input>
				<port id="0" precision="I64" />
				<port id="1" precision="I64">
					<dim>1</dim>
				</port>
			</input>
			<output>
				<port id="2" precision="I64">
					<dim>1</dim>
				</port>
			</output>
		</layer>
		<layer id="167" name="__module.model.layers.0.self_attn/prim::ListConstruct/Reshape_1_2" type="Const" version="opset1">
			<data element_type="i64" shape="1" offset="68100208" size="8" />
			<output>
				<port id="0" precision="I64">
					<dim>1</dim>
				</port>
			</output>
		</layer>
		<layer id="168" name="Constant_93184" type="Const" version="opset1">
			<data element_type="i64" shape="2" offset="68100216" size="16" />
			<output>
				<port id="0" precision="I64">
					<dim>2</dim>
				</port>
			</output>
		</layer>
		<layer id="169" name="Constant_93185" type="Const" version="opset1">
			<data element_type="i64" shape="" offset="12" size="8" />
			<output>
				<port id="0" precision="I64" />
			</output>
		</layer>
		<layer id="170" name="Gather_93186" type="Gather" version="opset8">
			<data batch_dims="0" />
			<input>
				<port id="0" precision="I64">
					<dim>4</dim>
				</port>
				<port id="1" precision="I64">
					<dim>2</dim>
				</port>
				<port id="2" precision="I64" />
			</input>
			<output>
				<port id="3" precision="I64">
					<dim>2</dim>
				</port>
			</output>
		</layer>
		<layer id="171" name="__module.model.layers.0.self_attn/prim::ListConstruct/Concat_2" type="Concat" version="opset1">
			<data axis="0" />
			<input>
				<port id="0" precision="I64">
					<dim>1</dim>
				</port>
				<port id="1" precision="I64">
					<dim>1</dim>
				</port>
				<port id="2" precision="I64">
					<dim>1</dim>
				</port>
				<port id="3" precision="I64">
					<dim>2</dim>
				</port>
			</input>
			<output>
				<port id="4" precision="I64" names="378">
					<dim>5</dim>
				</port>
			</output>
		</layer>
		<layer id="172" name="__module.model.layers.0.self_attn/aten::expand/Abs" type="Abs" version="opset1">
			<input>
				<port id="0" precision="I64">
					<dim>5</dim>
				</port>
			</input>
			<output>
				<port id="1" precision="I64">
					<dim>5</dim>
				</port>
			</output>
		</layer>
		<layer id="173" name="__module.model.layers.0.self_attn/aten::expand/Broadcast" type="Broadcast" version="opset3">
			<data mode="bidirectional" />
			<input>
				<port id="0" precision="FP32">
					<dim>-1</dim>
					<dim>4</dim>
					<dim>1</dim>
					<dim>-1</dim>
					<dim>64</dim>
				</port>
				<port id="1" precision="I64">
					<dim>5</dim>
				</port>
			</input>
			<output>
				<port id="2" precision="FP32" names="379,hidden_states.11">
					<dim>-1</dim>
					<dim>4</dim>
					<dim>-1</dim>
					<dim>-1</dim>
					<dim>64</dim>
				</port>
			</output>
		</layer>
		<layer id="174" name="Constant_34" type="Const" version="opset1">
			<data element_type="i64" shape="" offset="68100208" size="8" />
			<output>
				<port id="0" precision="I64" names="152" />
			</output>
		</layer>
		<layer id="175" name="__module.model.layers.0.self_attn/aten::mul/Multiply_4" type="Multiply" version="opset1">
			<data auto_broadcast="numpy" />
			<input>
				<port id="0" precision="I64" />
				<port id="1" precision="I64" />
			</input>
			<output>
				<port id="2" precision="I64" names="380,381" />
			</output>
		</layer>
		<layer id="176" name="Constant_77297" type="Const" version="opset1">
			<data element_type="i64" shape="1" offset="65648420" size="8" />
			<output>
				<port id="0" precision="I64">
					<dim>1</dim>
				</port>
			</output>
		</layer>
		<layer id="177" name="__module.model.layers.0.self_attn/prim::ListConstruct/Reshape_0_3" type="Reshape" version="opset1">
			<data special_zero="false" />
			<input>
				<port id="0" precision="I64" />
				<port id="1" precision="I64">
					<dim>1</dim>
				</port>
			</input>
			<output>
				<port id="2" precision="I64">
					<dim>1</dim>
				</port>
			</output>
		</layer>
		<layer id="178" name="__module.model.layers.0.self_attn/prim::ListConstruct/Concat_3" type="Concat" version="opset1">
			<data axis="0" />
			<input>
				<port id="0" precision="I64">
					<dim>1</dim>
				</port>
				<port id="1" precision="I64">
					<dim>1</dim>
				</port>
				<port id="2" precision="I64">
					<dim>2</dim>
				</port>
			</input>
			<output>
				<port id="3" precision="I64" names="382">
					<dim>4</dim>
				</port>
			</output>
		</layer>
		<layer id="179" name="__module.model.layers.0.self_attn/aten::reshape/Reshape" type="Reshape" version="opset1">
			<data special_zero="false" />
			<input>
				<port id="0" precision="FP32">
					<dim>-1</dim>
					<dim>4</dim>
					<dim>-1</dim>
					<dim>-1</dim>
					<dim>64</dim>
				</port>
				<port id="1" precision="I64">
					<dim>4</dim>
				</port>
			</input>
			<output>
				<port id="2" precision="FP32" names="383,key_states.7">
					<dim>-1</dim>
					<dim>32</dim>
					<dim>-1</dim>
					<dim>64</dim>
				</port>
			</output>
		</layer>
		<layer id="180" name="Constant_124193" type="Const" version="opset1">
			<data element_type="f32" shape="" offset="0" size="4" />
			<output>
				<port id="0" precision="FP32" />
			</output>
		</layer>
		<layer id="181" name="Constant_124186" type="Const" version="opset1">
			<data element_type="i64" shape="1" offset="4" size="8" />
			<output>
				<port id="0" precision="I64">
					<dim>1</dim>
				</port>
			</output>
		</layer>
		<layer id="182" name="Constant_124188" type="Const" version="opset1">
			<data element_type="i64" shape="1" offset="12" size="8" />
			<output>
				<port id="0" precision="I64">
					<dim>1</dim>
				</port>
			</output>
		</layer>
		<layer id="183" name="Constant_124190" type="Const" version="opset1">
			<data element_type="i64" shape="1" offset="20" size="8" />
			<output>
				<port id="0" precision="I64">
					<dim>1</dim>
				</port>
			</output>
		</layer>
		<layer id="184" name="Concat_124191" type="Concat" version="opset1">
			<data axis="0" />
			<input>
				<port id="0" precision="I64">
					<dim>1</dim>
				</port>
				<port id="1" precision="I64">
					<dim>1</dim>
				</port>
				<port id="2" precision="I64">
					<dim>1</dim>
				</port>
				<port id="3" precision="I64">
					<dim>1</dim>
				</port>
			</input>
			<output>
				<port id="4" precision="I64">
					<dim>4</dim>
				</port>
			</output>
		</layer>
		<layer id="185" name="Broadcast_124194" type="Broadcast" version="opset3">
			<data mode="numpy" />
			<input>
				<port id="0" precision="FP32" />
				<port id="1" precision="I64">
					<dim>4</dim>
				</port>
			</input>
			<output>
				<port id="2" precision="FP32">
					<dim>-1</dim>
					<dim>4</dim>
					<dim>0</dim>
					<dim>64</dim>
				</port>
			</output>
		</layer>
		<layer id="186" name="ReadValue_121910" type="ReadValue" version="opset6">
			<data variable_id="past_key_values.0.valuepresent.0.value" variable_type="f32" variable_shape="?,4,?,64" />
			<input>
				<port id="0" precision="FP32">
					<dim>-1</dim>
					<dim>4</dim>
					<dim>0</dim>
					<dim>64</dim>
				</port>
			</input>
			<output>
				<port id="1" precision="FP32" names="past_key_values.0.value">
					<dim>-1</dim>
					<dim>4</dim>
					<dim>-1</dim>
					<dim>64</dim>
				</port>
			</output>
		</layer>
		<layer id="187" name="Constant_119623" type="Const" version="opset1">
			<data element_type="i32" shape="" offset="0" size="4" />
			<output>
				<port id="0" precision="I32" />
			</output>
		</layer>
		<layer id="188" name="Gather_119624" type="Gather" version="opset8">
			<data batch_dims="0" />
			<input>
				<port id="0" precision="FP32">
					<dim>-1</dim>
					<dim>4</dim>
					<dim>-1</dim>
					<dim>64</dim>
				</port>
				<port id="1" precision="I32">
					<dim>-1</dim>
				</port>
				<port id="2" precision="I32" />
			</input>
			<output>
				<port id="3" precision="FP32">
					<dim>-1</dim>
					<dim>4</dim>
					<dim>-1</dim>
					<dim>64</dim>
				</port>
			</output>
		</layer>
		<layer id="189" name="self.model.layers.0.self_attn.v_proj.weight" type="Const" version="opset1">
			<data element_type="u8" shape="256, 2048" offset="68100232" size="524288" />
			<output>
				<port id="0" precision="U8">
					<dim>256</dim>
					<dim>2048</dim>
				</port>
			</output>
		</layer>
		<layer id="190" name="Convert_127044" type="Convert" version="opset1">
			<data destination_type="f32" />
			<input>
				<port id="0" precision="U8">
					<dim>256</dim>
					<dim>2048</dim>
				</port>
			</input>
			<output>
				<port id="1" precision="FP32">
					<dim>256</dim>
					<dim>2048</dim>
				</port>
			</output>
		</layer>
		<layer id="191" name="self.model.layers.0.self_attn.v_proj.weight/zero_point" type="Const" version="opset1">
			<data element_type="u8" shape="256, 1" offset="68624520" size="256" />
			<output>
				<port id="0" precision="U8">
					<dim>256</dim>
					<dim>1</dim>
				</port>
			</output>
		</layer>
		<layer id="192" name="Convert_127047" type="Convert" version="opset1">
			<data destination_type="f32" />
			<input>
				<port id="0" precision="U8">
					<dim>256</dim>
					<dim>1</dim>
				</port>
			</input>
			<output>
				<port id="1" precision="FP32">
					<dim>256</dim>
					<dim>1</dim>
				</port>
			</output>
		</layer>
		<layer id="193" name="Subtract_127048" type="Subtract" version="opset1">
			<data auto_broadcast="numpy" />
			<input>
				<port id="0" precision="FP32">
					<dim>256</dim>
					<dim>2048</dim>
				</port>
				<port id="1" precision="FP32">
					<dim>256</dim>
					<dim>1</dim>
				</port>
			</input>
			<output>
				<port id="2" precision="FP32">
					<dim>256</dim>
					<dim>2048</dim>
				</port>
			</output>
		</layer>
		<layer id="194" name="self.model.layers.0.self_attn.v_proj.weight/scale" type="Const" version="opset1">
			<data element_type="f16" shape="256, 1" offset="68624776" size="512" />
			<output>
				<port id="0" precision="FP16">
					<dim>256</dim>
					<dim>1</dim>
				</port>
			</output>
		</layer>
		<layer id="195" name="self.model.layers.0.self_attn.v_proj.weight/scale_convert" type="Convert" version="opset1">
			<data destination_type="f32" />
			<input>
				<port id="0" precision="FP16">
					<dim>256</dim>
					<dim>1</dim>
				</port>
			</input>
			<output>
				<port id="1" precision="FP32">
					<dim>256</dim>
					<dim>1</dim>
				</port>
			</output>
		</layer>
		<layer id="196" name="self.model.layers.0.self_attn.v_proj.weight/fq_weights_1" type="Multiply" version="opset1">
			<data auto_broadcast="numpy" />
			<input>
				<port id="0" precision="FP32">
					<dim>256</dim>
					<dim>2048</dim>
				</port>
				<port id="1" precision="FP32">
					<dim>256</dim>
					<dim>1</dim>
				</port>
			</input>
			<output>
				<port id="2" precision="FP32">
					<dim>256</dim>
					<dim>2048</dim>
				</port>
			</output>
		</layer>
		<layer id="197" name="__module.model.layers.0.self_attn.v_proj/aten::linear/MatMul" type="MatMul" version="opset1">
			<data transpose_a="false" transpose_b="true" />
			<input>
				<port id="0" precision="FP32">
					<dim>-1</dim>
					<dim>-1</dim>
					<dim>2048</dim>
				</port>
				<port id="1" precision="FP32">
					<dim>256</dim>
					<dim>2048</dim>
				</port>
			</input>
			<output>
				<port id="2" precision="FP32" names="292,value_states.1">
					<dim>-1</dim>
					<dim>-1</dim>
					<dim>256</dim>
				</port>
			</output>
		</layer>
		<layer id="198" name="__module.model.layers.0.self_attn/aten::view/Reshape_2" type="Reshape" version="opset1">
			<data special_zero="false" />
			<input>
				<port id="0" precision="FP32">
					<dim>-1</dim>
					<dim>-1</dim>
					<dim>256</dim>
				</port>
				<port id="1" precision="I64">
					<dim>4</dim>
				</port>
			</input>
			<output>
				<port id="2" precision="FP32" names="300">
					<dim>-1</dim>
					<dim>-1</dim>
					<dim>4</dim>
					<dim>64</dim>
				</port>
			</output>
		</layer>
		<layer id="199" name="__module.model.layers.0.self_attn/aten::transpose/ScatterElementsUpdate_2" type="Const" version="opset1">
			<data element_type="i32" shape="4" offset="67827536" size="16" />
			<output>
				<port id="0" precision="I32">
					<dim>4</dim>
				</port>
			</output>
		</layer>
		<layer id="200" name="__module.model.layers.0.self_attn/aten::transpose/Transpose_2" type="Transpose" version="opset1">
			<input>
				<port id="0" precision="FP32">
					<dim>-1</dim>
					<dim>-1</dim>
					<dim>4</dim>
					<dim>64</dim>
				</port>
				<port id="1" precision="I32">
					<dim>4</dim>
				</port>
			</input>
			<output>
				<port id="2" precision="FP32" names="301">
					<dim>-1</dim>
					<dim>4</dim>
					<dim>-1</dim>
					<dim>64</dim>
				</port>
			</output>
		</layer>
		<layer id="201" name="__module.model.layers.0.self_attn/aten::cat/Concat_3" type="Concat" version="opset1">
			<data axis="-2" />
			<input>
				<port id="0" precision="FP32">
					<dim>-1</dim>
					<dim>4</dim>
					<dim>-1</dim>
					<dim>64</dim>
				</port>
				<port id="1" precision="FP32">
					<dim>-1</dim>
					<dim>4</dim>
					<dim>-1</dim>
					<dim>64</dim>
				</port>
			</input>
			<output>
				<port id="2" precision="FP32" names="present.0.value">
					<dim>-1</dim>
					<dim>4</dim>
					<dim>-1</dim>
					<dim>64</dim>
				</port>
			</output>
		</layer>
		<layer id="202" name="__module.model.layers.0.self_attn/aten::unsqueeze/Unsqueeze_3" type="Unsqueeze" version="opset1">
			<input>
				<port id="0" precision="FP32">
					<dim>-1</dim>
					<dim>4</dim>
					<dim>-1</dim>
					<dim>64</dim>
				</port>
				<port id="1" precision="I64" />
			</input>
			<output>
				<port id="2" precision="FP32" names="391,392,393">
					<dim>-1</dim>
					<dim>4</dim>
					<dim>1</dim>
					<dim>-1</dim>
					<dim>64</dim>
				</port>
			</output>
		</layer>
		<layer id="203" name="__module.model.layers.0.self_attn/aten::size/ShapeOf_10" type="ShapeOf" version="opset3">
			<data output_type="i64" />
			<input>
				<port id="0" precision="FP32">
					<dim>-1</dim>
					<dim>4</dim>
					<dim>-1</dim>
					<dim>64</dim>
				</port>
			</input>
			<output>
				<port id="1" precision="I64">
					<dim>4</dim>
				</port>
			</output>
		</layer>
		<layer id="204" name="Constant_92593" type="Const" version="opset1">
			<data element_type="i64" shape="1" offset="12" size="8" />
			<output>
				<port id="0" precision="I64">
					<dim>1</dim>
				</port>
			</output>
		</layer>
		<layer id="205" name="__module.model.layers.0.self_attn/aten::size/Constant_10" type="Const" version="opset1">
			<data element_type="i32" shape="" offset="0" size="4" />
			<output>
				<port id="0" precision="I32" />
			</output>
		</layer>
		<layer id="206" name="__module.model.layers.0.self_attn/aten::size/Gather_10" type="Gather" version="opset8">
			<data batch_dims="0" />
			<input>
				<port id="0" precision="I64">
					<dim>4</dim>
				</port>
				<port id="1" precision="I64">
					<dim>1</dim>
				</port>
				<port id="2" precision="I32" />
			</input>
			<output>
				<port id="3" precision="I64" names="384">
					<dim>1</dim>
				</port>
			</output>
		</layer>
		<layer id="207" name="__module.model.layers.0.self_attn/aten::size/Constant_11" type="Const" version="opset1">
			<data element_type="i32" shape="" offset="0" size="4" />
			<output>
				<port id="0" precision="I32" />
			</output>
		</layer>
		<layer id="208" name="__module.model.layers.0.self_attn/aten::size/Gather_11" type="Gather" version="opset8">
			<data batch_dims="0" />
			<input>
				<port id="0" precision="I64">
					<dim>4</dim>
				</port>
				<port id="1" precision="I64" />
				<port id="2" precision="I32" />
			</input>
			<output>
				<port id="3" precision="I64" names="385" />
			</output>
		</layer>
		<layer id="209" name="Constant_77299" type="Const" version="opset1">
			<data element_type="i64" shape="1" offset="65648420" size="8" />
			<output>
				<port id="0" precision="I64">
					<dim>1</dim>
				</port>
			</output>
		</layer>
		<layer id="210" name="__module.model.layers.0.self_attn/prim::ListConstruct/Reshape_0_5" type="Reshape" version="opset1">
			<data special_zero="false" />
			<input>
				<port id="0" precision="I64" />
				<port id="1" precision="I64">
					<dim>1</dim>
				</port>
			</input>
			<output>
				<port id="2" precision="I64">
					<dim>1</dim>
				</port>
			</output>
		</layer>
		<layer id="211" name="Constant_93194" type="Const" version="opset1">
			<data element_type="i64" shape="2" offset="68100216" size="16" />
			<output>
				<port id="0" precision="I64">
					<dim>2</dim>
				</port>
			</output>
		</layer>
		<layer id="212" name="Constant_93195" type="Const" version="opset1">
			<data element_type="i64" shape="" offset="12" size="8" />
			<output>
				<port id="0" precision="I64" />
			</output>
		</layer>
		<layer id="213" name="Gather_93196" type="Gather" version="opset8">
			<data batch_dims="0" />
			<input>
				<port id="0" precision="I64">
					<dim>4</dim>
				</port>
				<port id="1" precision="I64">
					<dim>2</dim>
				</port>
				<port id="2" precision="I64" />
			</input>
			<output>
				<port id="3" precision="I64">
					<dim>2</dim>
				</port>
			</output>
		</layer>
		<layer id="214" name="__module.model.layers.0.self_attn/prim::ListConstruct/Concat_5" type="Concat" version="opset1">
			<data axis="0" />
			<input>
				<port id="0" precision="I64">
					<dim>1</dim>
				</port>
				<port id="1" precision="I64">
					<dim>1</dim>
				</port>
				<port id="2" precision="I64">
					<dim>1</dim>
				</port>
				<port id="3" precision="I64">
					<dim>2</dim>
				</port>
			</input>
			<output>
				<port id="4" precision="I64" names="394">
					<dim>5</dim>
				</port>
			</output>
		</layer>
		<layer id="215" name="__module.model.layers.0.self_attn/aten::expand/Abs_1" type="Abs" version="opset1">
			<input>
				<port id="0" precision="I64">
					<dim>5</dim>
				</port>
			</input>
			<output>
				<port id="1" precision="I64">
					<dim>5</dim>
				</port>
			</output>
		</layer>
		<layer id="216" name="__module.model.layers.0.self_attn/aten::expand/Broadcast_1" type="Broadcast" version="opset3">
			<data mode="bidirectional" />
			<input>
				<port id="0" precision="FP32">
					<dim>-1</dim>
					<dim>4</dim>
					<dim>1</dim>
					<dim>-1</dim>
					<dim>64</dim>
				</port>
				<port id="1" precision="I64">
					<dim>5</dim>
				</port>
			</input>
			<output>
				<port id="2" precision="FP32" names="395,hidden_states.15">
					<dim>-1</dim>
					<dim>4</dim>
					<dim>-1</dim>
					<dim>-1</dim>
					<dim>64</dim>
				</port>
			</output>
		</layer>
		<layer id="217" name="__module.model.layers.0.self_attn/aten::mul/Multiply_5" type="Multiply" version="opset1">
			<data auto_broadcast="numpy" />
			<input>
				<port id="0" precision="I64" />
				<port id="1" precision="I64" />
			</input>
			<output>
				<port id="2" precision="I64" names="396,397" />
			</output>
		</layer>
		<layer id="218" name="Constant_77302" type="Const" version="opset1">
			<data element_type="i64" shape="1" offset="65648420" size="8" />
			<output>
				<port id="0" precision="I64">
					<dim>1</dim>
				</port>
			</output>
		</layer>
		<layer id="219" name="__module.model.layers.0.self_attn/prim::ListConstruct/Reshape_0_6" type="Reshape" version="opset1">
			<data special_zero="false" />
			<input>
				<port id="0" precision="I64" />
				<port id="1" precision="I64">
					<dim>1</dim>
				</port>
			</input>
			<output>
				<port id="2" precision="I64">
					<dim>1</dim>
				</port>
			</output>
		</layer>
		<layer id="220" name="__module.model.layers.0.self_attn/prim::ListConstruct/Concat_6" type="Concat" version="opset1">
			<data axis="0" />
			<input>
				<port id="0" precision="I64">
					<dim>1</dim>
				</port>
				<port id="1" precision="I64">
					<dim>1</dim>
				</port>
				<port id="2" precision="I64">
					<dim>2</dim>
				</port>
			</input>
			<output>
				<port id="3" precision="I64" names="398">
					<dim>4</dim>
				</port>
			</output>
		</layer>
		<layer id="221" name="__module.model.layers.0.self_attn/aten::reshape/Reshape_1" type="Reshape" version="opset1">
			<data special_zero="false" />
			<input>
				<port id="0" precision="FP32">
					<dim>-1</dim>
					<dim>4</dim>
					<dim>-1</dim>
					<dim>-1</dim>
					<dim>64</dim>
				</port>
				<port id="1" precision="I64">
					<dim>4</dim>
				</port>
			</input>
			<output>
				<port id="2" precision="FP32" names="399">
					<dim>-1</dim>
					<dim>32</dim>
					<dim>-1</dim>
					<dim>64</dim>
				</port>
			</output>
		</layer>
		<layer id="222" name="__module.model/aten::triu/Constant" type="Const" version="opset1">
			<data element_type="i32" shape="" offset="0" size="4" />
			<output>
				<port id="0" precision="I32" />
			</output>
		</layer>
		<layer id="223" name="Multiply_106246" type="Const" version="opset1">
			<data element_type="f32" shape="" offset="68625288" size="4" />
			<output>
				<port id="0" precision="FP32" />
			</output>
		</layer>
		<layer id="224" name="Constant_106251" type="Const" version="opset1">
			<data element_type="i64" shape="2" offset="68625292" size="16" />
			<output>
				<port id="0" precision="I64">
					<dim>2</dim>
				</port>
			</output>
		</layer>
		<layer id="225" name="__module.model/aten::size/ShapeOf_3" type="ShapeOf" version="opset3">
			<data output_type="i64" />
			<input>
				<port id="0" precision="FP32">
					<dim>-1</dim>
					<dim>-1</dim>
					<dim>2048</dim>
				</port>
			</input>
			<output>
				<port id="1" precision="I64">
					<dim>3</dim>
				</port>
			</output>
		</layer>
		<layer id="226" name="__module.model/aten::size/Constant_3" type="Const" version="opset1">
			<data element_type="i32" shape="" offset="0" size="4" />
			<output>
				<port id="0" precision="I32" />
			</output>
		</layer>
		<layer id="227" name="__module.model/aten::size/Gather_3" type="Gather" version="opset8">
			<data batch_dims="0" />
			<input>
				<port id="0" precision="I64">
					<dim>3</dim>
				</port>
				<port id="1" precision="I64" />
				<port id="2" precision="I32" />
			</input>
			<output>
				<port id="3" precision="I64" names="226,231" />
			</output>
		</layer>
		<layer id="228" name="Constant_77303" type="Const" version="opset1">
			<data element_type="i64" shape="1" offset="65648420" size="8" />
			<output>
				<port id="0" precision="I64">
					<dim>1</dim>
				</port>
			</output>
		</layer>
		<layer id="229" name="__module.model/prim::ListConstruct/Reshape" type="Reshape" version="opset1">
			<data special_zero="false" />
			<input>
				<port id="0" precision="I64" />
				<port id="1" precision="I64">
					<dim>1</dim>
				</port>
			</input>
			<output>
				<port id="2" precision="I64">
					<dim>1</dim>
				</port>
			</output>
		</layer>
		<layer id="230" name="__module.model/aten::size/ShapeOf_1" type="ShapeOf" version="opset3">
			<data output_type="i64" />
			<input>
				<port id="0" precision="I64">
					<dim>-1</dim>
					<dim>-1</dim>
				</port>
			</input>
			<output>
				<port id="1" precision="I64">
					<dim>2</dim>
				</port>
			</output>
		</layer>
		<layer id="231" name="__module.model/aten::size/Constant_1" type="Const" version="opset1">
			<data element_type="i32" shape="" offset="0" size="4" />
			<output>
				<port id="0" precision="I32" />
			</output>
		</layer>
		<layer id="232" name="__module.model/aten::size/Gather_1" type="Gather" version="opset8">
			<data batch_dims="0" />
			<input>
				<port id="0" precision="I64">
					<dim>2</dim>
				</port>
				<port id="1" precision="I64" />
				<port id="2" precision="I32" />
			</input>
			<output>
				<port id="3" precision="I64" names="232,250" />
			</output>
		</layer>
		<layer id="233" name="Constant_77304" type="Const" version="opset1">
			<data element_type="i64" shape="1" offset="65648420" size="8" />
			<output>
				<port id="0" precision="I64">
					<dim>1</dim>
				</port>
			</output>
		</layer>
		<layer id="234" name="__module.model/prim::ListConstruct/Reshape_0" type="Reshape" version="opset1">
			<data special_zero="false" />
			<input>
				<port id="0" precision="I64" />
				<port id="1" precision="I64">
					<dim>1</dim>
				</port>
			</input>
			<output>
				<port id="2" precision="I64">
					<dim>1</dim>
				</port>
			</output>
		</layer>
		<layer id="235" name="__module.model/prim::ListConstruct/Concat" type="Concat" version="opset1">
			<data axis="0" />
			<input>
				<port id="0" precision="I64">
					<dim>1</dim>
				</port>
				<port id="1" precision="I64">
					<dim>1</dim>
				</port>
			</input>
			<output>
				<port id="2" precision="I64" names="233">
					<dim>2</dim>
				</port>
			</output>
		</layer>
		<layer id="236" name="Maximum_106252" type="Maximum" version="opset1">
			<data auto_broadcast="numpy" />
			<input>
				<port id="0" precision="I64">
					<dim>2</dim>
				</port>
				<port id="1" precision="I64">
					<dim>2</dim>
				</port>
			</input>
			<output>
				<port id="2" precision="I64">
					<dim>2</dim>
				</port>
			</output>
		</layer>
		<layer id="237" name="__module.model/aten::mul/Multiply" type="Broadcast" version="opset3">
			<data mode="numpy" />
			<input>
				<port id="0" precision="FP32" />
				<port id="1" precision="I64">
					<dim>2</dim>
				</port>
			</input>
			<output>
				<port id="2" precision="FP32" names="235">
					<dim>-1</dim>
					<dim>-1</dim>
				</port>
			</output>
		</layer>
		<layer id="238" name="__module.model/aten::triu/ShapeOf" type="ShapeOf" version="opset3">
			<data output_type="i32" />
			<input>
				<port id="0" precision="FP32">
					<dim>-1</dim>
					<dim>-1</dim>
				</port>
			</input>
			<output>
				<port id="1" precision="I32">
					<dim>2</dim>
				</port>
			</output>
		</layer>
		<layer id="239" name="__module.model/aten::triu/Constant_1" type="Const" version="opset1">
			<data element_type="i32" shape="" offset="68625308" size="4" />
			<output>
				<port id="0" precision="I32" />
			</output>
		</layer>
		<layer id="240" name="__module.model/aten::triu/Gather" type="Gather" version="opset7">
			<data batch_dims="0" />
			<input>
				<port id="0" precision="I32">
					<dim>2</dim>
				</port>
				<port id="1" precision="I32" />
				<port id="2" precision="I32" />
			</input>
			<output>
				<port id="3" precision="I32" />
			</output>
		</layer>
		<layer id="241" name="__module.model/aten::triu/Constant_2" type="Const" version="opset1">
			<data element_type="i32" shape="" offset="68625312" size="4" />
			<output>
				<port id="0" precision="I32" />
			</output>
		</layer>
		<layer id="242" name="__module.model/aten::triu/Range" type="Range" version="opset4">
			<data output_type="i32" />
			<input>
				<port id="0" precision="I32" />
				<port id="1" precision="I32" />
				<port id="2" precision="I32" />
			</input>
			<output>
				<port id="3" precision="I32">
					<dim>-1</dim>
				</port>
			</output>
		</layer>
		<layer id="243" name="__module.model/aten::triu/Unsqueeze" type="Unsqueeze" version="opset1">
			<input>
				<port id="0" precision="I32">
					<dim>-1</dim>
				</port>
				<port id="1" precision="I32" />
			</input>
			<output>
				<port id="2" precision="I32">
					<dim>1</dim>
					<dim>-1</dim>
				</port>
			</output>
		</layer>
		<layer id="244" name="__module.model/aten::triu/Convert" type="Const" version="opset1">
			<data element_type="i32" shape="" offset="68625312" size="4" />
			<output>
				<port id="0" precision="I32" />
			</output>
		</layer>
		<layer id="245" name="__module.model/aten::triu/Constant_3" type="Const" version="opset1">
			<data element_type="i32" shape="" offset="68625316" size="4" />
			<output>
				<port id="0" precision="I32" />
			</output>
		</layer>
		<layer id="246" name="__module.model/aten::triu/Gather_1" type="Gather" version="opset7">
			<data batch_dims="0" />
			<input>
				<port id="0" precision="I32">
					<dim>2</dim>
				</port>
				<port id="1" precision="I32" />
				<port id="2" precision="I32" />
			</input>
			<output>
				<port id="3" precision="I32" />
			</output>
		</layer>
		<layer id="247" name="__module.model/aten::triu/Add" type="Add" version="opset1">
			<data auto_broadcast="numpy" />
			<input>
				<port id="0" precision="I32" />
				<port id="1" precision="I32" />
			</input>
			<output>
				<port id="2" precision="I32" />
			</output>
		</layer>
		<layer id="248" name="__module.model/aten::triu/Range_1" type="Range" version="opset4">
			<data output_type="i32" />
			<input>
				<port id="0" precision="I32" />
				<port id="1" precision="I32" />
				<port id="2" precision="I32" />
			</input>
			<output>
				<port id="3" precision="I32">
					<dim>-1</dim>
				</port>
			</output>
		</layer>
		<layer id="249" name="__module.model/aten::triu/Unsqueeze_1" type="Unsqueeze" version="opset1">
			<input>
				<port id="0" precision="I32">
					<dim>-1</dim>
				</port>
				<port id="1" precision="I32" />
			</input>
			<output>
				<port id="2" precision="I32">
					<dim>-1</dim>
					<dim>1</dim>
				</port>
			</output>
		</layer>
		<layer id="250" name="__module.model/aten::triu/GreaterEqual" type="GreaterEqual" version="opset1">
			<data auto_broadcast="numpy" />
			<input>
				<port id="0" precision="I32">
					<dim>1</dim>
					<dim>-1</dim>
				</port>
				<port id="1" precision="I32">
					<dim>-1</dim>
					<dim>1</dim>
				</port>
			</input>
			<output>
				<port id="2" precision="BOOL">
					<dim>-1</dim>
					<dim>-1</dim>
				</port>
			</output>
		</layer>
		<layer id="251" name="__module.model/aten::triu/ConvertLike" type="Const" version="opset1">
			<data element_type="f32" shape="" offset="0" size="4" />
			<output>
				<port id="0" precision="FP32" />
			</output>
		</layer>
		<layer id="252" name="__module.model/aten::triu/Select" type="Select" version="opset1">
			<data auto_broadcast="numpy" />
			<input>
				<port id="0" precision="BOOL">
					<dim>-1</dim>
					<dim>-1</dim>
				</port>
				<port id="1" precision="FP32">
					<dim>-1</dim>
					<dim>-1</dim>
				</port>
				<port id="2" precision="FP32" />
			</input>
			<output>
				<port id="3" precision="FP32" names="236_1">
					<dim>-1</dim>
					<dim>-1</dim>
				</port>
			</output>
		</layer>
		<layer id="253" name="__module.model/aten::arange/Constant" type="Const" version="opset1">
			<data element_type="i32" shape="" offset="0" size="4" />
			<output>
				<port id="0" precision="I32" />
			</output>
		</layer>
		<layer id="254" name="__module.model/aten::arange/Constant_1" type="Const" version="opset1">
			<data element_type="i32" shape="" offset="68625312" size="4" />
			<output>
				<port id="0" precision="I32" />
			</output>
		</layer>
		<layer id="255" name="__module.model/aten::arange/Range" type="Range" version="opset4">
			<data output_type="f32" />
			<input>
				<port id="0" precision="I32" />
				<port id="1" precision="I64" />
				<port id="2" precision="I32" />
			</input>
			<output>
				<port id="3" precision="FP32">
					<dim>-1</dim>
				</port>
			</output>
		</layer>
		<layer id="256" name="__module.model/aten::arange/ConvertLike" type="Convert" version="opset1">
			<data destination_type="i64" />
			<input>
				<port id="0" precision="FP32">
					<dim>-1</dim>
				</port>
			</input>
			<output>
				<port id="1" precision="I64" names="237">
					<dim>-1</dim>
				</port>
			</output>
		</layer>
		<layer id="257" name="__module.model/aten::gt/Convert" type="Convert" version="opset1">
			<data destination_type="f32" />
			<input>
				<port id="0" precision="I64">
					<dim>-1</dim>
				</port>
			</input>
			<output>
				<port id="1" precision="FP32">
					<dim>-1</dim>
				</port>
			</output>
		</layer>
		<layer id="258" name="__module.model/aten::size/ShapeOf_2" type="ShapeOf" version="opset3">
			<data output_type="i64" />
			<input>
				<port id="0" precision="FP32">
					<dim>-1</dim>
					<dim>4</dim>
					<dim>-1</dim>
					<dim>64</dim>
				</port>
			</input>
			<output>
				<port id="1" precision="I64">
					<dim>4</dim>
				</port>
			</output>
		</layer>
		<layer id="259" name="__module.model/aten::size/Constant_2" type="Const" version="opset1">
			<data element_type="i32" shape="" offset="0" size="4" />
			<output>
				<port id="0" precision="I32" />
			</output>
		</layer>
		<layer id="260" name="__module.model/aten::size/Gather_2" type="Gather" version="opset8">
			<data batch_dims="0" />
			<input>
				<port id="0" precision="I64">
					<dim>4</dim>
				</port>
				<port id="1" precision="I64" />
				<port id="2" precision="I32" />
			</input>
			<output>
				<port id="3" precision="I64" names="224" />
			</output>
		</layer>
		<layer id="261" name="__module.model/aten::add/Add" type="Add" version="opset1">
			<data auto_broadcast="numpy" />
			<input>
				<port id="0" precision="I64" />
				<port id="1" precision="I64" />
			</input>
			<output>
				<port id="2" precision="I64" names="228" />
			</output>
		</layer>
		<layer id="262" name="__module.model/aten::arange/Constant_2" type="Const" version="opset1">
			<data element_type="i32" shape="" offset="68625312" size="4" />
			<output>
				<port id="0" precision="I32" />
			</output>
		</layer>
		<layer id="263" name="__module.model/aten::arange/Range_1" type="Range" version="opset4">
			<data output_type="f32" />
			<input>
				<port id="0" precision="I64" />
				<port id="1" precision="I64" />
				<port id="2" precision="I32" />
			</input>
			<output>
				<port id="3" precision="FP32" names="230,cache_position">
					<dim>-1</dim>
				</port>
			</output>
		</layer>
		<layer id="264" name="Constant_178" type="Const" version="opset1">
			<data element_type="i64" shape="2" offset="68625320" size="16" />
			<output>
				<port id="0" precision="I64" names="238">
					<dim>2</dim>
				</port>
			</output>
		</layer>
		<layer id="265" name="__module.model/aten::reshape/Reshape" type="Reshape" version="opset1">
			<data special_zero="false" />
			<input>
				<port id="0" precision="FP32">
					<dim>-1</dim>
				</port>
				<port id="1" precision="I64">
					<dim>2</dim>
				</port>
			</input>
			<output>
				<port id="2" precision="FP32" names="239">
					<dim>-1</dim>
					<dim>1</dim>
				</port>
			</output>
		</layer>
		<layer id="266" name="__module.model/aten::gt/Greater" type="Greater" version="opset1">
			<data auto_broadcast="numpy" />
			<input>
				<port id="0" precision="FP32">
					<dim>-1</dim>
				</port>
				<port id="1" precision="FP32">
					<dim>-1</dim>
					<dim>1</dim>
				</port>
			</input>
			<output>
				<port id="2" precision="BOOL" names="240">
					<dim>-1</dim>
					<dim>-1</dim>
				</port>
			</output>
		</layer>
		<layer id="267" name="__module.model/aten::mul_/ConvertLike" type="Convert" version="opset1">
			<data destination_type="f32" />
			<input>
				<port id="0" precision="BOOL">
					<dim>-1</dim>
					<dim>-1</dim>
				</port>
			</input>
			<output>
				<port id="1" precision="FP32">
					<dim>-1</dim>
					<dim>-1</dim>
				</port>
			</output>
		</layer>
		<layer id="268" name="__module.model/aten::mul_/Multiply" type="Multiply" version="opset1">
			<data auto_broadcast="numpy" />
			<input>
				<port id="0" precision="FP32">
					<dim>-1</dim>
					<dim>-1</dim>
				</port>
				<port id="1" precision="FP32">
					<dim>-1</dim>
					<dim>-1</dim>
				</port>
			</input>
			<output>
				<port id="2" precision="FP32" names="236,causal_mask.1">
					<dim>-1</dim>
					<dim>-1</dim>
				</port>
			</output>
		</layer>
		<layer id="269" name="163" type="Const" version="opset1">
			<data element_type="i64" shape="" offset="12" size="8" />
			<output>
				<port id="0" precision="I64" names="163" />
			</output>
		</layer>
		<layer id="270" name="__module.model/aten::unsqueeze/Unsqueeze" type="Unsqueeze" version="opset1">
			<input>
				<port id="0" precision="FP32">
					<dim>-1</dim>
					<dim>-1</dim>
				</port>
				<port id="1" precision="I64" />
			</input>
			<output>
				<port id="2" precision="FP32" names="242">
					<dim>1</dim>
					<dim>-1</dim>
					<dim>-1</dim>
				</port>
			</output>
		</layer>
		<layer id="271" name="__module.model/aten::unsqueeze/Unsqueeze_1" type="Unsqueeze" version="opset1">
			<input>
				<port id="0" precision="FP32">
					<dim>1</dim>
					<dim>-1</dim>
					<dim>-1</dim>
				</port>
				<port id="1" precision="I64" />
			</input>
			<output>
				<port id="2" precision="FP32" names="243,244,245">
					<dim>1</dim>
					<dim>1</dim>
					<dim>-1</dim>
					<dim>-1</dim>
				</port>
			</output>
		</layer>
		<layer id="272" name="Constant_92602" type="Const" version="opset1">
			<data element_type="i64" shape="1" offset="12" size="8" />
			<output>
				<port id="0" precision="I64">
					<dim>1</dim>
				</port>
			</output>
		</layer>
		<layer id="273" name="__module.model/aten::size/Constant_4" type="Const" version="opset1">
			<data element_type="i32" shape="" offset="0" size="4" />
			<output>
				<port id="0" precision="I32" />
			</output>
		</layer>
		<layer id="274" name="__module.model/aten::size/Gather_4" type="Gather" version="opset8">
			<data batch_dims="0" />
			<input>
				<port id="0" precision="I64">
					<dim>3</dim>
				</port>
				<port id="1" precision="I64">
					<dim>1</dim>
				</port>
				<port id="2" precision="I32" />
			</input>
			<output>
				<port id="3" precision="I64" names="246">
					<dim>1</dim>
				</port>
			</output>
		</layer>
		<layer id="275" name="__module.model/prim::ListConstruct/Concat_1" type="Concat" version="opset1">
			<data axis="0" />
			<input>
				<port id="0" precision="I64">
					<dim>1</dim>
				</port>
				<port id="1" precision="I64">
					<dim>1</dim>
				</port>
				<port id="2" precision="I64">
					<dim>1</dim>
				</port>
				<port id="3" precision="I64">
					<dim>1</dim>
				</port>
			</input>
			<output>
				<port id="4" precision="I64" names="247">
					<dim>4</dim>
				</port>
			</output>
		</layer>
		<layer id="276" name="__module.model/aten::expand/Abs" type="Abs" version="opset1">
			<input>
				<port id="0" precision="I64">
					<dim>4</dim>
				</port>
			</input>
			<output>
				<port id="1" precision="I64">
					<dim>4</dim>
				</port>
			</output>
		</layer>
		<layer id="277" name="__module.model/aten::expand/Broadcast" type="Broadcast" version="opset3">
			<data mode="bidirectional" />
			<input>
				<port id="0" precision="FP32">
					<dim>1</dim>
					<dim>1</dim>
					<dim>-1</dim>
					<dim>-1</dim>
				</port>
				<port id="1" precision="I64">
					<dim>4</dim>
				</port>
			</input>
			<output>
				<port id="2" precision="FP32" names="248,causal_mask.5">
					<dim>-1</dim>
					<dim>-1</dim>
					<dim>-1</dim>
					<dim>-1</dim>
				</port>
			</output>
		</layer>
		<layer id="278" name="Constant_77306" type="Const" version="opset1">
			<data element_type="i64" shape="1" offset="65648420" size="8" />
			<output>
				<port id="0" precision="I64">
					<dim>1</dim>
				</port>
			</output>
		</layer>
		<layer id="279" name="SliceAssign_271/Reshape_0" type="Reshape" version="opset1">
			<data special_zero="false" />
			<input>
				<port id="0" precision="FP32">
					<dim>-1</dim>
					<dim>-1</dim>
					<dim>-1</dim>
					<dim>-1</dim>
				</port>
				<port id="1" precision="I64">
					<dim>1</dim>
				</port>
			</input>
			<output>
				<port id="2" precision="FP32">
					<dim>-1</dim>
				</port>
			</output>
		</layer>
		<layer id="280" name="Constant_56731" type="Const" version="opset1">
			<data element_type="i64" shape="" offset="12" size="8" />
			<output>
				<port id="0" precision="I64" />
			</output>
		</layer>
		<layer id="281" name="SliceAssign_271/ShapeOf" type="ShapeOf" version="opset3">
			<data output_type="i64" />
			<input>
				<port id="0" precision="FP32">
					<dim>-1</dim>
					<dim>-1</dim>
					<dim>-1</dim>
					<dim>-1</dim>
				</port>
			</input>
			<output>
				<port id="1" precision="I64">
					<dim>4</dim>
				</port>
			</output>
		</layer>
		<layer id="282" name="SliceAssign_271/ReduceProd" type="ReduceProd" version="opset1">
			<data keep_dims="false" />
			<input>
				<port id="0" precision="I64">
					<dim>4</dim>
				</port>
				<port id="1" precision="I64" />
			</input>
			<output>
				<port id="2" precision="I64" />
			</output>
		</layer>
		<layer id="283" name="Constant_56732" type="Const" version="opset1">
			<data element_type="i64" shape="" offset="67827680" size="8" />
			<output>
				<port id="0" precision="I64" />
			</output>
		</layer>
		<layer id="284" name="SliceAssign_271/Range" type="Range" version="opset4">
			<data output_type="i64" />
			<input>
				<port id="0" precision="I64" />
				<port id="1" precision="I64" />
				<port id="2" precision="I64" />
			</input>
			<output>
				<port id="3" precision="I64">
					<dim>-1</dim>
				</port>
			</output>
		</layer>
		<layer id="285" name="SliceAssign_271/Reshape" type="Reshape" version="opset1">
			<data special_zero="false" />
			<input>
				<port id="0" precision="I64">
					<dim>-1</dim>
				</port>
				<port id="1" precision="I64">
					<dim>4</dim>
				</port>
			</input>
			<output>
				<port id="2" precision="I64">
					<dim>-1</dim>
					<dim>-1</dim>
					<dim>-1</dim>
					<dim>-1</dim>
				</port>
			</output>
		</layer>
		<layer id="286" name="Constant_96356" type="Const" version="opset1">
			<data element_type="i64" shape="4" offset="67827700" size="32" />
			<output>
				<port id="0" precision="I64">
					<dim>4</dim>
				</port>
			</output>
		</layer>
		<layer id="287" name="Constant_96357" type="Const" version="opset1">
			<data element_type="i64" shape="4" offset="67827700" size="32" />
			<output>
				<port id="0" precision="I64">
					<dim>4</dim>
				</port>
			</output>
		</layer>
		<layer id="288" name="Constant_96353" type="Const" version="opset1">
			<data element_type="i64" shape="1" offset="67827732" size="8" />
			<output>
				<port id="0" precision="I64">
					<dim>1</dim>
				</port>
			</output>
		</layer>
		<layer id="289" name="__module.model/aten::slice/Constant_1" type="Const" version="opset1">
			<data element_type="i32" shape="" offset="0" size="4" />
			<output>
				<port id="0" precision="I32" />
			</output>
		</layer>
		<layer id="290" name="__module.model/aten::slice/Unsqueeze_13" type="Unsqueeze" version="opset1">
			<input>
				<port id="0" precision="I64" />
				<port id="1" precision="I32" />
			</input>
			<output>
				<port id="2" precision="I64">
					<dim>1</dim>
				</port>
			</output>
		</layer>
		<layer id="291" name="Constant_96352" type="Const" version="opset1">
			<data element_type="i32" shape="1" offset="0" size="4" />
			<output>
				<port id="0" precision="I32">
					<dim>1</dim>
				</port>
			</output>
		</layer>
		<layer id="292" name="ScatterUpdate_96358" type="ScatterUpdate" version="opset3">
			<input>
				<port id="0" precision="I64">
					<dim>4</dim>
				</port>
				<port id="1" precision="I64">
					<dim>1</dim>
				</port>
				<port id="2" precision="I64">
					<dim>1</dim>
				</port>
				<port id="3" precision="I32">
					<dim>1</dim>
				</port>
			</input>
			<output>
				<port id="4" precision="I64">
					<dim>4</dim>
				</port>
			</output>
		</layer>
		<layer id="293" name="Constant_96361" type="Const" version="opset1">
			<data element_type="i64" shape="4" offset="67827780" size="32" />
			<output>
				<port id="0" precision="I64">
					<dim>4</dim>
				</port>
			</output>
		</layer>
		<layer id="294" name="SliceAssign_271/Slice" type="StridedSlice" version="opset1">
			<data begin_mask="1, 1, 1, 0" end_mask="1, 1, 1, 0" new_axis_mask="" shrink_axis_mask="" ellipsis_mask="" />
			<input>
				<port id="0" precision="I64">
					<dim>-1</dim>
					<dim>-1</dim>
					<dim>-1</dim>
					<dim>-1</dim>
				</port>
				<port id="1" precision="I64">
					<dim>4</dim>
				</port>
				<port id="2" precision="I64">
					<dim>4</dim>
				</port>
				<port id="3" precision="I64">
					<dim>4</dim>
				</port>
			</input>
			<output>
				<port id="4" precision="I64">
					<dim>-1</dim>
					<dim>-1</dim>
					<dim>-1</dim>
					<dim>-1</dim>
				</port>
			</output>
		</layer>
		<layer id="295" name="Constant_56734" type="Const" version="opset1">
			<data element_type="i64" shape="2" offset="68625320" size="16" />
			<output>
				<port id="0" precision="I64">
					<dim>2</dim>
				</port>
			</output>
		</layer>
		<layer id="296" name="SliceAssign_271/Reshape_1" type="Reshape" version="opset1">
			<data special_zero="false" />
			<input>
				<port id="0" precision="I64">
					<dim>-1</dim>
					<dim>-1</dim>
					<dim>-1</dim>
					<dim>-1</dim>
				</port>
				<port id="1" precision="I64">
					<dim>2</dim>
				</port>
			</input>
			<output>
				<port id="2" precision="I64">
					<dim>-1</dim>
					<dim>1</dim>
				</port>
			</output>
		</layer>
		<layer id="297" name="Constant_96368" type="Const" version="opset1">
			<data element_type="i64" shape="4" offset="67827700" size="32" />
			<output>
				<port id="0" precision="I64">
					<dim>4</dim>
				</port>
			</output>
		</layer>
		<layer id="298" name="Constant_96373" type="Const" version="opset1">
			<data element_type="i64" shape="4" offset="67827780" size="32" />
			<output>
				<port id="0" precision="I64">
					<dim>4</dim>
				</port>
			</output>
		</layer>
		<layer id="299" name="__module.model/aten::slice/Slice_2" type="StridedSlice" version="opset1">
			<data begin_mask="1, 1, 1, 0" end_mask="1, 1, 1, 0" new_axis_mask="" shrink_axis_mask="" ellipsis_mask="" />
			<input>
				<port id="0" precision="FP32">
					<dim>-1</dim>
					<dim>-1</dim>
					<dim>-1</dim>
					<dim>-1</dim>
				</port>
				<port id="1" precision="I64">
					<dim>4</dim>
				</port>
				<port id="2" precision="I64">
					<dim>4</dim>
				</port>
				<port id="3" precision="I64">
					<dim>4</dim>
				</port>
			</input>
			<output>
				<port id="4" precision="FP32" names="251,259,261_1">
					<dim>-1</dim>
					<dim>-1</dim>
					<dim>-1</dim>
					<dim>-1</dim>
				</port>
			</output>
		</layer>
		<layer id="300" name="Constant_111322" type="Const" version="opset1">
			<data element_type="f32" shape="1, 1, 1, 1" offset="0" size="4" />
			<output>
				<port id="0" precision="FP32">
					<dim>1</dim>
					<dim>1</dim>
					<dim>1</dim>
					<dim>1</dim>
				</port>
			</output>
		</layer>
		<layer id="301" name="__module.model/aten::eq/Equal" type="Equal" version="opset1">
			<data auto_broadcast="numpy" />
			<input>
				<port id="0" precision="FP32">
					<dim>-1</dim>
					<dim>-1</dim>
					<dim>-1</dim>
					<dim>-1</dim>
				</port>
				<port id="1" precision="FP32">
					<dim>1</dim>
					<dim>1</dim>
					<dim>1</dim>
					<dim>1</dim>
				</port>
			</input>
			<output>
				<port id="2" precision="BOOL" names="252">
					<dim>-1</dim>
					<dim>-1</dim>
					<dim>-1</dim>
					<dim>-1</dim>
				</port>
			</output>
		</layer>
		<layer id="302" name="__module.model/aten::unsqueeze/Unsqueeze_2" type="Unsqueeze" version="opset1">
			<input>
				<port id="0" precision="I64">
					<dim>-1</dim>
					<dim>-1</dim>
				</port>
				<port id="1" precision="I64" />
			</input>
			<output>
				<port id="2" precision="I64" names="254">
					<dim>-1</dim>
					<dim>1</dim>
					<dim>-1</dim>
				</port>
			</output>
		</layer>
		<layer id="303" name="__module.model/aten::unsqueeze/Unsqueeze_3" type="Unsqueeze" version="opset1">
			<input>
				<port id="0" precision="I64">
					<dim>-1</dim>
					<dim>1</dim>
					<dim>-1</dim>
				</port>
				<port id="1" precision="I64" />
			</input>
			<output>
				<port id="2" precision="I64" names="255,256">
					<dim>-1</dim>
					<dim>1</dim>
					<dim>1</dim>
					<dim>-1</dim>
				</port>
			</output>
		</layer>
		<layer id="304" name="__module.model/aten::eq/Convert" type="Convert" version="opset1">
			<data destination_type="f32" />
			<input>
				<port id="0" precision="I64">
					<dim>-1</dim>
					<dim>1</dim>
					<dim>1</dim>
					<dim>-1</dim>
				</port>
			</input>
			<output>
				<port id="1" precision="FP32">
					<dim>-1</dim>
					<dim>1</dim>
					<dim>1</dim>
					<dim>-1</dim>
				</port>
			</output>
		</layer>
		<layer id="305" name="Constant_111323" type="Const" version="opset1">
			<data element_type="f32" shape="1, 1, 1, 1" offset="0" size="4" />
			<output>
				<port id="0" precision="FP32">
					<dim>1</dim>
					<dim>1</dim>
					<dim>1</dim>
					<dim>1</dim>
				</port>
			</output>
		</layer>
		<layer id="306" name="__module.model/aten::eq/Equal_1" type="Equal" version="opset1">
			<data auto_broadcast="numpy" />
			<input>
				<port id="0" precision="FP32">
					<dim>-1</dim>
					<dim>1</dim>
					<dim>1</dim>
					<dim>-1</dim>
				</port>
				<port id="1" precision="FP32">
					<dim>1</dim>
					<dim>1</dim>
					<dim>1</dim>
					<dim>1</dim>
				</port>
			</input>
			<output>
				<port id="2" precision="BOOL" names="257">
					<dim>-1</dim>
					<dim>1</dim>
					<dim>1</dim>
					<dim>-1</dim>
				</port>
			</output>
		</layer>
		<layer id="307" name="__module.model/aten::mul/LogicalAnd" type="LogicalAnd" version="opset1">
			<data auto_broadcast="numpy" />
			<input>
				<port id="0" precision="BOOL">
					<dim>-1</dim>
					<dim>-1</dim>
					<dim>-1</dim>
					<dim>-1</dim>
				</port>
				<port id="1" precision="BOOL">
					<dim>-1</dim>
					<dim>1</dim>
					<dim>1</dim>
					<dim>-1</dim>
				</port>
			</input>
			<output>
				<port id="2" precision="BOOL" names="258,padding_mask">
					<dim>-1</dim>
					<dim>-1</dim>
					<dim>-1</dim>
					<dim>-1</dim>
				</port>
			</output>
		</layer>
		<layer id="308" name="__module.model/aten::masked_fill/ConvertLike" type="Const" version="opset1">
			<data element_type="f32" shape="" offset="68625288" size="4" />
			<output>
				<port id="0" precision="FP32" />
			</output>
		</layer>
		<layer id="309" name="__module.model/aten::masked_fill/Select" type="Select" version="opset1">
			<data auto_broadcast="numpy" />
			<input>
				<port id="0" precision="BOOL">
					<dim>-1</dim>
					<dim>-1</dim>
					<dim>-1</dim>
					<dim>-1</dim>
				</port>
				<port id="1" precision="FP32" />
				<port id="2" precision="FP32">
					<dim>-1</dim>
					<dim>-1</dim>
					<dim>-1</dim>
					<dim>-1</dim>
				</port>
			</input>
			<output>
				<port id="3" precision="FP32" names="260">
					<dim>-1</dim>
					<dim>-1</dim>
					<dim>-1</dim>
					<dim>-1</dim>
				</port>
			</output>
		</layer>
		<layer id="310" name="__module.model/aten::copy_/ShapeOf" type="ShapeOf" version="opset3">
			<data output_type="i64" />
			<input>
				<port id="0" precision="FP32">
					<dim>-1</dim>
					<dim>-1</dim>
					<dim>-1</dim>
					<dim>-1</dim>
				</port>
			</input>
			<output>
				<port id="1" precision="I64">
					<dim>4</dim>
				</port>
			</output>
		</layer>
		<layer id="311" name="__module.model/aten::copy_/Broadcast" type="Broadcast" version="opset3">
			<data mode="numpy" />
			<input>
				<port id="0" precision="FP32">
					<dim>-1</dim>
					<dim>-1</dim>
					<dim>-1</dim>
					<dim>-1</dim>
				</port>
				<port id="1" precision="I64">
					<dim>4</dim>
				</port>
			</input>
			<output>
				<port id="2" precision="FP32" names="261">
					<dim>-1</dim>
					<dim>-1</dim>
					<dim>-1</dim>
					<dim>-1</dim>
				</port>
			</output>
		</layer>
		<layer id="312" name="Constant_77307" type="Const" version="opset1">
			<data element_type="i64" shape="1" offset="65648420" size="8" />
			<output>
				<port id="0" precision="I64">
					<dim>1</dim>
				</port>
			</output>
		</layer>
		<layer id="313" name="SliceAssign_271/Reshape_2" type="Reshape" version="opset1">
			<data special_zero="false" />
			<input>
				<port id="0" precision="FP32">
					<dim>-1</dim>
					<dim>-1</dim>
					<dim>-1</dim>
					<dim>-1</dim>
				</port>
				<port id="1" precision="I64">
					<dim>1</dim>
				</port>
			</input>
			<output>
				<port id="2" precision="FP32">
					<dim>-1</dim>
				</port>
			</output>
		</layer>
		<layer id="314" name="SliceAssign_271/ScatterNDUpdate" type="ScatterNDUpdate" version="opset4">
			<input>
				<port id="0" precision="FP32">
					<dim>-1</dim>
				</port>
				<port id="1" precision="I64">
					<dim>-1</dim>
					<dim>1</dim>
				</port>
				<port id="2" precision="FP32">
					<dim>-1</dim>
				</port>
			</input>
			<output>
				<port id="3" precision="FP32">
					<dim>-1</dim>
				</port>
			</output>
		</layer>
		<layer id="315" name="SliceAssign_271/Reshape_3" type="Reshape" version="opset1">
			<data special_zero="false" />
			<input>
				<port id="0" precision="FP32">
					<dim>-1</dim>
				</port>
				<port id="1" precision="I64">
					<dim>4</dim>
				</port>
			</input>
			<output>
				<port id="2" precision="FP32" names="1121,1122,1123,1301,1302,1303,1481,1482,1483,1661,1662,1663,1841,1842,1843,2021,2022,2023,2201,2202,2203,2381,2382,2383,249,2561,2562,2563,2741,2742,2743,2921,2922,2923,3101,3102,3103,3281,3282,3283,3461,3462,3463,3641,3642,3643,3821,3822,3823,4001,4002,4003,401,402,403,4181,4182,4183,581,582,583,761,762,763,941,942,943">
					<dim>-1</dim>
					<dim>-1</dim>
					<dim>-1</dim>
					<dim>-1</dim>
				</port>
			</output>
		</layer>
		<layer id="316" name="Constant_96418" type="Const" version="opset1">
			<data element_type="i64" shape="4" offset="67827700" size="32" />
			<output>
				<port id="0" precision="I64">
					<dim>4</dim>
				</port>
			</output>
		</layer>
		<layer id="317" name="Constant_96419" type="Const" version="opset1">
			<data element_type="i64" shape="4" offset="67827700" size="32" />
			<output>
				<port id="0" precision="I64">
					<dim>4</dim>
				</port>
			</output>
		</layer>
		<layer id="318" name="Constant_96415" type="Const" version="opset1">
			<data element_type="i64" shape="1" offset="67827732" size="8" />
			<output>
				<port id="0" precision="I64">
					<dim>1</dim>
				</port>
			</output>
		</layer>
		<layer id="319" name="__module.model.layers.0.self_attn/aten::size/ShapeOf_14" type="ShapeOf" version="opset3">
			<data output_type="i64" />
			<input>
				<port id="0" precision="FP32">
					<dim>-1</dim>
					<dim>32</dim>
					<dim>-1</dim>
					<dim>64</dim>
				</port>
			</input>
			<output>
				<port id="1" precision="I64">
					<dim>4</dim>
				</port>
			</output>
		</layer>
		<layer id="320" name="Constant_92605" type="Const" version="opset1">
			<data element_type="i64" shape="1" offset="67827740" size="8" />
			<output>
				<port id="0" precision="I64">
					<dim>1</dim>
				</port>
			</output>
		</layer>
		<layer id="321" name="__module.model.layers.0.self_attn/aten::size/Constant_14" type="Const" version="opset1">
			<data element_type="i32" shape="" offset="0" size="4" />
			<output>
				<port id="0" precision="I32" />
			</output>
		</layer>
		<layer id="322" name="__module.model.layers.0.self_attn/aten::size/Gather_14" type="Gather" version="opset8">
			<data batch_dims="0" />
			<input>
				<port id="0" precision="I64">
					<dim>4</dim>
				</port>
				<port id="1" precision="I64">
					<dim>1</dim>
				</port>
				<port id="2" precision="I32" />
			</input>
			<output>
				<port id="3" precision="I64" names="400">
					<dim>1</dim>
				</port>
			</output>
		</layer>
		<layer id="323" name="Constant_96414" type="Const" version="opset1">
			<data element_type="i32" shape="1" offset="0" size="4" />
			<output>
				<port id="0" precision="I32">
					<dim>1</dim>
				</port>
			</output>
		</layer>
		<layer id="324" name="ScatterUpdate_96420" type="ScatterUpdate" version="opset3">
			<input>
				<port id="0" precision="I64">
					<dim>4</dim>
				</port>
				<port id="1" precision="I64">
					<dim>1</dim>
				</port>
				<port id="2" precision="I64">
					<dim>1</dim>
				</port>
				<port id="3" precision="I32">
					<dim>1</dim>
				</port>
			</input>
			<output>
				<port id="4" precision="I64">
					<dim>4</dim>
				</port>
			</output>
		</layer>
		<layer id="325" name="Constant_96423" type="Const" version="opset1">
			<data element_type="i64" shape="4" offset="67827780" size="32" />
			<output>
				<port id="0" precision="I64">
					<dim>4</dim>
				</port>
			</output>
		</layer>
		<layer id="326" name="__module.model.layers.0.self_attn/aten::slice/Slice_15" type="StridedSlice" version="opset1">
			<data begin_mask="1, 1, 1, 0" end_mask="1, 1, 1, 0" new_axis_mask="" shrink_axis_mask="" ellipsis_mask="" />
			<input>
				<port id="0" precision="FP32">
					<dim>-1</dim>
					<dim>-1</dim>
					<dim>-1</dim>
					<dim>-1</dim>
				</port>
				<port id="1" precision="I64">
					<dim>4</dim>
				</port>
				<port id="2" precision="I64">
					<dim>4</dim>
				</port>
				<port id="3" precision="I64">
					<dim>4</dim>
				</port>
			</input>
			<output>
				<port id="4" precision="FP32" names="404">
					<dim>-1</dim>
					<dim>-1</dim>
					<dim>-1</dim>
					<dim>-1</dim>
				</port>
			</output>
		</layer>
		<layer id="327" name="__module.model.layers.0.self_attn/aten::scaled_dot_product_attention/ScaledDotProductAttention" type="ScaledDotProductAttention" version="opset13">
			<data causal="false" />
			<input>
				<port id="0" precision="FP32">
					<dim>-1</dim>
					<dim>32</dim>
					<dim>-1</dim>
					<dim>64</dim>
				</port>
				<port id="1" precision="FP32">
					<dim>-1</dim>
					<dim>32</dim>
					<dim>-1</dim>
					<dim>64</dim>
				</port>
				<port id="2" precision="FP32">
					<dim>-1</dim>
					<dim>32</dim>
					<dim>-1</dim>
					<dim>64</dim>
				</port>
				<port id="3" precision="FP32">
					<dim>-1</dim>
					<dim>-1</dim>
					<dim>-1</dim>
					<dim>-1</dim>
				</port>
			</input>
			<output>
				<port id="4" precision="FP32" names="405,attn_output.1">
					<dim>-1</dim>
					<dim>32</dim>
					<dim>-1</dim>
					<dim>64</dim>
				</port>
			</output>
		</layer>
		<layer id="328" name="__module.model.layers.0.self_attn/aten::transpose/ScatterElementsUpdate_3" type="Const" version="opset1">
			<data element_type="i32" shape="4" offset="67827536" size="16" />
			<output>
				<port id="0" precision="I32">
					<dim>4</dim>
				</port>
			</output>
		</layer>
		<layer id="329" name="__module.model.layers.0.self_attn/aten::transpose/Transpose_3" type="Transpose" version="opset1">
			<input>
				<port id="0" precision="FP32">
					<dim>-1</dim>
					<dim>32</dim>
					<dim>-1</dim>
					<dim>64</dim>
				</port>
				<port id="1" precision="I32">
					<dim>4</dim>
				</port>
			</input>
			<output>
				<port id="2" precision="FP32" names="406">
					<dim>-1</dim>
					<dim>-1</dim>
					<dim>32</dim>
					<dim>64</dim>
				</port>
			</output>
		</layer>
		<layer id="330" name="__module.model.layers.0.self_attn/prim::ListConstruct/Reshape_1_7" type="Const" version="opset1">
			<data element_type="i64" shape="1" offset="68625336" size="8" />
			<output>
				<port id="0" precision="I64">
					<dim>1</dim>
				</port>
			</output>
		</layer>
		<layer id="331" name="__module.model.layers.0.self_attn/prim::ListConstruct/Concat_7" type="Concat" version="opset1">
			<data axis="0" />
			<input>
				<port id="0" precision="I64">
					<dim>2</dim>
				</port>
				<port id="1" precision="I64">
					<dim>1</dim>
				</port>
			</input>
			<output>
				<port id="2" precision="I64" names="408">
					<dim>3</dim>
				</port>
			</output>
		</layer>
		<layer id="332" name="__module.model.layers.0.self_attn/aten::view/Reshape_3" type="Reshape" version="opset1">
			<data special_zero="false" />
			<input>
				<port id="0" precision="FP32">
					<dim>-1</dim>
					<dim>-1</dim>
					<dim>32</dim>
					<dim>64</dim>
				</port>
				<port id="1" precision="I64">
					<dim>3</dim>
				</port>
			</input>
			<output>
				<port id="2" precision="FP32" names="409">
					<dim>-1</dim>
					<dim>-1</dim>
					<dim>2048</dim>
				</port>
			</output>
		</layer>
		<layer id="333" name="self.model.layers.0.self_attn.o_proj.weight" type="Const" version="opset1">
			<data element_type="u4" shape="2048, 16, 128" offset="68625344" size="2097152" />
			<output>
				<port id="0" precision="U4">
					<dim>2048</dim>
					<dim>16</dim>
					<dim>128</dim>
				</port>
			</output>
		</layer>
		<layer id="334" name="Convert_127065" type="Convert" version="opset1">
			<data destination_type="f32" />
			<input>
				<port id="0" precision="U4">
					<dim>2048</dim>
					<dim>16</dim>
					<dim>128</dim>
				</port>
			</input>
			<output>
				<port id="1" precision="FP32">
					<dim>2048</dim>
					<dim>16</dim>
					<dim>128</dim>
				</port>
			</output>
		</layer>
		<layer id="335" name="self.model.layers.0.self_attn.o_proj.weight/zero_point" type="Const" version="opset1">
			<data element_type="u4" shape="2048, 16, 1" offset="70722496" size="16384" />
			<output>
				<port id="0" precision="U4">
					<dim>2048</dim>
					<dim>16</dim>
					<dim>1</dim>
				</port>
			</output>
		</layer>
		<layer id="336" name="Convert_127067" type="Convert" version="opset1">
			<data destination_type="f32" />
			<input>
				<port id="0" precision="U4">
					<dim>2048</dim>
					<dim>16</dim>
					<dim>1</dim>
				</port>
			</input>
			<output>
				<port id="1" precision="FP32">
					<dim>2048</dim>
					<dim>16</dim>
					<dim>1</dim>
				</port>
			</output>
		</layer>
		<layer id="337" name="Subtract_127068" type="Subtract" version="opset1">
			<data auto_broadcast="numpy" />
			<input>
				<port id="0" precision="FP32">
					<dim>2048</dim>
					<dim>16</dim>
					<dim>128</dim>
				</port>
				<port id="1" precision="FP32">
					<dim>2048</dim>
					<dim>16</dim>
					<dim>1</dim>
				</port>
			</input>
			<output>
				<port id="2" precision="FP32">
					<dim>2048</dim>
					<dim>16</dim>
					<dim>128</dim>
				</port>
			</output>
		</layer>
		<layer id="338" name="self.model.layers.0.self_attn.o_proj.weight/scale" type="Const" version="opset1">
			<data element_type="f16" shape="2048, 16, 1" offset="70738880" size="65536" />
			<output>
				<port id="0" precision="FP16">
					<dim>2048</dim>
					<dim>16</dim>
					<dim>1</dim>
				</port>
			</output>
		</layer>
		<layer id="339" name="self.model.layers.0.self_attn.o_proj.weight/scale_convert" type="Convert" version="opset1">
			<data destination_type="f32" />
			<input>
				<port id="0" precision="FP16">
					<dim>2048</dim>
					<dim>16</dim>
					<dim>1</dim>
				</port>
			</input>
			<output>
				<port id="1" precision="FP32">
					<dim>2048</dim>
					<dim>16</dim>
					<dim>1</dim>
				</port>
			</output>
		</layer>
		<layer id="340" name="self.model.layers.0.self_attn.o_proj.weight/fq_weights_1" type="Multiply" version="opset1">
			<data auto_broadcast="numpy" />
			<input>
				<port id="0" precision="FP32">
					<dim>2048</dim>
					<dim>16</dim>
					<dim>128</dim>
				</port>
				<port id="1" precision="FP32">
					<dim>2048</dim>
					<dim>16</dim>
					<dim>1</dim>
				</port>
			</input>
			<output>
				<port id="2" precision="FP32">
					<dim>2048</dim>
					<dim>16</dim>
					<dim>128</dim>
				</port>
			</output>
		</layer>
		<layer id="341" name="Constant_127073" type="Const" version="opset1">
			<data element_type="i32" shape="2" offset="67827504" size="8" />
			<output>
				<port id="0" precision="I32">
					<dim>2</dim>
				</port>
			</output>
		</layer>
		<layer id="342" name="Reshape_127074" type="Reshape" version="opset1">
			<data special_zero="false" />
			<input>
				<port id="0" precision="FP32">
					<dim>2048</dim>
					<dim>16</dim>
					<dim>128</dim>
				</port>
				<port id="1" precision="I32">
					<dim>2</dim>
				</port>
			</input>
			<output>
				<port id="2" precision="FP32">
					<dim>2048</dim>
					<dim>2048</dim>
				</port>
			</output>
		</layer>
		<layer id="343" name="__module.model.layers.0.self_attn.o_proj/aten::linear/MatMul" type="MatMul" version="opset1">
			<data transpose_a="false" transpose_b="true" />
			<input>
				<port id="0" precision="FP32">
					<dim>-1</dim>
					<dim>-1</dim>
					<dim>2048</dim>
				</port>
				<port id="1" precision="FP32">
					<dim>2048</dim>
					<dim>2048</dim>
				</port>
			</input>
			<output>
				<port id="2" precision="FP32" names="411,413,hidden_states.17">
					<dim>-1</dim>
					<dim>-1</dim>
					<dim>2048</dim>
				</port>
			</output>
		</layer>
		<layer id="344" name="__module.model.layers.0/aten::add/Add" type="Add" version="opset1">
			<data auto_broadcast="numpy" />
			<input>
				<port id="0" precision="FP32">
					<dim>-1</dim>
					<dim>-1</dim>
					<dim>2048</dim>
				</port>
				<port id="1" precision="FP32">
					<dim>-1</dim>
					<dim>-1</dim>
					<dim>2048</dim>
				</port>
			</input>
			<output>
				<port id="2" precision="FP32" names="416,418,429,hidden_states.19,hidden_states.21">
					<dim>-1</dim>
					<dim>-1</dim>
					<dim>2048</dim>
				</port>
			</output>
		</layer>
		<layer id="345" name="Constant_111327" type="Const" version="opset1">
			<data element_type="f32" shape="1, 1, 2048" offset="70804416" size="8192" />
			<output>
				<port id="0" precision="FP32">
					<dim>1</dim>
					<dim>1</dim>
					<dim>2048</dim>
				</port>
			</output>
		</layer>
		<layer id="346" name="Constant_111326" type="Const" version="opset1">
			<data element_type="f32" shape="1, 1, 1" offset="65648412" size="4" />
			<output>
				<port id="0" precision="FP32">
					<dim>1</dim>
					<dim>1</dim>
					<dim>1</dim>
				</port>
			</output>
		</layer>
		<layer id="347" name="Constant_111324" type="Const" version="opset1">
			<data element_type="f32" shape="1, 1, 1" offset="65648416" size="4" />
			<output>
				<port id="0" precision="FP32">
					<dim>1</dim>
					<dim>1</dim>
					<dim>1</dim>
				</port>
			</output>
		</layer>
		<layer id="348" name="__module.model.layers.0.post_attention_layernorm/aten::pow/Power" type="Power" version="opset1">
			<data auto_broadcast="numpy" />
			<input>
				<port id="0" precision="FP32">
					<dim>-1</dim>
					<dim>-1</dim>
					<dim>2048</dim>
				</port>
				<port id="1" precision="FP32">
					<dim>1</dim>
					<dim>1</dim>
					<dim>1</dim>
				</port>
			</input>
			<output>
				<port id="2" precision="FP32" names="419">
					<dim>-1</dim>
					<dim>-1</dim>
					<dim>2048</dim>
				</port>
			</output>
		</layer>
		<layer id="349" name="Constant_975" type="Const" version="opset1">
			<data element_type="i64" shape="1" offset="65648420" size="8" />
			<output>
				<port id="0" precision="I64" names="420">
					<dim>1</dim>
				</port>
			</output>
		</layer>
		<layer id="350" name="__module.model.layers.0.post_attention_layernorm/aten::mean/ReduceMean" type="ReduceMean" version="opset1">
			<data keep_dims="true" />
			<input>
				<port id="0" precision="FP32">
					<dim>-1</dim>
					<dim>-1</dim>
					<dim>2048</dim>
				</port>
				<port id="1" precision="I64">
					<dim>1</dim>
				</port>
			</input>
			<output>
				<port id="2" precision="FP32" names="421,variance.3">
					<dim>-1</dim>
					<dim>-1</dim>
					<dim>1</dim>
				</port>
			</output>
		</layer>
		<layer id="351" name="Constant_111325" type="Const" version="opset1">
			<data element_type="f32" shape="1, 1, 1" offset="65648428" size="4" />
			<output>
				<port id="0" precision="FP32">
					<dim>1</dim>
					<dim>1</dim>
					<dim>1</dim>
				</port>
			</output>
		</layer>
		<layer id="352" name="__module.model.layers.0.post_attention_layernorm/aten::add/Add" type="Add" version="opset1">
			<data auto_broadcast="numpy" />
			<input>
				<port id="0" precision="FP32">
					<dim>-1</dim>
					<dim>-1</dim>
					<dim>1</dim>
				</port>
				<port id="1" precision="FP32">
					<dim>1</dim>
					<dim>1</dim>
					<dim>1</dim>
				</port>
			</input>
			<output>
				<port id="2" precision="FP32" names="422">
					<dim>-1</dim>
					<dim>-1</dim>
					<dim>1</dim>
				</port>
			</output>
		</layer>
		<layer id="353" name="__module.model.layers.0.post_attention_layernorm/aten::rsqrt/Sqrt" type="Sqrt" version="opset1">
			<input>
				<port id="0" precision="FP32">
					<dim>-1</dim>
					<dim>-1</dim>
					<dim>1</dim>
				</port>
			</input>
			<output>
				<port id="1" precision="FP32">
					<dim>-1</dim>
					<dim>-1</dim>
					<dim>1</dim>
				</port>
			</output>
		</layer>
		<layer id="354" name="__module.model.layers.0.post_attention_layernorm/aten::rsqrt/Divide" type="Divide" version="opset1">
			<data auto_broadcast="numpy" m_pythondiv="true" />
			<input>
				<port id="0" precision="FP32">
					<dim>1</dim>
					<dim>1</dim>
					<dim>1</dim>
				</port>
				<port id="1" precision="FP32">
					<dim>-1</dim>
					<dim>-1</dim>
					<dim>1</dim>
				</port>
			</input>
			<output>
				<port id="2" precision="FP32" names="423">
					<dim>-1</dim>
					<dim>-1</dim>
					<dim>1</dim>
				</port>
			</output>
		</layer>
		<layer id="355" name="__module.model.layers.0.post_attention_layernorm/aten::mul/Multiply" type="Multiply" version="opset1">
			<data auto_broadcast="numpy" />
			<input>
				<port id="0" precision="FP32">
					<dim>-1</dim>
					<dim>-1</dim>
					<dim>2048</dim>
				</port>
				<port id="1" precision="FP32">
					<dim>-1</dim>
					<dim>-1</dim>
					<dim>1</dim>
				</port>
			</input>
			<output>
				<port id="2" precision="FP32" names="424,425,hidden_states.23,hidden_states.25">
					<dim>-1</dim>
					<dim>-1</dim>
					<dim>2048</dim>
				</port>
			</output>
		</layer>
		<layer id="356" name="__module.model.layers.0.post_attention_layernorm/aten::mul/Multiply_1" type="Multiply" version="opset1">
			<data auto_broadcast="numpy" />
			<input>
				<port id="0" precision="FP32">
					<dim>1</dim>
					<dim>1</dim>
					<dim>2048</dim>
				</port>
				<port id="1" precision="FP32">
					<dim>-1</dim>
					<dim>-1</dim>
					<dim>2048</dim>
				</port>
			</input>
			<output>
				<port id="2" precision="FP32" names="426,428">
					<dim>-1</dim>
					<dim>-1</dim>
					<dim>2048</dim>
				</port>
			</output>
		</layer>
		<layer id="357" name="self.model.layers.0.mlp.gate_proj.weight" type="Const" version="opset1">
			<data element_type="u4" shape="5632, 16, 128" offset="70812608" size="5767168" />
			<output>
				<port id="0" precision="U4">
					<dim>5632</dim>
					<dim>16</dim>
					<dim>128</dim>
				</port>
			</output>
		</layer>
		<layer id="358" name="Convert_127087" type="Convert" version="opset1">
			<data destination_type="f32" />
			<input>
				<port id="0" precision="U4">
					<dim>5632</dim>
					<dim>16</dim>
					<dim>128</dim>
				</port>
			</input>
			<output>
				<port id="1" precision="FP32">
					<dim>5632</dim>
					<dim>16</dim>
					<dim>128</dim>
				</port>
			</output>
		</layer>
		<layer id="359" name="self.model.layers.0.mlp.gate_proj.weight/zero_point" type="Const" version="opset1">
			<data element_type="u4" shape="5632, 16, 1" offset="76579776" size="45056" />
			<output>
				<port id="0" precision="U4">
					<dim>5632</dim>
					<dim>16</dim>
					<dim>1</dim>
				</port>
			</output>
		</layer>
		<layer id="360" name="Convert_127089" type="Convert" version="opset1">
			<data destination_type="f32" />
			<input>
				<port id="0" precision="U4">
					<dim>5632</dim>
					<dim>16</dim>
					<dim>1</dim>
				</port>
			</input>
			<output>
				<port id="1" precision="FP32">
					<dim>5632</dim>
					<dim>16</dim>
					<dim>1</dim>
				</port>
			</output>
		</layer>
		<layer id="361" name="Subtract_127090" type="Subtract" version="opset1">
			<data auto_broadcast="numpy" />
			<input>
				<port id="0" precision="FP32">
					<dim>5632</dim>
					<dim>16</dim>
					<dim>128</dim>
				</port>
				<port id="1" precision="FP32">
					<dim>5632</dim>
					<dim>16</dim>
					<dim>1</dim>
				</port>
			</input>
			<output>
				<port id="2" precision="FP32">
					<dim>5632</dim>
					<dim>16</dim>
					<dim>128</dim>
				</port>
			</output>
		</layer>
		<layer id="362" name="self.model.layers.0.mlp.gate_proj.weight/scale" type="Const" version="opset1">
			<data element_type="f16" shape="5632, 16, 1" offset="76624832" size="180224" />
			<output>
				<port id="0" precision="FP16">
					<dim>5632</dim>
					<dim>16</dim>
					<dim>1</dim>
				</port>
			</output>
		</layer>
		<layer id="363" name="self.model.layers.0.mlp.gate_proj.weight/scale_convert" type="Convert" version="opset1">
			<data destination_type="f32" />
			<input>
				<port id="0" precision="FP16">
					<dim>5632</dim>
					<dim>16</dim>
					<dim>1</dim>
				</port>
			</input>
			<output>
				<port id="1" precision="FP32">
					<dim>5632</dim>
					<dim>16</dim>
					<dim>1</dim>
				</port>
			</output>
		</layer>
		<layer id="364" name="self.model.layers.0.mlp.gate_proj.weight/fq_weights_1" type="Multiply" version="opset1">
			<data auto_broadcast="numpy" />
			<input>
				<port id="0" precision="FP32">
					<dim>5632</dim>
					<dim>16</dim>
					<dim>128</dim>
				</port>
				<port id="1" precision="FP32">
					<dim>5632</dim>
					<dim>16</dim>
					<dim>1</dim>
				</port>
			</input>
			<output>
				<port id="2" precision="FP32">
					<dim>5632</dim>
					<dim>16</dim>
					<dim>128</dim>
				</port>
			</output>
		</layer>
		<layer id="365" name="Constant_127095" type="Const" version="opset1">
			<data element_type="i32" shape="2" offset="76805056" size="8" />
			<output>
				<port id="0" precision="I32">
					<dim>2</dim>
				</port>
			</output>
		</layer>
		<layer id="366" name="Reshape_127096" type="Reshape" version="opset1">
			<data special_zero="false" />
			<input>
				<port id="0" precision="FP32">
					<dim>5632</dim>
					<dim>16</dim>
					<dim>128</dim>
				</port>
				<port id="1" precision="I32">
					<dim>2</dim>
				</port>
			</input>
			<output>
				<port id="2" precision="FP32">
					<dim>5632</dim>
					<dim>2048</dim>
				</port>
			</output>
		</layer>
		<layer id="367" name="__module.model.layers.0.mlp.gate_proj/aten::linear/MatMul" type="MatMul" version="opset1">
			<data transpose_a="false" transpose_b="true" />
			<input>
				<port id="0" precision="FP32">
					<dim>-1</dim>
					<dim>-1</dim>
					<dim>2048</dim>
				</port>
				<port id="1" precision="FP32">
					<dim>5632</dim>
					<dim>2048</dim>
				</port>
			</input>
			<output>
				<port id="2" precision="FP32" names="434,input.1">
					<dim>-1</dim>
					<dim>-1</dim>
					<dim>5632</dim>
				</port>
			</output>
		</layer>
		<layer id="368" name="__module.model.layers.0.mlp.act_fn/aten::silu/Swish" type="Swish" version="opset4">
			<input>
				<port id="0" precision="FP32">
					<dim>-1</dim>
					<dim>-1</dim>
					<dim>5632</dim>
				</port>
			</input>
			<output>
				<port id="1" precision="FP32" names="435">
					<dim>-1</dim>
					<dim>-1</dim>
					<dim>5632</dim>
				</port>
			</output>
		</layer>
		<layer id="369" name="self.model.layers.0.mlp.up_proj.weight" type="Const" version="opset1">
			<data element_type="u8" shape="5632, 2048" offset="76805064" size="11534336" />
			<output>
				<port id="0" precision="U8">
					<dim>5632</dim>
					<dim>2048</dim>
				</port>
			</output>
		</layer>
		<layer id="370" name="Convert_127077" type="Convert" version="opset1">
			<data destination_type="f32" />
			<input>
				<port id="0" precision="U8">
					<dim>5632</dim>
					<dim>2048</dim>
				</port>
			</input>
			<output>
				<port id="1" precision="FP32">
					<dim>5632</dim>
					<dim>2048</dim>
				</port>
			</output>
		</layer>
		<layer id="371" name="self.model.layers.0.mlp.up_proj.weight/zero_point" type="Const" version="opset1">
			<data element_type="u8" shape="5632, 1" offset="88339400" size="5632" />
			<output>
				<port id="0" precision="U8">
					<dim>5632</dim>
					<dim>1</dim>
				</port>
			</output>
		</layer>
		<layer id="372" name="Convert_127080" type="Convert" version="opset1">
			<data destination_type="f32" />
			<input>
				<port id="0" precision="U8">
					<dim>5632</dim>
					<dim>1</dim>
				</port>
			</input>
			<output>
				<port id="1" precision="FP32">
					<dim>5632</dim>
					<dim>1</dim>
				</port>
			</output>
		</layer>
		<layer id="373" name="Subtract_127081" type="Subtract" version="opset1">
			<data auto_broadcast="numpy" />
			<input>
				<port id="0" precision="FP32">
					<dim>5632</dim>
					<dim>2048</dim>
				</port>
				<port id="1" precision="FP32">
					<dim>5632</dim>
					<dim>1</dim>
				</port>
			</input>
			<output>
				<port id="2" precision="FP32">
					<dim>5632</dim>
					<dim>2048</dim>
				</port>
			</output>
		</layer>
		<layer id="374" name="self.model.layers.0.mlp.up_proj.weight/scale" type="Const" version="opset1">
			<data element_type="f16" shape="5632, 1" offset="88345032" size="11264" />
			<output>
				<port id="0" precision="FP16">
					<dim>5632</dim>
					<dim>1</dim>
				</port>
			</output>
		</layer>
		<layer id="375" name="self.model.layers.0.mlp.up_proj.weight/scale_convert" type="Convert" version="opset1">
			<data destination_type="f32" />
			<input>
				<port id="0" precision="FP16">
					<dim>5632</dim>
					<dim>1</dim>
				</port>
			</input>
			<output>
				<port id="1" precision="FP32">
					<dim>5632</dim>
					<dim>1</dim>
				</port>
			</output>
		</layer>
		<layer id="376" name="self.model.layers.0.mlp.up_proj.weight/fq_weights_1" type="Multiply" version="opset1">
			<data auto_broadcast="numpy" />
			<input>
				<port id="0" precision="FP32">
					<dim>5632</dim>
					<dim>2048</dim>
				</port>
				<port id="1" precision="FP32">
					<dim>5632</dim>
					<dim>1</dim>
				</port>
			</input>
			<output>
				<port id="2" precision="FP32">
					<dim>5632</dim>
					<dim>2048</dim>
				</port>
			</output>
		</layer>
		<layer id="377" name="__module.model.layers.0.mlp.up_proj/aten::linear/MatMul" type="MatMul" version="opset1">
			<data transpose_a="false" transpose_b="true" />
			<input>
				<port id="0" precision="FP32">
					<dim>-1</dim>
					<dim>-1</dim>
					<dim>2048</dim>
				</port>
				<port id="1" precision="FP32">
					<dim>5632</dim>
					<dim>2048</dim>
				</port>
			</input>
			<output>
				<port id="2" precision="FP32" names="437">
					<dim>-1</dim>
					<dim>-1</dim>
					<dim>5632</dim>
				</port>
			</output>
		</layer>
		<layer id="378" name="__module.model.layers.0.mlp/aten::mul/Multiply" type="Multiply" version="opset1">
			<data auto_broadcast="numpy" />
			<input>
				<port id="0" precision="FP32">
					<dim>-1</dim>
					<dim>-1</dim>
					<dim>5632</dim>
				</port>
				<port id="1" precision="FP32">
					<dim>-1</dim>
					<dim>-1</dim>
					<dim>5632</dim>
				</port>
			</input>
			<output>
				<port id="2" precision="FP32" names="438">
					<dim>-1</dim>
					<dim>-1</dim>
					<dim>5632</dim>
				</port>
			</output>
		</layer>
		<layer id="379" name="self.model.layers.0.mlp.down_proj.weight" type="Const" version="opset1">
			<data element_type="u4" shape="2048, 44, 128" offset="88356296" size="5767168" />
			<output>
				<port id="0" precision="U4">
					<dim>2048</dim>
					<dim>44</dim>
					<dim>128</dim>
				</port>
			</output>
		</layer>
		<layer id="380" name="Convert_127098" type="Convert" version="opset1">
			<data destination_type="f32" />
			<input>
				<port id="0" precision="U4">
					<dim>2048</dim>
					<dim>44</dim>
					<dim>128</dim>
				</port>
			</input>
			<output>
				<port id="1" precision="FP32">
					<dim>2048</dim>
					<dim>44</dim>
					<dim>128</dim>
				</port>
			</output>
		</layer>
		<layer id="381" name="self.model.layers.0.mlp.down_proj.weight/zero_point" type="Const" version="opset1">
			<data element_type="u4" shape="2048, 44, 1" offset="94123464" size="45056" />
			<output>
				<port id="0" precision="U4">
					<dim>2048</dim>
					<dim>44</dim>
					<dim>1</dim>
				</port>
			</output>
		</layer>
		<layer id="382" name="Convert_127100" type="Convert" version="opset1">
			<data destination_type="f32" />
			<input>
				<port id="0" precision="U4">
					<dim>2048</dim>
					<dim>44</dim>
					<dim>1</dim>
				</port>
			</input>
			<output>
				<port id="1" precision="FP32">
					<dim>2048</dim>
					<dim>44</dim>
					<dim>1</dim>
				</port>
			</output>
		</layer>
		<layer id="383" name="Subtract_127101" type="Subtract" version="opset1">
			<data auto_broadcast="numpy" />
			<input>
				<port id="0" precision="FP32">
					<dim>2048</dim>
					<dim>44</dim>
					<dim>128</dim>
				</port>
				<port id="1" precision="FP32">
					<dim>2048</dim>
					<dim>44</dim>
					<dim>1</dim>
				</port>
			</input>
			<output>
				<port id="2" precision="FP32">
					<dim>2048</dim>
					<dim>44</dim>
					<dim>128</dim>
				</port>
			</output>
		</layer>
		<layer id="384" name="self.model.layers.0.mlp.down_proj.weight/scale" type="Const" version="opset1">
			<data element_type="f16" shape="2048, 44, 1" offset="94168520" size="180224" />
			<output>
				<port id="0" precision="FP16">
					<dim>2048</dim>
					<dim>44</dim>
					<dim>1</dim>
				</port>
			</output>
		</layer>
		<layer id="385" name="self.model.layers.0.mlp.down_proj.weight/scale_convert" type="Convert" version="opset1">
			<data destination_type="f32" />
			<input>
				<port id="0" precision="FP16">
					<dim>2048</dim>
					<dim>44</dim>
					<dim>1</dim>
				</port>
			</input>
			<output>
				<port id="1" precision="FP32">
					<dim>2048</dim>
					<dim>44</dim>
					<dim>1</dim>
				</port>
			</output>
		</layer>
		<layer id="386" name="self.model.layers.0.mlp.down_proj.weight/fq_weights_1" type="Multiply" version="opset1">
			<data auto_broadcast="numpy" />
			<input>
				<port id="0" precision="FP32">
					<dim>2048</dim>
					<dim>44</dim>
					<dim>128</dim>
				</port>
				<port id="1" precision="FP32">
					<dim>2048</dim>
					<dim>44</dim>
					<dim>1</dim>
				</port>
			</input>
			<output>
				<port id="2" precision="FP32">
					<dim>2048</dim>
					<dim>44</dim>
					<dim>128</dim>
				</port>
			</output>
		</layer>
		<layer id="387" name="Constant_127106" type="Const" version="opset1">
			<data element_type="i32" shape="2" offset="94348744" size="8" />
			<output>
				<port id="0" precision="I32">
					<dim>2</dim>
				</port>
			</output>
		</layer>
		<layer id="388" name="Reshape_127107" type="Reshape" version="opset1">
			<data special_zero="false" />
			<input>
				<port id="0" precision="FP32">
					<dim>2048</dim>
					<dim>44</dim>
					<dim>128</dim>
				</port>
				<port id="1" precision="I32">
					<dim>2</dim>
				</port>
			</input>
			<output>
				<port id="2" precision="FP32">
					<dim>2048</dim>
					<dim>5632</dim>
				</port>
			</output>
		</layer>
		<layer id="389" name="__module.model.layers.0.mlp.down_proj/aten::linear/MatMul" type="MatMul" version="opset1">
			<data transpose_a="false" transpose_b="true" />
			<input>
				<port id="0" precision="FP32">
					<dim>-1</dim>
					<dim>-1</dim>
					<dim>5632</dim>
				</port>
				<port id="1" precision="FP32">
					<dim>2048</dim>
					<dim>5632</dim>
				</port>
			</input>
			<output>
				<port id="2" precision="FP32" names="440,hidden_states.27">
					<dim>-1</dim>
					<dim>-1</dim>
					<dim>2048</dim>
				</port>
			</output>
		</layer>
		<layer id="390" name="__module.model.layers.0/aten::add/Add_1" type="Add" version="opset1">
			<data auto_broadcast="numpy" />
			<input>
				<port id="0" precision="FP32">
					<dim>-1</dim>
					<dim>-1</dim>
					<dim>2048</dim>
				</port>
				<port id="1" precision="FP32">
					<dim>-1</dim>
					<dim>-1</dim>
					<dim>2048</dim>
				</port>
			</input>
			<output>
				<port id="2" precision="FP32" names="441,443,451,462,hidden_states.29,hidden_states.31">
					<dim>-1</dim>
					<dim>-1</dim>
					<dim>2048</dim>
				</port>
			</output>
		</layer>
		<layer id="391" name="Constant_111331" type="Const" version="opset1">
			<data element_type="f32" shape="1, 1, 2048" offset="94348752" size="8192" />
			<output>
				<port id="0" precision="FP32">
					<dim>1</dim>
					<dim>1</dim>
					<dim>2048</dim>
				</port>
			</output>
		</layer>
		<layer id="392" name="Constant_111330" type="Const" version="opset1">
			<data element_type="f32" shape="1, 1, 1" offset="65648412" size="4" />
			<output>
				<port id="0" precision="FP32">
					<dim>1</dim>
					<dim>1</dim>
					<dim>1</dim>
				</port>
			</output>
		</layer>
		<layer id="393" name="Constant_111328" type="Const" version="opset1">
			<data element_type="f32" shape="1, 1, 1" offset="65648416" size="4" />
			<output>
				<port id="0" precision="FP32">
					<dim>1</dim>
					<dim>1</dim>
					<dim>1</dim>
				</port>
			</output>
		</layer>
		<layer id="394" name="__module.model.layers.1.input_layernorm/aten::pow/Power" type="Power" version="opset1">
			<data auto_broadcast="numpy" />
			<input>
				<port id="0" precision="FP32">
					<dim>-1</dim>
					<dim>-1</dim>
					<dim>2048</dim>
				</port>
				<port id="1" precision="FP32">
					<dim>1</dim>
					<dim>1</dim>
					<dim>1</dim>
				</port>
			</input>
			<output>
				<port id="2" precision="FP32" names="452">
					<dim>-1</dim>
					<dim>-1</dim>
					<dim>2048</dim>
				</port>
			</output>
		</layer>
		<layer id="395" name="Constant_1046" type="Const" version="opset1">
			<data element_type="i64" shape="1" offset="65648420" size="8" />
			<output>
				<port id="0" precision="I64" names="453">
					<dim>1</dim>
				</port>
			</output>
		</layer>
		<layer id="396" name="__module.model.layers.1.input_layernorm/aten::mean/ReduceMean" type="ReduceMean" version="opset1">
			<data keep_dims="true" />
			<input>
				<port id="0" precision="FP32">
					<dim>-1</dim>
					<dim>-1</dim>
					<dim>2048</dim>
				</port>
				<port id="1" precision="I64">
					<dim>1</dim>
				</port>
			</input>
			<output>
				<port id="2" precision="FP32" names="454,variance.5">
					<dim>-1</dim>
					<dim>-1</dim>
					<dim>1</dim>
				</port>
			</output>
		</layer>
		<layer id="397" name="Constant_111329" type="Const" version="opset1">
			<data element_type="f32" shape="1, 1, 1" offset="65648428" size="4" />
			<output>
				<port id="0" precision="FP32">
					<dim>1</dim>
					<dim>1</dim>
					<dim>1</dim>
				</port>
			</output>
		</layer>
		<layer id="398" name="__module.model.layers.1.input_layernorm/aten::add/Add" type="Add" version="opset1">
			<data auto_broadcast="numpy" />
			<input>
				<port id="0" precision="FP32">
					<dim>-1</dim>
					<dim>-1</dim>
					<dim>1</dim>
				</port>
				<port id="1" precision="FP32">
					<dim>1</dim>
					<dim>1</dim>
					<dim>1</dim>
				</port>
			</input>
			<output>
				<port id="2" precision="FP32" names="455">
					<dim>-1</dim>
					<dim>-1</dim>
					<dim>1</dim>
				</port>
…
		<edge from-layer="5025" from-port="2" to-layer="5027" to-port="0" />
		<edge from-layer="5026" from-port="0" to-layer="5027" to-port="1" />
		<edge from-layer="5027" from-port="2" to-layer="5028" to-port="1" />
		<edge from-layer="5028" from-port="2" to-layer="5029" to-port="0" />
		<edge from-layer="5028" from-port="2" to-layer="5463" to-port="0" />
		<edge from-layer="5028" from-port="2" to-layer="5030" to-port="0" />
		<edge from-layer="5029" from-port="2" to-layer="5043" to-port="0" />
		<edge from-layer="5030" from-port="1" to-layer="5033" to-port="0" />
		<edge from-layer="5030" from-port="1" to-layer="5035" to-port="0" />
		<edge from-layer="5030" from-port="1" to-layer="5040" to-port="0" />
		<edge from-layer="5031" from-port="0" to-layer="5033" to-port="1" />
		<edge from-layer="5032" from-port="0" to-layer="5033" to-port="2" />
		<edge from-layer="5033" from-port="3" to-layer="5041" to-port="0" />
		<edge from-layer="5033" from-port="3" to-layer="5047" to-port="0" />
		<edge from-layer="5034" from-port="0" to-layer="5035" to-port="2" />
		<edge from-layer="5035" from-port="3" to-layer="5037" to-port="0" />
		<edge from-layer="5035" from-port="3" to-layer="5044" to-port="0" />
		<edge from-layer="5036" from-port="0" to-layer="5037" to-port="1" />
		<edge from-layer="5037" from-port="2" to-layer="5041" to-port="1" />
		<edge from-layer="5038" from-port="0" to-layer="5040" to-port="1" />
		<edge from-layer="5039" from-port="0" to-layer="5040" to-port="2" />
		<edge from-layer="5040" from-port="3" to-layer="5041" to-port="3" />
		<edge from-layer="5040" from-port="3" to-layer="5047" to-port="2" />
		<edge from-layer="5041" from-port="4" to-layer="5042" to-port="0" />
		<edge from-layer="5042" from-port="1" to-layer="5043" to-port="1" />
		<edge from-layer="5043" from-port="2" to-layer="5048" to-port="0" />
		<edge from-layer="5044" from-port="2" to-layer="5046" to-port="0" />
		<edge from-layer="5045" from-port="0" to-layer="5046" to-port="1" />
		<edge from-layer="5046" from-port="2" to-layer="5047" to-port="1" />
		<edge from-layer="5047" from-port="3" to-layer="5048" to-port="1" />
		<edge from-layer="5048" from-port="2" to-layer="5060" to-port="2" />
		<edge from-layer="5049" from-port="0" to-layer="5059" to-port="1" />
		<edge from-layer="5050" from-port="0" to-layer="5057" to-port="0" />
		<edge from-layer="5051" from-port="0" to-layer="5057" to-port="1" />
		<edge from-layer="5052" from-port="1" to-layer="5055" to-port="0" />
		<edge from-layer="5053" from-port="0" to-layer="5055" to-port="1" />
		<edge from-layer="5054" from-port="0" to-layer="5055" to-port="2" />
		<edge from-layer="5055" from-port="3" to-layer="5057" to-port="2" />
		<edge from-layer="5056" from-port="0" to-layer="5057" to-port="3" />
		<edge from-layer="5057" from-port="4" to-layer="5059" to-port="2" />
		<edge from-layer="5058" from-port="0" to-layer="5059" to-port="3" />
		<edge from-layer="5059" from-port="4" to-layer="5060" to-port="3" />
		<edge from-layer="5060" from-port="4" to-layer="5062" to-port="0" />
		<edge from-layer="5061" from-port="0" to-layer="5062" to-port="1" />
		<edge from-layer="5062" from-port="2" to-layer="5064" to-port="0" />
		<edge from-layer="5063" from-port="2" to-layer="5064" to-port="1" />
		<edge from-layer="5064" from-port="2" to-layer="5075" to-port="0" />
		<edge from-layer="5065" from-port="0" to-layer="5066" to-port="0" />
		<edge from-layer="5066" from-port="1" to-layer="5069" to-port="0" />
		<edge from-layer="5067" from-port="0" to-layer="5068" to-port="0" />
		<edge from-layer="5068" from-port="1" to-layer="5069" to-port="1" />
		<edge from-layer="5069" from-port="2" to-layer="5072" to-port="0" />
		<edge from-layer="5070" from-port="0" to-layer="5071" to-port="0" />
		<edge from-layer="5071" from-port="1" to-layer="5072" to-port="1" />
		<edge from-layer="5072" from-port="2" to-layer="5074" to-port="0" />
		<edge from-layer="5073" from-port="0" to-layer="5074" to-port="1" />
		<edge from-layer="5074" from-port="2" to-layer="5075" to-port="1" />
		<edge from-layer="5075" from-port="2" to-layer="5076" to-port="1" />
		<edge from-layer="5076" from-port="2" to-layer="5087" to-port="0" />
		<edge from-layer="5076" from-port="2" to-layer="5122" to-port="0" />
		<edge from-layer="5076" from-port="2" to-layer="5080" to-port="0" />
		<edge from-layer="5077" from-port="0" to-layer="5088" to-port="0" />
		<edge from-layer="5078" from-port="0" to-layer="5086" to-port="0" />
		<edge from-layer="5079" from-port="0" to-layer="5080" to-port="1" />
		<edge from-layer="5080" from-port="2" to-layer="5082" to-port="0" />
		<edge from-layer="5081" from-port="0" to-layer="5082" to-port="1" />
		<edge from-layer="5082" from-port="2" to-layer="5084" to-port="0" />
		<edge from-layer="5083" from-port="0" to-layer="5084" to-port="1" />
		<edge from-layer="5084" from-port="2" to-layer="5085" to-port="0" />
		<edge from-layer="5085" from-port="1" to-layer="5086" to-port="1" />
		<edge from-layer="5086" from-port="2" to-layer="5087" to-port="1" />
		<edge from-layer="5087" from-port="2" to-layer="5088" to-port="1" />
		<edge from-layer="5088" from-port="2" to-layer="5099" to-port="0" />
		<edge from-layer="5088" from-port="2" to-layer="5109" to-port="0" />
		<edge from-layer="5089" from-port="0" to-layer="5090" to-port="0" />
		<edge from-layer="5090" from-port="1" to-layer="5093" to-port="0" />
		<edge from-layer="5091" from-port="0" to-layer="5092" to-port="0" />
		<edge from-layer="5092" from-port="1" to-layer="5093" to-port="1" />
		<edge from-layer="5093" from-port="2" to-layer="5096" to-port="0" />
		<edge from-layer="5094" from-port="0" to-layer="5095" to-port="0" />
		<edge from-layer="5095" from-port="1" to-layer="5096" to-port="1" />
		<edge from-layer="5096" from-port="2" to-layer="5098" to-port="0" />
		<edge from-layer="5097" from-port="0" to-layer="5098" to-port="1" />
		<edge from-layer="5098" from-port="2" to-layer="5099" to-port="1" />
		<edge from-layer="5099" from-port="2" to-layer="5100" to-port="0" />
		<edge from-layer="5100" from-port="1" to-layer="5110" to-port="0" />
		<edge from-layer="5101" from-port="0" to-layer="5102" to-port="0" />
		<edge from-layer="5102" from-port="1" to-layer="5105" to-port="0" />
		<edge from-layer="5103" from-port="0" to-layer="5104" to-port="0" />
		<edge from-layer="5104" from-port="1" to-layer="5105" to-port="1" />
		<edge from-layer="5105" from-port="2" to-layer="5108" to-port="0" />
		<edge from-layer="5106" from-port="0" to-layer="5107" to-port="0" />
		<edge from-layer="5107" from-port="1" to-layer="5108" to-port="1" />
		<edge from-layer="5108" from-port="2" to-layer="5109" to-port="1" />
		<edge from-layer="5109" from-port="2" to-layer="5110" to-port="1" />
		<edge from-layer="5110" from-port="2" to-layer="5121" to-port="0" />
		<edge from-layer="5111" from-port="0" to-layer="5112" to-port="0" />
		<edge from-layer="5112" from-port="1" to-layer="5115" to-port="0" />
		<edge from-layer="5113" from-port="0" to-layer="5114" to-port="0" />
		<edge from-layer="5114" from-port="1" to-layer="5115" to-port="1" />
		<edge from-layer="5115" from-port="2" to-layer="5118" to-port="0" />
		<edge from-layer="5116" from-port="0" to-layer="5117" to-port="0" />
		<edge from-layer="5117" from-port="1" to-layer="5118" to-port="1" />
		<edge from-layer="5118" from-port="2" to-layer="5120" to-port="0" />
		<edge from-layer="5119" from-port="0" to-layer="5120" to-port="1" />
		<edge from-layer="5120" from-port="2" to-layer="5121" to-port="1" />
		<edge from-layer="5121" from-port="2" to-layer="5122" to-port="1" />
		<edge from-layer="5122" from-port="2" to-layer="5133" to-port="0" />
		<edge from-layer="5122" from-port="2" to-layer="5126" to-port="0" />
		<edge from-layer="5122" from-port="2" to-layer="5324" to-port="0" />
		<edge from-layer="5123" from-port="0" to-layer="5134" to-port="0" />
		<edge from-layer="5124" from-port="0" to-layer="5132" to-port="0" />
		<edge from-layer="5125" from-port="0" to-layer="5126" to-port="1" />
		<edge from-layer="5126" from-port="2" to-layer="5128" to-port="0" />
		<edge from-layer="5127" from-port="0" to-layer="5128" to-port="1" />
		<edge from-layer="5128" from-port="2" to-layer="5130" to-port="0" />
		<edge from-layer="5129" from-port="0" to-layer="5130" to-port="1" />
		<edge from-layer="5130" from-port="2" to-layer="5131" to-port="0" />
		<edge from-layer="5131" from-port="1" to-layer="5132" to-port="1" />
		<edge from-layer="5132" from-port="2" to-layer="5133" to-port="1" />
		<edge from-layer="5133" from-port="2" to-layer="5134" to-port="1" />
		<edge from-layer="5134" from-port="2" to-layer="5145" to-port="0" />
		<edge from-layer="5134" from-port="2" to-layer="5206" to-port="0" />
		<edge from-layer="5134" from-port="2" to-layer="5272" to-port="0" />
		<edge from-layer="5134" from-port="2" to-layer="5146" to-port="0" />
		<edge from-layer="5135" from-port="0" to-layer="5136" to-port="0" />
		<edge from-layer="5136" from-port="1" to-layer="5139" to-port="0" />
		<edge from-layer="5137" from-port="0" to-layer="5138" to-port="0" />
		<edge from-layer="5138" from-port="1" to-layer="5139" to-port="1" />
		<edge from-layer="5139" from-port="2" to-layer="5142" to-port="0" />
		<edge from-layer="5140" from-port="0" to-layer="5141" to-port="0" />
		<edge from-layer="5141" from-port="1" to-layer="5142" to-port="1" />
		<edge from-layer="5142" from-port="2" to-layer="5144" to-port="0" />
		<edge from-layer="5143" from-port="0" to-layer="5144" to-port="1" />
		<edge from-layer="5144" from-port="2" to-layer="5145" to-port="1" />
		<edge from-layer="5145" from-port="2" to-layer="5151" to-port="0" />
		<edge from-layer="5146" from-port="1" to-layer="5149" to-port="0" />
		<edge from-layer="5147" from-port="0" to-layer="5149" to-port="1" />
		<edge from-layer="5148" from-port="0" to-layer="5149" to-port="2" />
		<edge from-layer="5149" from-port="3" to-layer="5150" to-port="0" />
		<edge from-layer="5149" from-port="3" to-layer="5207" to-port="0" />
		<edge from-layer="5149" from-port="3" to-layer="5311" to-port="0" />
		<edge from-layer="5150" from-port="3" to-layer="5151" to-port="1" />
		<edge from-layer="5151" from-port="2" to-layer="5153" to-port="0" />
		<edge from-layer="5152" from-port="0" to-layer="5153" to-port="1" />
		<edge from-layer="5153" from-port="2" to-layer="5181" to-port="0" />
		<edge from-layer="5153" from-port="2" to-layer="5176" to-port="0" />
		<edge from-layer="5153" from-port="2" to-layer="5165" to-port="0" />
		<edge from-layer="5153" from-port="2" to-layer="5162" to-port="0" />
		<edge from-layer="5154" from-port="0" to-layer="5155" to-port="0" />
		<edge from-layer="5155" from-port="2" to-layer="5156" to-port="0" />
		<edge from-layer="5156" from-port="2" to-layer="5158" to-port="0" />
		<edge from-layer="5157" from-port="0" to-layer="5158" to-port="1" />
		<edge from-layer="5158" from-port="2" to-layer="5159" to-port="1" />
		<edge from-layer="5158" from-port="2" to-layer="5159" to-port="0" />
		<edge from-layer="5159" from-port="2" to-layer="5183" to-port="0" />
		<edge from-layer="5159" from-port="2" to-layer="5160" to-port="0" />
		<edge from-layer="5160" from-port="1" to-layer="5161" to-port="0" />
		<edge from-layer="5161" from-port="2" to-layer="5211" to-port="1" />
		<edge from-layer="5161" from-port="2" to-layer="5162" to-port="1" />
		<edge from-layer="5162" from-port="2" to-layer="5186" to-port="0" />
		<edge from-layer="5163" from-port="0" to-layer="5173" to-port="0" />
		<edge from-layer="5164" from-port="0" to-layer="5173" to-port="1" />
		<edge from-layer="5165" from-port="1" to-layer="5167" to-port="0" />
		<edge from-layer="5166" from-port="0" to-layer="5167" to-port="2" />
		<edge from-layer="5167" from-port="3" to-layer="5168" to-port="0" />
		<edge from-layer="5168" from-port="2" to-layer="5169" to-port="0" />
		<edge from-layer="5169" from-port="1" to-layer="5171" to-port="0" />
		<edge from-layer="5170" from-port="0" to-layer="5171" to-port="1" />
		<edge from-layer="5171" from-port="2" to-layer="5173" to-port="2" />
		<edge from-layer="5172" from-port="0" to-layer="5173" to-port="3" />
		<edge from-layer="5173" from-port="4" to-layer="5176" to-port="1" />
		<edge from-layer="5173" from-port="4" to-layer="5181" to-port="2" />
		<edge from-layer="5174" from-port="0" to-layer="5176" to-port="2" />
		<edge from-layer="5175" from-port="0" to-layer="5176" to-port="3" />
		<edge from-layer="5176" from-port="4" to-layer="5178" to-port="0" />
		<edge from-layer="5177" from-port="0" to-layer="5178" to-port="1" />
		<edge from-layer="5178" from-port="2" to-layer="5182" to-port="0" />
		<edge from-layer="5179" from-port="0" to-layer="5181" to-port="1" />
		<edge from-layer="5180" from-port="0" to-layer="5181" to-port="3" />
		<edge from-layer="5181" from-port="4" to-layer="5182" to-port="1" />
		<edge from-layer="5182" from-port="2" to-layer="5185" to-port="0" />
		<edge from-layer="5183" from-port="1" to-layer="5184" to-port="0" />
		<edge from-layer="5184" from-port="2" to-layer="5232" to-port="1" />
		<edge from-layer="5184" from-port="2" to-layer="5185" to-port="1" />
		<edge from-layer="5185" from-port="2" to-layer="5186" to-port="1" />
		<edge from-layer="5186" from-port="2" to-layer="5308" to-port="0" />
		<edge from-layer="5187" from-port="0" to-layer="5192" to-port="0" />
		<edge from-layer="5188" from-port="0" to-layer="5191" to-port="1" />
		<edge from-layer="5189" from-port="0" to-layer="5191" to-port="2" />
		<edge from-layer="5190" from-port="0" to-layer="5191" to-port="3" />
		<edge from-layer="5191" from-port="4" to-layer="5192" to-port="1" />
		<edge from-layer="5192" from-port="2" to-layer="5193" to-port="0" />
		<edge from-layer="5193" from-port="1" to-layer="5195" to-port="0" />
		<edge from-layer="5194" from-port="0" to-layer="5195" to-port="2" />
		<edge from-layer="5195" from-port="3" to-layer="5234" to-port="0" />
		<edge from-layer="5196" from-port="0" to-layer="5197" to-port="0" />
		<edge from-layer="5197" from-port="1" to-layer="5200" to-port="0" />
		<edge from-layer="5198" from-port="0" to-layer="5199" to-port="0" />
		<edge from-layer="5199" from-port="1" to-layer="5200" to-port="1" />
		<edge from-layer="5200" from-port="2" to-layer="5203" to-port="0" />
		<edge from-layer="5201" from-port="0" to-layer="5202" to-port="0" />
		<edge from-layer="5202" from-port="1" to-layer="5203" to-port="1" />
		<edge from-layer="5203" from-port="2" to-layer="5205" to-port="0" />
		<edge from-layer="5204" from-port="0" to-layer="5205" to-port="1" />
		<edge from-layer="5205" from-port="2" to-layer="5206" to-port="1" />
		<edge from-layer="5206" from-port="2" to-layer="5208" to-port="0" />
		<edge from-layer="5207" from-port="3" to-layer="5273" to-port="1" />
		<edge from-layer="5207" from-port="3" to-layer="5208" to-port="1" />
		<edge from-layer="5208" from-port="2" to-layer="5210" to-port="0" />
		<edge from-layer="5209" from-port="0" to-layer="5210" to-port="1" />
		<edge from-layer="5210" from-port="2" to-layer="5214" to-port="0" />
		<edge from-layer="5210" from-port="2" to-layer="5225" to-port="0" />
		<edge from-layer="5210" from-port="2" to-layer="5230" to-port="0" />
		<edge from-layer="5210" from-port="2" to-layer="5211" to-port="0" />
		<edge from-layer="5211" from-port="2" to-layer="5233" to-port="0" />
		<edge from-layer="5212" from-port="0" to-layer="5222" to-port="0" />
		<edge from-layer="5213" from-port="0" to-layer="5222" to-port="1" />
		<edge from-layer="5214" from-port="1" to-layer="5216" to-port="0" />
		<edge from-layer="5215" from-port="0" to-layer="5216" to-port="2" />
		<edge from-layer="5216" from-port="3" to-layer="5217" to-port="0" />
		<edge from-layer="5217" from-port="2" to-layer="5218" to-port="0" />
		<edge from-layer="5218" from-port="1" to-layer="5220" to-port="0" />
		<edge from-layer="5219" from-port="0" to-layer="5220" to-port="1" />
		<edge from-layer="5220" from-port="2" to-layer="5222" to-port="2" />
		<edge from-layer="5221" from-port="0" to-layer="5222" to-port="3" />
		<edge from-layer="5222" from-port="4" to-layer="5230" to-port="2" />
		<edge from-layer="5222" from-port="4" to-layer="5225" to-port="1" />
		<edge from-layer="5223" from-port="0" to-layer="5225" to-port="2" />
		<edge from-layer="5224" from-port="0" to-layer="5225" to-port="3" />
		<edge from-layer="5225" from-port="4" to-layer="5227" to-port="0" />
		<edge from-layer="5226" from-port="0" to-layer="5227" to-port="1" />
		<edge from-layer="5227" from-port="2" to-layer="5231" to-port="0" />
		<edge from-layer="5228" from-port="0" to-layer="5230" to-port="1" />
		<edge from-layer="5229" from-port="0" to-layer="5230" to-port="3" />
		<edge from-layer="5230" from-port="4" to-layer="5231" to-port="1" />
		<edge from-layer="5231" from-port="2" to-layer="5232" to-port="0" />
		<edge from-layer="5232" from-port="2" to-layer="5233" to-port="1" />
		<edge from-layer="5233" from-port="2" to-layer="5234" to-port="1" />
		<edge from-layer="5234" from-port="2" to-layer="5235" to-port="0" />
		<edge from-layer="5234" from-port="2" to-layer="5236" to-port="0" />
		<edge from-layer="5234" from-port="2" to-layer="5460" to-port="0" />
		<edge from-layer="5235" from-port="2" to-layer="5249" to-port="0" />
		<edge from-layer="5236" from-port="1" to-layer="5239" to-port="0" />
		<edge from-layer="5236" from-port="1" to-layer="5241" to-port="0" />
		<edge from-layer="5236" from-port="1" to-layer="5246" to-port="0" />
		<edge from-layer="5237" from-port="0" to-layer="5239" to-port="1" />
		<edge from-layer="5238" from-port="0" to-layer="5239" to-port="2" />
		<edge from-layer="5239" from-port="3" to-layer="5253" to-port="0" />
		<edge from-layer="5239" from-port="3" to-layer="5247" to-port="0" />
		<edge from-layer="5240" from-port="0" to-layer="5241" to-port="2" />
		<edge from-layer="5241" from-port="3" to-layer="5250" to-port="0" />
		<edge from-layer="5241" from-port="3" to-layer="5243" to-port="0" />
		<edge from-layer="5242" from-port="0" to-layer="5243" to-port="1" />
		<edge from-layer="5243" from-port="2" to-layer="5247" to-port="1" />
		<edge from-layer="5244" from-port="0" to-layer="5246" to-port="1" />
		<edge from-layer="5245" from-port="0" to-layer="5246" to-port="2" />
		<edge from-layer="5246" from-port="3" to-layer="5247" to-port="3" />
		<edge from-layer="5246" from-port="3" to-layer="5253" to-port="2" />
		<edge from-layer="5247" from-port="4" to-layer="5248" to-port="0" />
		<edge from-layer="5248" from-port="1" to-layer="5249" to-port="1" />
		<edge from-layer="5249" from-port="2" to-layer="5254" to-port="0" />
		<edge from-layer="5250" from-port="2" to-layer="5252" to-port="0" />
		<edge from-layer="5251" from-port="0" to-layer="5252" to-port="1" />
		<edge from-layer="5252" from-port="2" to-layer="5253" to-port="1" />
		<edge from-layer="5253" from-port="3" to-layer="5254" to-port="1" />
		<edge from-layer="5254" from-port="2" to-layer="5300" to-port="0" />
		<edge from-layer="5254" from-port="2" to-layer="5308" to-port="1" />
		<edge from-layer="5255" from-port="0" to-layer="5260" to-port="0" />
		<edge from-layer="5256" from-port="0" to-layer="5259" to-port="1" />
		<edge from-layer="5257" from-port="0" to-layer="5259" to-port="2" />
		<edge from-layer="5258" from-port="0" to-layer="5259" to-port="3" />
		<edge from-layer="5259" from-port="4" to-layer="5260" to-port="1" />
		<edge from-layer="5260" from-port="2" to-layer="5261" to-port="0" />
		<edge from-layer="5261" from-port="1" to-layer="5263" to-port="0" />
		<edge from-layer="5262" from-port="0" to-layer="5263" to-port="2" />
		<edge from-layer="5263" from-port="3" to-layer="5276" to-port="0" />
		<edge from-layer="5264" from-port="0" to-layer="5265" to-port="0" />
		<edge from-layer="5265" from-port="1" to-layer="5268" to-port="0" />
		<edge from-layer="5266" from-port="0" to-layer="5267" to-port="0" />
		<edge from-layer="5267" from-port="1" to-layer="5268" to-port="1" />
		<edge from-layer="5268" from-port="2" to-layer="5271" to-port="0" />
		<edge from-layer="5269" from-port="0" to-layer="5270" to-port="0" />
		<edge from-layer="5270" from-port="1" to-layer="5271" to-port="1" />
		<edge from-layer="5271" from-port="2" to-layer="5272" to-port="1" />
		<edge from-layer="5272" from-port="2" to-layer="5273" to-port="0" />
		<edge from-layer="5273" from-port="2" to-layer="5275" to-port="0" />
		<edge from-layer="5274" from-port="0" to-layer="5275" to-port="1" />
		<edge from-layer="5275" from-port="2" to-layer="5276" to-port="1" />
		<edge from-layer="5276" from-port="2" to-layer="5277" to-port="0" />
		<edge from-layer="5276" from-port="2" to-layer="5278" to-port="0" />
		<edge from-layer="5276" from-port="2" to-layer="5459" to-port="0" />
		<edge from-layer="5277" from-port="2" to-layer="5291" to-port="0" />
		<edge from-layer="5278" from-port="1" to-layer="5283" to-port="0" />
		<edge from-layer="5278" from-port="1" to-layer="5281" to-port="0" />
		<edge from-layer="5278" from-port="1" to-layer="5288" to-port="0" />
		<edge from-layer="5279" from-port="0" to-layer="5281" to-port="1" />
		<edge from-layer="5280" from-port="0" to-layer="5281" to-port="2" />
		<edge from-layer="5281" from-port="3" to-layer="5289" to-port="0" />
		<edge from-layer="5281" from-port="3" to-layer="5295" to-port="0" />
		<edge from-layer="5282" from-port="0" to-layer="5283" to-port="2" />
		<edge from-layer="5283" from-port="3" to-layer="5292" to-port="0" />
		<edge from-layer="5283" from-port="3" to-layer="5285" to-port="0" />
		<edge from-layer="5284" from-port="0" to-layer="5285" to-port="1" />
		<edge from-layer="5285" from-port="2" to-layer="5289" to-port="1" />
		<edge from-layer="5286" from-port="0" to-layer="5288" to-port="1" />
		<edge from-layer="5287" from-port="0" to-layer="5288" to-port="2" />
		<edge from-layer="5288" from-port="3" to-layer="5295" to-port="2" />
		<edge from-layer="5288" from-port="3" to-layer="5289" to-port="3" />
		<edge from-layer="5289" from-port="4" to-layer="5290" to-port="0" />
		<edge from-layer="5290" from-port="1" to-layer="5291" to-port="1" />
		<edge from-layer="5291" from-port="2" to-layer="5296" to-port="0" />
		<edge from-layer="5292" from-port="2" to-layer="5294" to-port="0" />
		<edge from-layer="5293" from-port="0" to-layer="5294" to-port="1" />
		<edge from-layer="5294" from-port="2" to-layer="5295" to-port="1" />
		<edge from-layer="5295" from-port="3" to-layer="5296" to-port="1" />
		<edge from-layer="5296" from-port="2" to-layer="5308" to-port="2" />
		<edge from-layer="5297" from-port="0" to-layer="5307" to-port="1" />
		<edge from-layer="5298" from-port="0" to-layer="5305" to-port="0" />
		<edge from-layer="5299" from-port="0" to-layer="5305" to-port="1" />
		<edge from-layer="5300" from-port="1" to-layer="5303" to-port="0" />
		<edge from-layer="5301" from-port="0" to-layer="5303" to-port="1" />
		<edge from-layer="5302" from-port="0" to-layer="5303" to-port="2" />
		<edge from-layer="5303" from-port="3" to-layer="5305" to-port="2" />
		<edge from-layer="5304" from-port="0" to-layer="5305" to-port="3" />
		<edge from-layer="5305" from-port="4" to-layer="5307" to-port="2" />
		<edge from-layer="5306" from-port="0" to-layer="5307" to-port="3" />
		<edge from-layer="5307" from-port="4" to-layer="5308" to-port="3" />
		<edge from-layer="5308" from-port="4" to-layer="5310" to-port="0" />
		<edge from-layer="5309" from-port="0" to-layer="5310" to-port="1" />
		<edge from-layer="5310" from-port="2" to-layer="5312" to-port="0" />
		<edge from-layer="5311" from-port="2" to-layer="5312" to-port="1" />
		<edge from-layer="5312" from-port="2" to-layer="5323" to-port="0" />
		<edge from-layer="5313" from-port="0" to-layer="5314" to-port="0" />
		<edge from-layer="5314" from-port="1" to-layer="5317" to-port="0" />
		<edge from-layer="5315" from-port="0" to-layer="5316" to-port="0" />
		<edge from-layer="5316" from-port="1" to-layer="5317" to-port="1" />
		<edge from-layer="5317" from-port="2" to-layer="5320" to-port="0" />
		<edge from-layer="5318" from-port="0" to-layer="5319" to-port="0" />
		<edge from-layer="5319" from-port="1" to-layer="5320" to-port="1" />
		<edge from-layer="5320" from-port="2" to-layer="5322" to-port="0" />
		<edge from-layer="5321" from-port="0" to-layer="5322" to-port="1" />
		<edge from-layer="5322" from-port="2" to-layer="5323" to-port="1" />
		<edge from-layer="5323" from-port="2" to-layer="5324" to-port="1" />
		<edge from-layer="5324" from-port="2" to-layer="5370" to-port="0" />
		<edge from-layer="5324" from-port="2" to-layer="5335" to-port="0" />
		<edge from-layer="5324" from-port="2" to-layer="5328" to-port="0" />
		<edge from-layer="5325" from-port="0" to-layer="5336" to-port="0" />
		<edge from-layer="5326" from-port="0" to-layer="5334" to-port="0" />
		<edge from-layer="5327" from-port="0" to-layer="5328" to-port="1" />
		<edge from-layer="5328" from-port="2" to-layer="5330" to-port="0" />
		<edge from-layer="5329" from-port="0" to-layer="5330" to-port="1" />
		<edge from-layer="5330" from-port="2" to-layer="5332" to-port="0" />
		<edge from-layer="5331" from-port="0" to-layer="5332" to-port="1" />
		<edge from-layer="5332" from-port="2" to-layer="5333" to-port="0" />
		<edge from-layer="5333" from-port="1" to-layer="5334" to-port="1" />
		<edge from-layer="5334" from-port="2" to-layer="5335" to-port="1" />
		<edge from-layer="5335" from-port="2" to-layer="5336" to-port="1" />
		<edge from-layer="5336" from-port="2" to-layer="5347" to-port="0" />
		<edge from-layer="5336" from-port="2" to-layer="5357" to-port="0" />
		<edge from-layer="5337" from-port="0" to-layer="5338" to-port="0" />
		<edge from-layer="5338" from-port="1" to-layer="5341" to-port="0" />
		<edge from-layer="5339" from-port="0" to-layer="5340" to-port="0" />
		<edge from-layer="5340" from-port="1" to-layer="5341" to-port="1" />
		<edge from-layer="5341" from-port="2" to-layer="5344" to-port="0" />
		<edge from-layer="5342" from-port="0" to-layer="5343" to-port="0" />
		<edge from-layer="5343" from-port="1" to-layer="5344" to-port="1" />
		<edge from-layer="5344" from-port="2" to-layer="5346" to-port="0" />
		<edge from-layer="5345" from-port="0" to-layer="5346" to-port="1" />
		<edge from-layer="5346" from-port="2" to-layer="5347" to-port="1" />
		<edge from-layer="5347" from-port="2" to-layer="5348" to-port="0" />
		<edge from-layer="5348" from-port="1" to-layer="5358" to-port="0" />
		<edge from-layer="5349" from-port="0" to-layer="5350" to-port="0" />
		<edge from-layer="5350" from-port="1" to-layer="5353" to-port="0" />
		<edge from-layer="5351" from-port="0" to-layer="5352" to-port="0" />
		<edge from-layer="5352" from-port="1" to-layer="5353" to-port="1" />
		<edge from-layer="5353" from-port="2" to-layer="5356" to-port="0" />
		<edge from-layer="5354" from-port="0" to-layer="5355" to-port="0" />
		<edge from-layer="5355" from-port="1" to-layer="5356" to-port="1" />
		<edge from-layer="5356" from-port="2" to-layer="5357" to-port="1" />
		<edge from-layer="5357" from-port="2" to-layer="5358" to-port="1" />
		<edge from-layer="5358" from-port="2" to-layer="5369" to-port="0" />
		<edge from-layer="5359" from-port="0" to-layer="5360" to-port="0" />
		<edge from-layer="5360" from-port="1" to-layer="5363" to-port="0" />
		<edge from-layer="5361" from-port="0" to-layer="5362" to-port="0" />
		<edge from-layer="5362" from-port="1" to-layer="5363" to-port="1" />
		<edge from-layer="5363" from-port="2" to-layer="5366" to-port="0" />
		<edge from-layer="5364" from-port="0" to-layer="5365" to-port="0" />
		<edge from-layer="5365" from-port="1" to-layer="5366" to-port="1" />
		<edge from-layer="5366" from-port="2" to-layer="5368" to-port="0" />
		<edge from-layer="5367" from-port="0" to-layer="5368" to-port="1" />
		<edge from-layer="5368" from-port="2" to-layer="5369" to-port="1" />
		<edge from-layer="5369" from-port="2" to-layer="5370" to-port="1" />
		<edge from-layer="5370" from-port="2" to-layer="5380" to-port="0" />
		<edge from-layer="5370" from-port="2" to-layer="5373" to-port="0" />
		<edge from-layer="5370" from-port="2" to-layer="5593" to-port="0" />
		<edge from-layer="5371" from-port="0" to-layer="5379" to-port="0" />
		<edge from-layer="5372" from-port="0" to-layer="5373" to-port="1" />
		<edge from-layer="5373" from-port="2" to-layer="5375" to-port="0" />
		<edge from-layer="5374" from-port="0" to-layer="5375" to-port="1" />
		<edge from-layer="5375" from-port="2" to-layer="5377" to-port="0" />
		<edge from-layer="5376" from-port="0" to-layer="5377" to-port="1" />
		<edge from-layer="5377" from-port="2" to-layer="5378" to-port="0" />
		<edge from-layer="5378" from-port="1" to-layer="5379" to-port="1" />
		<edge from-layer="5379" from-port="2" to-layer="5380" to-port="1" />
		<edge from-layer="5380" from-port="2" to-layer="5381" to-port="1" />
		<edge from-layer="5381" from-port="2" to-layer="5420" to-port="0" />
		<edge from-layer="5381" from-port="2" to-layer="5390" to-port="0" />
		<edge from-layer="5381" from-port="2" to-layer="5498" to-port="0" />
		<edge from-layer="5381" from-port="2" to-layer="5391" to-port="0" />
		<edge from-layer="5382" from-port="0" to-layer="5383" to-port="0" />
		<edge from-layer="5383" from-port="1" to-layer="5386" to-port="0" />
		<edge from-layer="5384" from-port="0" to-layer="5385" to-port="0" />
		<edge from-layer="5385" from-port="1" to-layer="5386" to-port="1" />
		<edge from-layer="5386" from-port="2" to-layer="5389" to-port="0" />
		<edge from-layer="5387" from-port="0" to-layer="5388" to-port="0" />
		<edge from-layer="5388" from-port="1" to-layer="5389" to-port="1" />
		<edge from-layer="5389" from-port="2" to-layer="5390" to-port="1" />
		<edge from-layer="5390" from-port="2" to-layer="5396" to-port="0" />
		<edge from-layer="5391" from-port="1" to-layer="5394" to-port="0" />
		<edge from-layer="5392" from-port="0" to-layer="5394" to-port="1" />
		<edge from-layer="5393" from-port="0" to-layer="5394" to-port="2" />
		<edge from-layer="5394" from-port="3" to-layer="5580" to-port="0" />
		<edge from-layer="5394" from-port="3" to-layer="5499" to-port="0" />
		<edge from-layer="5394" from-port="3" to-layer="5395" to-port="0" />
		<edge from-layer="5395" from-port="3" to-layer="5396" to-port="1" />
		<edge from-layer="5395" from-port="3" to-layer="5421" to-port="1" />
		<edge from-layer="5396" from-port="2" to-layer="5398" to-port="0" />
		<edge from-layer="5397" from-port="0" to-layer="5398" to-port="1" />
		<edge from-layer="5398" from-port="2" to-layer="5399" to-port="1" />
		<edge from-layer="5399" from-port="2" to-layer="5546" to-port="0" />
		<edge from-layer="5399" from-port="2" to-layer="5400" to-port="0" />
		<edge from-layer="5399" from-port="2" to-layer="5547" to-port="0" />
		<edge from-layer="5401" from-port="0" to-layer="5406" to-port="0" />
		<edge from-layer="5402" from-port="0" to-layer="5405" to-port="1" />
		<edge from-layer="5403" from-port="0" to-layer="5405" to-port="2" />
		<edge from-layer="5404" from-port="0" to-layer="5405" to-port="3" />
		<edge from-layer="5405" from-port="4" to-layer="5406" to-port="1" />
		<edge from-layer="5406" from-port="2" to-layer="5407" to-port="0" />
		<edge from-layer="5407" from-port="1" to-layer="5409" to-port="0" />
		<edge from-layer="5408" from-port="0" to-layer="5409" to-port="2" />
		<edge from-layer="5409" from-port="3" to-layer="5457" to-port="0" />
		<edge from-layer="5410" from-port="0" to-layer="5411" to-port="0" />
		<edge from-layer="5411" from-port="1" to-layer="5414" to-port="0" />
		<edge from-layer="5412" from-port="0" to-layer="5413" to-port="0" />
		<edge from-layer="5413" from-port="1" to-layer="5414" to-port="1" />
		<edge from-layer="5414" from-port="2" to-layer="5417" to-port="0" />
		<edge from-layer="5415" from-port="0" to-layer="5416" to-port="0" />
		<edge from-layer="5416" from-port="1" to-layer="5417" to-port="1" />
		<edge from-layer="5417" from-port="2" to-layer="5419" to-port="0" />
		<edge from-layer="5418" from-port="0" to-layer="5419" to-port="1" />
		<edge from-layer="5419" from-port="2" to-layer="5420" to-port="1" />
		<edge from-layer="5420" from-port="2" to-layer="5421" to-port="0" />
		<edge from-layer="5421" from-port="2" to-layer="5423" to-port="0" />
		<edge from-layer="5422" from-port="0" to-layer="5423" to-port="1" />
		<edge from-layer="5423" from-port="2" to-layer="5446" to-port="0" />
		<edge from-layer="5423" from-port="2" to-layer="5435" to-port="0" />
		<edge from-layer="5423" from-port="2" to-layer="5432" to-port="0" />
		<edge from-layer="5423" from-port="2" to-layer="5451" to-port="0" />
		<edge from-layer="5424" from-port="0" to-layer="5425" to-port="0" />
		<edge from-layer="5425" from-port="2" to-layer="5426" to-port="0" />
		<edge from-layer="5426" from-port="2" to-layer="5428" to-port="0" />
		<edge from-layer="5427" from-port="0" to-layer="5428" to-port="1" />
		<edge from-layer="5428" from-port="2" to-layer="5429" to-port="0" />
		<edge from-layer="5428" from-port="2" to-layer="5429" to-port="1" />
		<edge from-layer="5429" from-port="2" to-layer="5430" to-port="0" />
		<edge from-layer="5429" from-port="2" to-layer="5453" to-port="0" />
		<edge from-layer="5430" from-port="1" to-layer="5431" to-port="0" />
		<edge from-layer="5431" from-port="2" to-layer="5432" to-port="1" />
		<edge from-layer="5431" from-port="2" to-layer="5503" to-port="1" />
		<edge from-layer="5432" from-port="2" to-layer="5456" to-port="0" />
		<edge from-layer="5433" from-port="0" to-layer="5443" to-port="0" />
		<edge from-layer="5434" from-port="0" to-layer="5443" to-port="1" />
		<edge from-layer="5435" from-port="1" to-layer="5437" to-port="0" />
		<edge from-layer="5436" from-port="0" to-layer="5437" to-port="2" />
		<edge from-layer="5437" from-port="3" to-layer="5438" to-port="0" />
		<edge from-layer="5438" from-port="2" to-layer="5439" to-port="0" />
		<edge from-layer="5439" from-port="1" to-layer="5441" to-port="0" />
		<edge from-layer="5440" from-port="0" to-layer="5441" to-port="1" />
		<edge from-layer="5441" from-port="2" to-layer="5443" to-port="2" />
		<edge from-layer="5442" from-port="0" to-layer="5443" to-port="3" />
		<edge from-layer="5443" from-port="4" to-layer="5451" to-port="2" />
		<edge from-layer="5443" from-port="4" to-layer="5446" to-port="1" />
		<edge from-layer="5444" from-port="0" to-layer="5446" to-port="2" />
		<edge from-layer="5445" from-port="0" to-layer="5446" to-port="3" />
		<edge from-layer="5446" from-port="4" to-layer="5448" to-port="0" />
		<edge from-layer="5447" from-port="0" to-layer="5448" to-port="1" />
		<edge from-layer="5448" from-port="2" to-layer="5452" to-port="0" />
		<edge from-layer="5449" from-port="0" to-layer="5451" to-port="1" />
		<edge from-layer="5450" from-port="0" to-layer="5451" to-port="3" />
		<edge from-layer="5451" from-port="4" to-layer="5452" to-port="1" />
		<edge from-layer="5452" from-port="2" to-layer="5455" to-port="0" />
		<edge from-layer="5453" from-port="1" to-layer="5454" to-port="0" />
		<edge from-layer="5454" from-port="2" to-layer="5455" to-port="1" />
		<edge from-layer="5454" from-port="2" to-layer="5524" to-port="1" />
		<edge from-layer="5455" from-port="2" to-layer="5456" to-port="1" />
		<edge from-layer="5456" from-port="2" to-layer="5457" to-port="1" />
		<edge from-layer="5457" from-port="2" to-layer="5526" to-port="0" />
		<edge from-layer="5457" from-port="2" to-layer="5527" to-port="0" />
		<edge from-layer="5457" from-port="2" to-layer="5458" to-port="0" />
		<edge from-layer="5487" from-port="0" to-layer="5652" to-port="0" />
		<edge from-layer="5488" from-port="0" to-layer="5489" to-port="0" />
		<edge from-layer="5489" from-port="1" to-layer="5492" to-port="0" />
		<edge from-layer="5490" from-port="0" to-layer="5491" to-port="0" />
		<edge from-layer="5491" from-port="1" to-layer="5492" to-port="1" />
		<edge from-layer="5492" from-port="2" to-layer="5495" to-port="0" />
		<edge from-layer="5493" from-port="0" to-layer="5494" to-port="0" />
		<edge from-layer="5494" from-port="1" to-layer="5495" to-port="1" />
		<edge from-layer="5495" from-port="2" to-layer="5497" to-port="0" />
		<edge from-layer="5496" from-port="0" to-layer="5497" to-port="1" />
		<edge from-layer="5497" from-port="2" to-layer="5498" to-port="1" />
		<edge from-layer="5498" from-port="2" to-layer="5500" to-port="0" />
		<edge from-layer="5499" from-port="3" to-layer="5500" to-port="1" />
		<edge from-layer="5500" from-port="2" to-layer="5502" to-port="0" />
		<edge from-layer="5501" from-port="0" to-layer="5502" to-port="1" />
		<edge from-layer="5502" from-port="2" to-layer="5517" to-port="0" />
		<edge from-layer="5502" from-port="2" to-layer="5522" to-port="0" />
		<edge from-layer="5502" from-port="2" to-layer="5506" to-port="0" />
		<edge from-layer="5502" from-port="2" to-layer="5503" to-port="0" />
		<edge from-layer="5503" from-port="2" to-layer="5525" to-port="0" />
		<edge from-layer="5504" from-port="0" to-layer="5514" to-port="0" />
		<edge from-layer="5505" from-port="0" to-layer="5514" to-port="1" />
		<edge from-layer="5506" from-port="1" to-layer="5508" to-port="0" />
		<edge from-layer="5507" from-port="0" to-layer="5508" to-port="2" />
		<edge from-layer="5508" from-port="3" to-layer="5509" to-port="0" />
		<edge from-layer="5509" from-port="2" to-layer="5510" to-port="0" />
		<edge from-layer="5510" from-port="1" to-layer="5512" to-port="0" />
		<edge from-layer="5511" from-port="0" to-layer="5512" to-port="1" />
		<edge from-layer="5512" from-port="2" to-layer="5514" to-port="2" />
		<edge from-layer="5513" from-port="0" to-layer="5514" to-port="3" />
		<edge from-layer="5514" from-port="4" to-layer="5522" to-port="2" />
		<edge from-layer="5514" from-port="4" to-layer="5517" to-port="1" />
		<edge from-layer="5515" from-port="0" to-layer="5517" to-port="2" />
		<edge from-layer="5516" from-port="0" to-layer="5517" to-port="3" />
		<edge from-layer="5517" from-port="4" to-layer="5519" to-port="0" />
		<edge from-layer="5518" from-port="0" to-layer="5519" to-port="1" />
		<edge from-layer="5519" from-port="2" to-layer="5523" to-port="0" />
		<edge from-layer="5520" from-port="0" to-layer="5522" to-port="1" />
		<edge from-layer="5521" from-port="0" to-layer="5522" to-port="3" />
		<edge from-layer="5522" from-port="4" to-layer="5523" to-port="1" />
		<edge from-layer="5523" from-port="2" to-layer="5524" to-port="0" />
		<edge from-layer="5524" from-port="2" to-layer="5525" to-port="1" />
		<edge from-layer="5525" from-port="2" to-layer="5577" to-port="0" />
		<edge from-layer="5526" from-port="2" to-layer="5540" to-port="0" />
		<edge from-layer="5527" from-port="1" to-layer="5537" to-port="0" />
		<edge from-layer="5527" from-port="1" to-layer="5532" to-port="0" />
		<edge from-layer="5527" from-port="1" to-layer="5530" to-port="0" />
		<edge from-layer="5528" from-port="0" to-layer="5530" to-port="1" />
		<edge from-layer="5529" from-port="0" to-layer="5530" to-port="2" />
		<edge from-layer="5530" from-port="3" to-layer="5538" to-port="0" />
		<edge from-layer="5530" from-port="3" to-layer="5544" to-port="0" />
		<edge from-layer="5531" from-port="0" to-layer="5532" to-port="2" />
		<edge from-layer="5532" from-port="3" to-layer="5541" to-port="0" />
		<edge from-layer="5532" from-port="3" to-layer="5534" to-port="0" />
		<edge from-layer="5533" from-port="0" to-layer="5534" to-port="1" />
		<edge from-layer="5534" from-port="2" to-layer="5538" to-port="1" />
		<edge from-layer="5535" from-port="0" to-layer="5537" to-port="1" />
		<edge from-layer="5536" from-port="0" to-layer="5537" to-port="2" />
		<edge from-layer="5537" from-port="3" to-layer="5544" to-port="2" />
		<edge from-layer="5537" from-port="3" to-layer="5538" to-port="3" />
		<edge from-layer="5538" from-port="4" to-layer="5539" to-port="0" />
		<edge from-layer="5539" from-port="1" to-layer="5540" to-port="1" />
		<edge from-layer="5540" from-port="2" to-layer="5545" to-port="0" />
		<edge from-layer="5541" from-port="2" to-layer="5543" to-port="0" />
		<edge from-layer="5542" from-port="0" to-layer="5543" to-port="1" />
		<edge from-layer="5543" from-port="2" to-layer="5544" to-port="1" />
		<edge from-layer="5544" from-port="3" to-layer="5545" to-port="1" />
		<edge from-layer="5545" from-port="2" to-layer="5577" to-port="1" />
		<edge from-layer="5545" from-port="2" to-layer="5569" to-port="0" />
		<edge from-layer="5546" from-port="2" to-layer="5560" to-port="0" />
		<edge from-layer="5547" from-port="1" to-layer="5550" to-port="0" />
		<edge from-layer="5547" from-port="1" to-layer="5552" to-port="0" />
		<edge from-layer="5547" from-port="1" to-layer="5557" to-port="0" />
		<edge from-layer="5548" from-port="0" to-layer="5550" to-port="1" />
		<edge from-layer="5549" from-port="0" to-layer="5550" to-port="2" />
		<edge from-layer="5550" from-port="3" to-layer="5558" to-port="0" />
		<edge from-layer="5550" from-port="3" to-layer="5564" to-port="0" />
		<edge from-layer="5551" from-port="0" to-layer="5552" to-port="2" />
		<edge from-layer="5552" from-port="3" to-layer="5561" to-port="0" />
		<edge from-layer="5552" from-port="3" to-layer="5554" to-port="0" />
		<edge from-layer="5553" from-port="0" to-layer="5554" to-port="1" />
		<edge from-layer="5554" from-port="2" to-layer="5558" to-port="1" />
		<edge from-layer="5555" from-port="0" to-layer="5557" to-port="1" />
		<edge from-layer="5556" from-port="0" to-layer="5557" to-port="2" />
		<edge from-layer="5557" from-port="3" to-layer="5564" to-port="2" />
		<edge from-layer="5557" from-port="3" to-layer="5558" to-port="3" />
		<edge from-layer="5558" from-port="4" to-layer="5559" to-port="0" />
		<edge from-layer="5559" from-port="1" to-layer="5560" to-port="1" />
		<edge from-layer="5560" from-port="2" to-layer="5565" to-port="0" />
		<edge from-layer="5561" from-port="2" to-layer="5563" to-port="0" />
		<edge from-layer="5562" from-port="0" to-layer="5563" to-port="1" />
		<edge from-layer="5563" from-port="2" to-layer="5564" to-port="1" />
		<edge from-layer="5564" from-port="3" to-layer="5565" to-port="1" />
		<edge from-layer="5565" from-port="2" to-layer="5577" to-port="2" />
		<edge from-layer="5566" from-port="0" to-layer="5576" to-port="1" />
		<edge from-layer="5567" from-port="0" to-layer="5574" to-port="0" />
		<edge from-layer="5568" from-port="0" to-layer="5574" to-port="1" />
		<edge from-layer="5569" from-port="1" to-layer="5572" to-port="0" />
		<edge from-layer="5570" from-port="0" to-layer="5572" to-port="1" />
		<edge from-layer="5571" from-port="0" to-layer="5572" to-port="2" />
		<edge from-layer="5572" from-port="3" to-layer="5574" to-port="2" />
		<edge from-layer="5573" from-port="0" to-layer="5574" to-port="3" />
		<edge from-layer="5574" from-port="4" to-layer="5576" to-port="2" />
		<edge from-layer="5575" from-port="0" to-layer="5576" to-port="3" />
		<edge from-layer="5576" from-port="4" to-layer="5577" to-port="3" />
		<edge from-layer="5577" from-port="4" to-layer="5579" to-port="0" />
		<edge from-layer="5578" from-port="0" to-layer="5579" to-port="1" />
		<edge from-layer="5579" from-port="2" to-layer="5581" to-port="0" />
		<edge from-layer="5580" from-port="2" to-layer="5581" to-port="1" />
		<edge from-layer="5581" from-port="2" to-layer="5592" to-port="0" />
		<edge from-layer="5582" from-port="0" to-layer="5583" to-port="0" />
		<edge from-layer="5583" from-port="1" to-layer="5586" to-port="0" />
		<edge from-layer="5584" from-port="0" to-layer="5585" to-port="0" />
		<edge from-layer="5585" from-port="1" to-layer="5586" to-port="1" />
		<edge from-layer="5586" from-port="2" to-layer="5589" to-port="0" />
		<edge from-layer="5587" from-port="0" to-layer="5588" to-port="0" />
		<edge from-layer="5588" from-port="1" to-layer="5589" to-port="1" />
		<edge from-layer="5589" from-port="2" to-layer="5591" to-port="0" />
		<edge from-layer="5590" from-port="0" to-layer="5591" to-port="1" />
		<edge from-layer="5591" from-port="2" to-layer="5592" to-port="1" />
		<edge from-layer="5592" from-port="2" to-layer="5593" to-port="1" />
		<edge from-layer="5593" from-port="2" to-layer="5597" to-port="0" />
		<edge from-layer="5593" from-port="2" to-layer="5604" to-port="0" />
		<edge from-layer="5593" from-port="2" to-layer="5641" to-port="0" />
		<edge from-layer="5594" from-port="0" to-layer="5605" to-port="0" />
		<edge from-layer="5595" from-port="0" to-layer="5603" to-port="0" />
		<edge from-layer="5596" from-port="0" to-layer="5597" to-port="1" />
		<edge from-layer="5597" from-port="2" to-layer="5599" to-port="0" />
		<edge from-layer="5598" from-port="0" to-layer="5599" to-port="1" />
		<edge from-layer="5599" from-port="2" to-layer="5601" to-port="0" />
		<edge from-layer="5600" from-port="0" to-layer="5601" to-port="1" />
		<edge from-layer="5601" from-port="2" to-layer="5602" to-port="0" />
		<edge from-layer="5602" from-port="1" to-layer="5603" to-port="1" />
		<edge from-layer="5603" from-port="2" to-layer="5604" to-port="1" />
		<edge from-layer="5604" from-port="2" to-layer="5605" to-port="1" />
		<edge from-layer="5605" from-port="2" to-layer="5616" to-port="0" />
		<edge from-layer="5605" from-port="2" to-layer="5628" to-port="0" />
		<edge from-layer="5606" from-port="0" to-layer="5607" to-port="0" />
		<edge from-layer="5607" from-port="1" to-layer="5610" to-port="0" />
		<edge from-layer="5608" from-port="0" to-layer="5609" to-port="0" />
		<edge from-layer="5609" from-port="1" to-layer="5610" to-port="1" />
		<edge from-layer="5610" from-port="2" to-layer="5613" to-port="0" />
		<edge from-layer="5611" from-port="0" to-layer="5612" to-port="0" />
		<edge from-layer="5612" from-port="1" to-layer="5613" to-port="1" />
		<edge from-layer="5613" from-port="2" to-layer="5615" to-port="0" />
		<edge from-layer="5614" from-port="0" to-layer="5615" to-port="1" />
		<edge from-layer="5615" from-port="2" to-layer="5616" to-port="1" />
		<edge from-layer="5616" from-port="2" to-layer="5617" to-port="0" />
		<edge from-layer="5617" from-port="1" to-layer="5629" to-port="0" />
		<edge from-layer="5618" from-port="0" to-layer="5619" to-port="0" />
		<edge from-layer="5619" from-port="1" to-layer="5622" to-port="0" />
		<edge from-layer="5620" from-port="0" to-layer="5621" to-port="0" />
		<edge from-layer="5621" from-port="1" to-layer="5622" to-port="1" />
		<edge from-layer="5622" from-port="2" to-layer="5625" to-port="0" />
		<edge from-layer="5623" from-port="0" to-layer="5624" to-port="0" />
		<edge from-layer="5624" from-port="1" to-layer="5625" to-port="1" />
		<edge from-layer="5625" from-port="2" to-layer="5627" to-port="0" />
		<edge from-layer="5626" from-port="0" to-layer="5627" to-port="1" />
		<edge from-layer="5627" from-port="2" to-layer="5628" to-port="1" />
		<edge from-layer="5628" from-port="2" to-layer="5629" to-port="1" />
		<edge from-layer="5629" from-port="2" to-layer="5640" to-port="0" />
		<edge from-layer="5630" from-port="0" to-layer="5631" to-port="0" />
		<edge from-layer="5631" from-port="1" to-layer="5634" to-port="0" />
		<edge from-layer="5632" from-port="0" to-layer="5633" to-port="0" />
		<edge from-layer="5633" from-port="1" to-layer="5634" to-port="1" />
		<edge from-layer="5634" from-port="2" to-layer="5637" to-port="0" />
		<edge from-layer="5635" from-port="0" to-layer="5636" to-port="0" />
		<edge from-layer="5636" from-port="1" to-layer="5637" to-port="1" />
		<edge from-layer="5637" from-port="2" to-layer="5639" to-port="0" />
		<edge from-layer="5638" from-port="0" to-layer="5639" to-port="1" />
		<edge from-layer="5639" from-port="2" to-layer="5640" to-port="1" />
		<edge from-layer="5640" from-port="2" to-layer="5641" to-port="1" />
		<edge from-layer="5641" from-port="2" to-layer="5644" to-port="0" />
		<edge from-layer="5641" from-port="2" to-layer="5651" to-port="0" />
		<edge from-layer="5642" from-port="0" to-layer="5650" to-port="0" />
		<edge from-layer="5643" from-port="0" to-layer="5644" to-port="1" />
		<edge from-layer="5644" from-port="2" to-layer="5646" to-port="0" />
		<edge from-layer="5645" from-port="0" to-layer="5646" to-port="1" />
		<edge from-layer="5646" from-port="2" to-layer="5648" to-port="0" />
		<edge from-layer="5647" from-port="0" to-layer="5648" to-port="1" />
		<edge from-layer="5648" from-port="2" to-layer="5649" to-port="0" />
		<edge from-layer="5649" from-port="1" to-layer="5650" to-port="1" />
		<edge from-layer="5650" from-port="2" to-layer="5651" to-port="1" />
		<edge from-layer="5651" from-port="2" to-layer="5652" to-port="1" />
		<edge from-layer="5652" from-port="2" to-layer="5661" to-port="0" />
		<edge from-layer="5653" from-port="0" to-layer="5654" to-port="0" />
		<edge from-layer="5654" from-port="1" to-layer="5657" to-port="0" />
		<edge from-layer="5655" from-port="0" to-layer="5656" to-port="0" />
		<edge from-layer="5656" from-port="1" to-layer="5657" to-port="1" />
		<edge from-layer="5657" from-port="2" to-layer="5660" to-port="0" />
		<edge from-layer="5658" from-port="0" to-layer="5659" to-port="0" />
		<edge from-layer="5659" from-port="1" to-layer="5660" to-port="1" />
		<edge from-layer="5660" from-port="2" to-layer="5661" to-port="1" />
		<edge from-layer="5661" from-port="2" to-layer="5662" to-port="0" />
	</edges>
	<rt_info>
		<Runtime_version value="2024.2.0-15068-92bf2a2e088" />
		<conversion_parameters>
			<framework value="pytorch" />
			<is_python_object value="True" />
		</conversion_parameters>
		<nncf>
			<friendly_names_were_updated value="True" />
			<weight_compression>
				<all_layers value="False" />
				<awq value="False" />
				<group_size value="128" />
				<ignored_scope>
					<names value="[]" />
					<patterns value="[]" />
					<subgraphs value="[]" />
					<types value="[]" />
					<validate value="True" />
				</ignored_scope>
				<mode value="int4_asym" />
				<ratio value="0.8" />
				<sensitivity_metric value="weight_quantization_error" />
			</weight_compression>
		</nncf>
	</rt_info>
</net>
